trained_models/model_dimension3_500_epochs.pt (torch_old, 78590 bytes, 8 tensors)

fc1.weight f4 [64, 144]
0	0xbde3b474	-0.11118403
1	0xbdda8ac9	-0.106710024
2	0xbde08cd1	-0.109643586
3	0xbd7acba0	-0.06122935
4	0xbdfb08a5	-0.12257508
5	0xbe1bebed	-0.15226717
6	0xbdeb1c6e	-0.11480032
7	0xbd792f6d	-0.060836244
8	0xbdd13a0f	-0.10216152
9	0xb9fa73cb	-0.00047769988
10	0x3c783134	0.01514845
11	0xbced6593	-0.028979098
12	0xbd1cbf09	-0.038268123
13	0x3d4bbf07	0.049742725
14	0x3c7b119b	0.015324022
15	0xbd37329c	-0.044726
16	0xbe1fb8e4	-0.15597874
17	0xbc92c003	-0.017913824
18	0xbd0b7579	-0.034047578
19	0xbe0db9b3	-0.1384037
20	0xbdf56d3c	-0.119837254
21	0xbd92604c	-0.071472734
22	0xbe2d9ca4	-0.16954285
23	0xbde60ac5	-0.11232523
24	0xbd044264	-0.032289878
25	0x3c1a74de	0.009427277
26	0x3d8030ed	0.06259332
27	0xb9ea3f8d	-0.00044679307
28	0x3e07239c	0.13197178
29	0x3e2a1a58	0.16611612
30	0x3dbe0015	0.092773594
31	0x3e226d6e	0.15862057
32	0x3dca9121	0.098909624
33	0x3dab1097	0.08352774
34	0x3dd3864e	0.10328351
35	0x3d96406b	0.073365055
36	0xbd1c0be7	-0.03809729
37	0x3d0fbc58	0.035091728
38	0x3dc5d2f0	0.09659374
39	0xbc4f65b0	-0.0126585215
40	0x3c6e76fb	0.014554734
41	0x3d8645dd	0.06556294
42	0x3d143ac8	0.03618887
43	0x3d2d2413	0.04227073
44	0x3c5e85dc	0.013581719
45	0x3d35f578	0.04442355
46	0x3da6e0c2	0.08148338
47	0x3d16d717	0.03682622
48	0xba9f9390	-0.0012174714
49	0x3d895ec5	0.06707529
50	0x3d16521d	0.036699403
51	0x3e05b704	0.13058096
52	0x3d910848	0.07081658
53	0xbd691b14	-0.05691059
54	0xbd69cd22	-0.057080396
55	0x3d9369b1	0.071978934
56	0xbcd72550	-0.02626291
57	0x3dbfcd72	0.093653575
58	0xbccb8eeb	-0.024848422
59	0x3d75eab7	0.060038295
60	0x3da84ef3	0.08218183
61	0xb9d90b2b	-0.00041397786
62	0xbc919f40	-0.017776132
63	0xbc1692fc	-0.009190317
64	0xbd39bb56	-0.045344673
65	0xbcd67b5a	-0.026181865
66	0xbd8e8cbb	-0.06960436
67	0xbd993de9	-0.074825116
68	0x3c0e9b5b	0.008704032
69	0xbc0a726b	-0.008450131
70	0xbd89997b	-0.06718727
71	0xbce296b9	-0.02765976
72	0xbd287c49	-0.041134153
73	0x3d2c8dc6	0.042127393
74	0x3c668622	0.014070066
75	0xbd8d0063	-0.068848394
76	0x3bb6df61	0.005580828
77	0xbd9dd785	-0.07707123
78	0xbbf74c42	-0.0075469324
79	0xbcae631e	-0.021287497
80	0xbcdc94fa	-0.026926506
81	0x3dadd97b	0.08488747
82	0xbbc772c2	-0.0060866782
83	0xbd824163	-0.06360128
84	0x3b1087d5	0.0022053618
85	0x3d450dd4	0.04810889
86	0x3c42fa45	0.011900489
87	0x3cc584e7	0.024111224
88	0x3c042da2	0.00806752
89	0xbda0b904	-0.07847789
90	0xbd3008c8	-0.042977124
91	0x3bc9d2ba	0.0061591538
92	0x3d429520	0.047505498
93	0x3d16a8d5	0.036782105
94	0xbcbabcd8	-0.022795126
95	0x3d95da2c	0.073170036
96	0xbcac1fdf	-0.021011291
97	0x3dbac382	0.091193214
98	0x3d116490	0.035496294
99	0x3d634fee	0.05549615
100	0x3e268cab	0.16264598
101	0xbccece0e	-0.025244739
102	0x3d107df8	0.035276383
103	0x3e18de04	0.14928442
104	0x3cc055f9	0.023478495
105	0x3d1bc331	0.038027946
106	0x3c2bb83d	0.010480938
107	0xbd94c2c1	-0.07263709
108	0xbda79715	-0.081831135
109	0xbdc6fbcb	-0.097159944
110	0xbd84e479	-0.0648889
111	0xbe09dced	-0.13463183
112	0x3dc9cf2e	0.098539695
113	0x3d8ebd56	0.06969707
114	0x3cbf0948	0.023319855
115	0x3cc2e863	0.023792451
116	0x3e06e94b	0.13174932
117	0x3da99007	0.08279424
118	0x3e032af5	0.12809356
119	0xbc2fef5c	-0.01073822
120	0xbd8f21a1	-0.06988836
121	0xbc9626b4	-0.018329002
122	0xba73ea0b	-0.00093045895
123	0xbdd21de4	-0.102596074
124	0xbdd91256	-0.105992004
125	0xbdb7077c	-0.089369744
126	0x3d1250b3	0.035721492
127	0x3cad9ba0	0.021192372
128	0x3c4feba4	0.012690458
129	0x3cb08912	0.021549735
130	0xbd578431	-0.052616302
131	0x3d7d253b	0.061803084
132	0x3dbdce4f	0.09267866
133	0xbd22feff	-0.039793964
134	0xbcc65994	-0.024212636
135	0xbdb8d48d	-0.09024916
136	0x3d9f0c83	0.07766058
137	0xbd4e1eb2	-0.050322242
138	0x3d01cfa6	0.03169217
139	0x3d829fad	0.06378112
140	0xbd2180f2	-0.039429612
141	0x3c1ca6f6	0.009561291
142	0x3d223eb8	0.039610595
143	0x3e085743	0.13314538
144	0x3d98f79b	0.07469102
145	0xbd2a7de3	-0.04162396
146	0x3d9b5a80	0.07585621
147	0xbc931468	-0.017954066
148	0x3d970741	0.073744304
149	0x3d94fc8e	0.072747335
150	0xbd96b4c0	-0.07358694
151	0x3c680dce	0.014163448
152	0x3cac6125	0.021042416
153	0xbd079318	-0.033099264
154	0xbc4cd0ba	-0.012500936
155	0xbc96f7c4	-0.01842869
156	0x3db34ead	0.087552406
157	0xbbea6fb7	-0.0071544307
158	0xbdda8686	-0.106701896
159	0xbe00210f	-0.12512611
160	0x3d923a72	0.07140054
161	0xbd29d93b	-0.041466933
162	0x3da88260	0.08227992
163	0xbca6c4a2	-0.020357434
164	0x3db49e46	0.08819251
165	0xbd533e00	-0.0515728
166	0xbc8cc5e8	-0.017184213
167	0x3d8b78db	0.06810161
168	0xbe0ca898	-0.13736188
169	0x3d453696	0.04814776
170	0xbdb967b4	-0.09052983
171	0xbd845715	-0.06461922
172	0x3da66560	0.081248045
173	0xbc40549a	-0.011738921
174	0xbc8dfb7d	-0.017331833
175	0xbe1b2f8e	-0.1515486
176	0xbc806c7e	-0.015676733
177	0x3cf2c8e2	0.029636804
178	0xbd2b724b	-0.041857045
179	0x3cf16074	0.029464938
180	0xbde11136	-0.10989611
181	0x3d3dfed2	0.046385594
182	0xbd3b302a	-0.04570023
183	0xbca68e31	-0.020331474
184	0x3d5123b2	0.051059432
185	0xbd20c1a6	-0.039247178
186	0xbc8771d6	-0.016533773
187	0x3d96f2c9	0.07370526
188	0x3d859e3f	0.06524324
189	0x3ccc8b5f	0.024968801
190	0xbd68beb9	-0.056822512
191	0xbdd0b2a7	-0.10190325
192	0x3dab622b	0.083683334
193	0x3d852ec2	0.06503059
194	0x3d934354	0.07190576
195	0x3d2ea09e	0.042633645
196	0x3df6c989	0.120501585
197	0x3dacb88a	0.084336355
198	0xbb20e048	-0.0024547745
199	0xbd8f066d	-0.069836475
200	0x3d4ae946	0.049538873
201	0xbdb98dbc	-0.09060237
202	0x3c62106b	0.01379786
203	0x3c5fa0dc	0.013649192
204	0xbde9718f	-0.11398613
205	0xbd9327f6	-0.07185356
206	0xbdd311f0	-0.10306156
207	0xbce4a10d	-0.027908826
208	0x3da1f954	0.07908884
209	0xbcdf6a50	-0.027272373
210	0xbb64e689	-0.0034927449
211	0xbc421a95	-0.011847158
212	0x3c7bb363	0.015362593
213	0xbe05008a	-0.12988487
214	0xbc1b4aa0	-0.009478241
215	0xbdedca05	-0.11610798
216	0x3e0b3d70	0.13597655
217	0x3e2154bc	0.1575498
218	0x3e0a4fa1	0.13506939
219	0x3e2427c5	0.16030796
220	0x3e002ea7	0.12517796
221	0x3d7d017e	0.061769
222	0x3e5e6036	0.21716389
223	0x3e522ad0	0.20524144
224	0xbdc4d348	-0.09610611
225	0xbdc1eb43	-0.09468701
226	0xbd24e7fb	-0.040260296
227	0x3d19f3c8	0.037586004
228	0x3de1f8db	0.110337935
229	0x3d4397fe	0.047752373
230	0x3d5d3cd1	0.054013077
231	0xbd8d41c9	-0.06897313
232	0x3a996bb3	0.001170507
233	0xbd0ad749	-0.03389672
234	0x3d2bae3c	0.04191421
235	0xbd8601ce	-0.06543313
236	0x3e0ffd22	0.14061406
237	0x3dbc8880	0.09205723
238	0x3cc5b14e	0.024132397
239	0x3c1a9b22	0.009436401
240	0x3c64739d	0.01394358
241	0xbdb33ea8	-0.08752185
242	0xbcc2ccce	-0.0237793
243	0xbdcace42	-0.09902622
244	0xbde2d433	-0.1107563
245	0x3d960ac0	0.07326269
246	0x3e35a91f	0.17740296
247	0x3de99710	0.11405766
248	0x3cc48c7e	0.023992773
249	0x3c693f8c	0.014236342
250	0x3c1cf714	0.009580392
251	0xbba91a20	-0.005160585
252	0xbd291e42	-0.04128862
253	0xbd4c5198	-0.0498825
254	0xbda6afff	-0.08139037
255	0xbcd6a8e9	-0.02620359

fc1.bias f4 [64]
0	0xbbad4df6	-0.0052888347
1	0x3d936b73	0.07198229
2	0xbd980dca	-0.07424505
3	0xbc164184	-0.009170894
4	0xbc3e19b6	-0.01160281
5	0x3d8fc25c	0.07019493
6	0xbc571c1a	-0.0131292585
7	0xbd87176d	-0.06596265
8	0xbd038282	-0.032106884
9	0xbd95b5ba	-0.07310052
10	0x3d11bf0b	0.035582583
11	0xbb66c678	-0.0035213511
12	0xbc1787a5	-0.009248649
13	0xba8d82c6	-0.001079642
14	0x3d1d23e1	0.038364295
15	0xbd85bb1b	-0.06529828
16	0xbd57100e	-0.052505545
17	0xbda006d4	-0.07813802
18	0x3d7218ac	0.05910556
19	0x3d8ebd9e	0.0696976
20	0x3d7aa2d4	0.06119044
21	0x3cdd59b9	0.027020322
22	0xbd1f3410	-0.03886801
23	0x3d9bfa24	0.0761607
24	0x3d452df8	0.048139542
25	0xbd9c170b	-0.076215826
26	0x3bc00b13	0.005860695
27	0xbd17e8e9	-0.037087355
28	0xba082068	-0.0005192817
29	0xbd5f5a41	-0.054529432
30	0x3c95ee39	0.01830207
31	0xbd96cb58	-0.073630035
32	0x3cbb8607	0.022891058
33	0x3ac89921	0.0015304425
34	0xba08d72f	-0.0005220053
35	0x3da0043d	0.078133084
36	0xbd57a1fc	-0.052644715
37	0xbcadd780	-0.021220922
38	0xbc8783ba	-0.016542304
39	0x3d779b97	0.060451116
40	0xbc935178	-0.017983183
41	0x3d8d5446	0.069008395
42	0xbd5b7164	-0.053574935
43	0xbda09889	-0.07841594
44	0x3c90f68e	0.017695691
45	0xbda518ca	-0.08061369
46	0xbd9f2f8d	-0.077727415
47	0xbd3fdd22	-0.046841748
48	0x3d056724	0.032569066
49	0xbd15855b	-0.03650413
50	0x3c5788f3	0.01315521
51	0xbd3c3286	-0.04594662
52	0x3d788b78	0.060679883
53	0x3d342431	0.043979827
54	0xbd50f2b2	-0.051012702
55	0xbd8ce9d3	-0.06880536
56	0x3d8f9c25	0.07012204
57	0xbd8930df	-0.066987745
58	0x3d9716cc	0.07377395
59	0xbcddf779	-0.027095543
60	0xbd3fd548	-0.04683426
61	0x3d5f7102	0.054551132
62	0xbda26ea9	-0.07931263
63	0xbca85bc0	-0.020551562

fc2.weight f4 [64, 64]
0	0x39f890e9	0.00047410213
1	0x3d881fdd	0.066467024
2	0x3d26c1af	0.040712055
3	0x3e1455ac	0.14485806
4	0xbce63e9d	-0.028106028
5	0x3da8b9e6	0.08238582
6	0x3e24020a	0.16016403
7	0x3c0b9aa6	0.008520758
8	0x3def5a6c	0.116871685
9	0xbda66eb5	-0.081265844
10	0xbe0a04de	-0.13478419
11	0xbdb62776	-0.08894245
12	0x3e0e019d	0.13867803
13	0x3d0e3cda	0.034726
14	0x3e3ffddc	0.18749183
15	0xbdce2da6	-0.100673005
16	0x3cf49155	0.029854456
17	0xbd656e4d	-0.056013394
18	0xbd877f76	-0.06616108
19	0x3dc42619	0.09577579
20	0x3d92e865	0.07173232
21	0x3d0b4fe1	0.034011725
22	0x3e540320	0.20704317
23	0x3dd0a0f0	0.101869464
24	0xbe1cd55c	-0.15315765
25	0x3db56f79	0.08859152
26	0xbda82b0e	-0.08211337
27	0xbe32d4be	-0.17463967
28	0xbd5a8b9b	-0.053355794
29	0x3df5c314	0.12000099
30	0x3e029cda	0.12755147
31	0xbda91938	-0.08256763
32	0x3c9a8073	0.018860077
33	0x3dfc73e1	0.1232679
34	0x3d350c68	0.044201285
35	0x3df7f471	0.121071704
36	0xbd8a1b3b	-0.06743475
37	0xbce78008	-0.028259292
38	0x3d786920	0.06064713
39	0x3de55395	0.11197583
40	0x3dfef942	0.12449886
41	0xbca28dc1	-0.019842984
42	0xbbf5fee6	-0.007507193
43	0x3d5d25c0	0.05399108
44	0xbd8b449b	-0.06800195
45	0xbbba5511	-0.0056864102
46	0x3dc55665	0.09635619
47	0xbd281da7	-0.041043904
48	0x3cf16354	0.029466309
49	0x3a27b05e	0.0006396825
50	0xbd674eb3	-0.056471538
51	0xbe02454b	-0.12721746
52	0xbbaa3842	-0.0051946947
53	0xbdfc1ece	-0.12310563
54	0xbdb0cc2a	-0.08632691
55	0xbd069493	-0.032856535
56	0x3d6636cb	0.0562046
57	0x3cc4472e	0.023959722
58	0x3d9cf750	0.076643586
59	0xbd8ac688	-0.06776148
60	0x3d155ac7	0.036463525
61	0x3d8a0c2a	0.06740601
62	0xbd6c264d	-0.057653714
63	0x3cffeec0	0.031241775
64	0x3ded39fc	0.11583325
65	0x3cbe3ae9	0.02322145
66	0xbc3ff8df	-0.01171705
67	0xbd60a0aa	-0.05484072
68	0xbd25886e	-0.040413313
69	0xbcbab38f	-0.022790698
70	0xba9006fc	-0.001098841
71	0x3ea96b25	0.33089557
72	0x3d15d4c2	0.036579855
73	0x3c4e50ca	0.012592504
74	0xbcf08926	-0.029362272
75	0xbcf16bf1	-0.029470416
76	0xbe41594e	-0.18881723
77	0xbd106748	-0.035254747
78	0x3e1abf77	0.151121
79	0xbdd0878b	-0.10182103
80	0x3d9a596a	0.07536586
81	0xbdd31ff0	-0.10308826
82	0x3dfccf8c	0.12344274
83	0xbcd20b5c	-0.025640182
84	0x3bbc10d8	0.0057393126
85	0xbe24f96e	-0.16110775
86	0x3d893f10	0.06701481
87	0xbca0e52a	-0.019640524
88	0x3e1caa40	0.1529932
89	0x3def7d4e	0.11693822
90	0xbe6b6598	-0.22987974
91	0xbd44ae6e	-0.04801791
92	0x3dfd7675	0.123761095
93	0xbd22fb1b	-0.039790254
94	0xbd3213b6	-0.04347583
95	0xbd79a08e	-0.060944133
96	0x3d890a4c	0.06691417
97	0x3e0843f7	0.13307177
98	0x3dd45e00	0.103694916
99	0xbdf9564e	-0.121746644
100	0xbdd76fcb	-0.1051937
101	0xbe69922f	-0.22809671
102	0x3c794756	0.015214762
103	0xbd86c34f	-0.06580221
104	0x3cf07864	0.029354282
105	0x3dd9b1d5	0.10629622
106	0xbdbfacd9	-0.0935914
107	0xbc8d4e29	-0.017249184
108	0xbd245f4d	-0.04012995
109	0xbe0b821e	-0.13623855
110	0xbdea0dab	-0.11428388
111	0x3e227f57	0.15868889
112	0x3e17a339	0.14808358
113	0x3dd5dd51	0.104426034
114	0x3e1f3976	0.15549263
115	0x3db0c27c	0.08630845
116	0x3c4e7cdb	0.01260301
117	0xbc9a8b39	-0.018865215
118	0x3dd8f2ba	0.105931714
119	0xbd06c92a	-0.03290669
120	0xbd2e707b	-0.04258774
121	0xbe2b0773	-0.1670206
122	0xbdb1d373	-0.08682909
123	0xbe2e4e4e	-0.17022058
124	0x3c9024b9	0.017595636
125	0x3cb314fb	0.02186059
126	0xbdfd2fa2	-0.12362601
127	0xbd7af92a	-0.061272778
128	0x3d17d480	0.03706789
129	0x3c2b1d73	0.010444033
130	0x3d98b7b5	0.07456914
131	0x3ddd2768	0.10798532
132	0xbe0dc0d2	-0.13843086
133	0xbd994352	-0.074835435
134	0x3df9eccd	0.12203369
135	0xbd0d3361	-0.034472827
136	0x3e3022ca	0.17200771
137	0xbdd5a93a	-0.10432668
138	0x3d338ba4	0.043834344
139	0xbd93ce5b	-0.072170936
140	0x3d6fded4	0.058562115
141	0xbda8b545	-0.082376994
142	0x3cb44d69	0.022009568
143	0x3dfbf8c4	0.12303308
144	0xbd52f08a	-0.051498927
145	0x3df9d444	0.121986896
146	0x3d6fcc4c	0.058544442
147	0xbc8098db	-0.015697887
148	0x3d859260	0.065220594
149	0x3ba7af1a	0.0051173093
150	0x3e6cac50	0.23112607
151	0x3dc904af	0.098153464
152	0x3dbcbfaa	0.092162445
153	0xbde85586	-0.11344437
154	0xbe0e3864	-0.13888699
155	0xbe032587	-0.12807284
156	0xbe31442e	-0.17311165
157	0xbdda1ddf	-0.10650229
158	0x3dbfc3bb	0.093635045
159	0x3d634f14	0.055495337
160	0xbd4b3bcb	-0.04961757
161	0xbe0f6b43	-0.14005761
162	0xbd703d34	-0.058652118
163	0xbe5177f8	-0.2045592
164	0xbd033007	-0.032028224
165	0x3d1c0b1b	0.03809653
166	0x3d90beab	0.07067617
167	0x3b953263	0.0045531257
168	0xbdb96f6b	-0.090544544
169	0xbce373fa	-0.027765263
170	0x3dcaa0ec	0.09893975
171	0xbde53801	-0.111923225
172	0x3bbd87f7	0.0057840305
173	0xbe14fa87	-0.14548694
174	0x3d14243d	0.036167372
175	0xbdab5d6a	-0.08367427
176	0x3b091060	0.0020914301
177	0x3c277106	0.010219818
178	0x3c4a0158	0.012329422
179	0x3e33f8fa	0.17575446
180	0x3e1c1ee3	0.15246157
181	0xbddeea48	-0.10884529
182	0x3d3b6dcc	0.045759007
183	0x3dbacd85	0.09121231
184	0x3e2691b8	0.16266525
185	0xbbb1c328	-0.0054248758
186	0xbe5b369a	-0.21407548
187	0x3e152511	0.14564921
188	0x3cdcc7a4	0.026950665
189	0xbe955d06	-0.29172534
190	0x3c456699	0.012048387
191	0xbe07494c	-0.13211554
192	0x3d7fe92d	0.062478233
193	0x3dae5aed	0.085134365
194	0x3bdfcec0	0.0068300664
195	0x3d2443a6	0.040103577
196	0x3ce5a0cc	0.028030775
197	0xbd92a75a	-0.07160826
198	0xbe0ed8b7	-0.13949858
199	0xbdc5db4d	-0.09660969
200	0xbdfd5212	-0.12369169
201	0x3debc06e	0.115113124
202	0xbe0211f0	-0.12702155
203	0xbd8d8214	-0.06909576
204	0xbe368bf4	-0.17826825
205	0x3d7b52c9	0.061358247
206	0xbe373f58	-0.17895257
207	0xbbbaef04	-0.0057047624
208	0x3e3da95b	0.18521635
209	0xba760b41	-0.0009385832
210	0x3e6c3d03	0.23070149
211	0xbe35c21e	-0.17749831
212	0x3d970a84	0.073750526
213	0x3e60334a	0.21894565
214	0xbe379d50	-0.17931104
215	0x3d0c1adc	0.034205303
216	0xbc652bf0	-0.013987526
217	0x3d065bfa	0.03280256
218	0x3d9bfea2	0.07616927
219	0x3e0c0277	0.13672815
220	0x3dcd419c	0.100222796
221	0xbe6dcd8a	-0.23222938
222	0xbc0d1d4f	-0.008612945
223	0xbdc8ab9b	-0.09798356
224	0xbe0cd0db	-0.13751547
225	0x3b5b0278	0.003341822
226	0xbd845a71	-0.06462563
227	0xbdb65643	-0.08903172
228	0x3e408b51	0.18803145
229	0x3d9e1bd5	0.07720152
230	0xbe24d5ac	-0.16097134
231	0x3e551792	0.20809773
232	0xbe036162	-0.12830117
233	0xbd810987	-0.06300645
234	0x3b18134e	0.0023204866
235	0x3dac351f	0.084085695
236	0xbd6960a8	-0.056976944
237	0x3e0e22dc	0.13880485
238	0xbd8a801c	-0.06762716
239	0x3d3198ed	0.043358732
240	0x3d877fbe	0.06616162
241	0xbdd91547	-0.105997615
242	0xbc672603	-0.014108184
243	0x3aa303b2	0.0012437014
244	0xbdb59ea4	-0.08868149
245	0xbddf408a	-0.10900982
246	0xbdfe531a	-0.12418194
247	0xbe05d603	-0.1306992
248	0x3db5826c	0.088627666
249	0x3cb7cbb7	0.022436006
250	0x3de1648e	0.110055074
251	0x3e86859a	0.26273805
252	0xbdf03293	-0.11728396
253	0x3d626924	0.05527605
254	0x3b6a5b3f	0.0035759953
255	0xbcdc2137	-0.026871307

fc2.bias f4 [64]
0	0x3df127f9	0.11775202
1	0xbd478b30	-0.048716724
2	0xbde78212	-0.11304106
3	0xbcb50260	-0.022095859
4	0x3c04105a	0.008060539
5	0x3d9d2d40	0.076746464
6	0xbba1334a	-0.004919444
7	0xbd594988	-0.05304864
8	0xbdca7f9d	-0.098876216
9	0xbc9dfd2e	-0.019285765
10	0xbda881e2	-0.08227898
11	0xbdca336d	-0.0987309
12	0xbd42d7b8	-0.047569007
13	0x3cfd364c	0.03090968
14	0xbda7427b	-0.08166977
15	0x3cb38759	0.021915125
16	0xbd37ea31	-0.044901077
17	0xbc44c4c4	-0.012009803
18	0xbddd0aba	-0.107930616
19	0xbdf61b9c	-0.12016985
20	0x3d64ed0d	0.05589013
21	0xbd98146a	-0.07425769
22	0x3bef5e69	0.0073049557
23	0x3da7d370	0.081946254
24	0xbdfe1733	-0.12406769
25	0xbdd459a8	-0.10368663
26	0x3db36d11	0.08761037
27	0xbc7c15a6	-0.015386021
28	0x3de2d2e1	0.11075378
29	0x3db69813	0.089157246
30	0xbdd69400	-0.104774475
31	0xbceb275b	-0.02870529
32	0xba841164	-0.0010075984
33	0x3dc7c0de	0.09753583
34	0x3d77916d	0.060441423
35	0xbdeba22b	-0.115055405
36	0xbdf1d2ad	-0.11807761
37	0xbd30f3a3	-0.0432011
38	0xbdfd8ec5	-0.12380747
39	0x3bce189f	0.006289556
40	0xbd990670	-0.07471931
41	0x3beda4b9	0.0072523025
42	0x3db00caf	0.08596169
43	0xbb93aa30	-0.004506372
44	0x3d4552c9	0.048174653
45	0xbd54362b	-0.05180947
46	0x3da25b0a	0.079275206
47	0xbd14380e	-0.03618627
48	0x3cf8a1c2	0.03035057
49	0xbd8f9032	-0.07009925
50	0xbcf7639c	-0.030198865
51	0x3d83bf1e	0.06432937
52	0xbda1504e	-0.07876645
53	0x3dd6c3ae	0.10486542
54	0xbda68527	-0.081308655
55	0x3dd16cc5	0.10225824
56	0xbdf11f37	-0.11773532
57	0x3dc54eca	0.096341684
58	0x3d22a882	0.039711483
59	0x3c80bf61	0.015716257
60	0xbd8d7ea2	-0.06908919
61	0xbd9101ec	-0.07080445
62	0xbd469ad4	-0.0484875
63	0xbd253522	-0.040333875

fc3.weight f4 [64, 64]
0	0x3d8b6e10	0.06808102
1	0xbd1bb777	-0.038016763
2	0xbe2fb721	-0.17159702
3	0x3bb44995	0.0055019357
4	0xbd038ec4	-0.032118574
5	0xbcb9e190	-0.022690564
6	0x3daf1ef3	0.08550825
7	0x3c9420e1	0.018082084
8	0x3cd301df	0.025757728
9	0xbdc52eec	-0.0962809
10	0xbe0793c3	-0.1323996
11	0x3da90a49	0.08253915
12	0x3d62c7ca	0.055366315
13	0x3dd186b2	0.10230769
14	0xbe184cce	-0.14873049
15	0xbdd169f7	-0.10225289
16	0xbd876efa	-0.06612964
17	0xbe1c095c	-0.15237945
18	0x3d2e8dec	0.042615816
19	0xbcef76ac	-0.029231392
20	0x3dd47ba0	0.10375142
21	0x3dde7717	0.10862558
22	0x3dfd3a73	0.12364664
23	0xbce4b65d	-0.027918989
24	0x3d527233	0.05137844
25	0xbdced7bc	-0.10099742
26	0x3d68a581	0.05679846
27	0x3e5a0a18	0.21292913
28	0xbdbcebf3	-0.09224691
29	0x3d06543c	0.032795176
30	0x3c212eaf	0.00983779
31	0x3db31614	0.087444454
32	0x3d7a3995	0.06109007
33	0x3e2b8682	0.1675053
34	0x3b0424cc	0.0020163534
35	0x3e083254	0.13300449
36	0xbd531812	-0.051536627
37	0x3db3fdd2	0.08788647
38	0x3c65a633	0.014016676
39	0xbd8e1d9f	-0.069392435
40	0x3e6286d9	0.22121753
41	0xbd76cc17	-0.06025323
42	0x3da3b76c	0.07993969
43	0xbde4d765	-0.11173896
44	0x3e1ed926	0.15512523
45	0x3d1cc784	0.03827621
46	0x3dd6c9a6	0.1048768
47	0xbe19a5d6	-0.15004668
48	0xbd8d72d2	-0.06906666
49	0x3ccbcf0a	0.024878997
50	0x3e13537f	0.1438732
51	0xbe1fadcd	-0.15593643
52	0xbc6c1133	-0.0144083975
53	0xbd849f8e	-0.06475745
54	0xbd92679f	-0.071486704
55	0xbe0918fb	-0.13388436
56	0xbe0f4163	-0.13989787
57	0xbd8a73c7	-0.06760364
58	0xbda1cff7	-0.07900994
59	0xbda76756	-0.08174007
60	0xbe42f605	-0.19039162
61	0xbdea92d6	-0.11453788
62	0xbde05565	-0.10953788
63	0x3d1d80ad	0.038452793
64	0xbd956faa	-0.07296689
65	0xbdae889f	-0.08522152
66	0x3dfbfc31	0.12303961
67	0x3db6bc34	0.08922616
68	0x3c36242e	0.011117024
69	0x3d2db7fd	0.042411793
70	0xba5dc6ec	-0.00084601226
71	0xbcc795ec	-0.02436348
72	0xb9ba1257	-0.0003549035
73	0xbbd76bb3	-0.006574118
74	0xbd80790e	-0.06273089
75	0x3de31c43	0.11089375
76	0xbdaac46a	-0.08338244
77	0xbdffd4c8	-0.12491757
78	0xbd982e05	-0.074306525
79	0xbd70296f	-0.058633264
80	0xbdb1f7e4	-0.086898595
81	0x3d3423a7	0.043979313
82	0x3d5f4e84	0.054518238
83	0xbd7e333d	-0.062060583
84	0x3c547828	0.012968101
85	0xbcb38186	-0.021912348
86	0x3e314f59	0.17315425
87	0xbc7ba4ec	-0.015359145
88	0xbdcee9bf	-0.10103177
89	0xbdad8fa7	-0.08474665
90	0x3d9a59f2	0.07536687
91	0x3d54df92	0.051971026
92	0x3dc3904c	0.09549007
93	0xbde211bb	-0.11038538
94	0x3d73420a	0.05938915
95	0xbd5d764c	-0.054067895
96	0xbc6b3dd9	-0.014358007
97	0xbd4175f2	-0.047231622
98	0x3dd8f798	0.105941
99	0xbe0e06a4	-0.1386972
100	0xbdddee98	-0.10836524
101	0xbdb9e0b4	-0.09076062
102	0xbda951a9	-0.082675286
103	0xbd70a2d2	-0.058749028
104	0x3e00751d	0.12544675
105	0xbe0a66b1	-0.13515736
106	0x3cf747fc	0.030185692
107	0xbdf68444	-0.120369464
108	0x3da7cb62	0.08193089
109	0xbdfac52b	-0.12244638
110	0xbcc730df	-0.024315296
111	0x3c8a3353	0.016870176
112	0xbd51b750	-0.05120021
113	0xbdf88ede	-0.12136625
114	0xbc99a118	-0.018753573
115	0x3d988714	0.07447639
116	0x3d7e160f	0.062032755
117	0x3ddf3b1b	0.10899945
118	0x3dd18d8e	0.102320775
119	0xbe300f86	-0.17193422
120	0xbcc2ac52	-0.02376381
121	0xbd1debaf	-0.038554844
122	0xbd8a7f26	-0.06762533
123	0x3e3d85ca	0.18508068
124	0xbdeaf436	-0.11472361
125	0x3cbe0e62	0.023200218
126	0x3e06ebb3	0.1317585
127	0x3d4d85dd	0.05017649
128	0x3e1caf2a	0.15301195
129	0x3d8bfee9	0.0683573
130	0xbc95f876	-0.018306952
131	0x3d6f49f7	0.058420148
132	0xbe05202d	-0.13000555
133	0xbd2a97b0	-0.041648567
134	0x3d519325	0.05116572
135	0x3dd15bd1	0.10222591
136	0xbdb71653	-0.08939805
137	0x3d6a03a2	0.05713237
138	0xbdc27315	-0.094946064
139	0xbd1b48f3	-0.037911367
140	0x3e0e156e	0.13875362
141	0x3da62c15	0.08113877
142	0x3d69576f	0.05696815
143	0x3d06e758	0.03293547
144	0x3ddc0396	0.107428715
145	0x3e087df6	0.133293
146	0xbdd976cd	-0.106183626
147	0xbe12f597	-0.14351498
148	0x3dec2202	0.11529924
149	0xbde682ac	-0.112553924
150	0x3d3f9f4a	0.04678277
151	0xbc50ab80	-0.012736201
152	0x3d5765da	0.052587368
153	0xbd2dfc37	-0.04247686
154	0x3d5c896c	0.053841993
155	0x3dbf1607	0.09330373
156	0x3d70a130	0.05874747
157	0xbd0cda99	-0.03438816
158	0xbd2bf420	-0.041980863
159	0x3d9dfc56	0.07714145
160	0xbd429b26	-0.047511242
161	0xbe24108f	-0.16021942
162	0xbcba3c11	-0.02273372
163	0x3da3ec7d	0.08004091
164	0xbe0a5f96	-0.13513026
165	0xbe297f44	-0.16552454
166	0x3d439139	0.047745917
167	0xbd247ee5	-0.04016008
168	0xbc8b8bfc	-0.017034523
169	0xbcfb704e	-0.0306932
170	0x3ec51068	0.3848908
171	0xbbe727c9	-0.0070543033
172	0xbd885a7f	-0.06657886
173	0xbd15cbed	-0.036571432
174	0xbe0967ab	-0.13418452
175	0x3ddaf2d5	0.10690848
176	0x3d867c96	0.06566732
177	0xbe60b4a6	-0.21943912
178	0x3cc5d93f	0.024151443
179	0xbd8fcad3	-0.070211075
180	0x3e0e4b28	0.13895857
181	0x3e1eb6ea	0.15499464
182	0x3c99d58d	0.018778587
183	0x3e84755c	0.25870788
184	0x3c99810f	0.018738298
185	0xbda028b4	-0.078202635
186	0xbdd76489	-0.105172224
187	0xbe247363	-0.16059642
188	0xbdb71287	-0.08939081
189	0x3db5dd3d	0.088800885
190	0xbdd27066	-0.102753446
191	0x3c581007	0.013187415
192	0x3e230bfe	0.15922543
193	0xbe0e0fd4	-0.13873225
194	0xbd912073	-0.07086267
195	0x3e47d02c	0.19513005
196	0xbc8819bb	-0.016613832
197	0x3ddc088c	0.10743818
198	0x3de70c0f	0.11281597
199	0xbe0213e6	-0.12702903
200	0x3dd44db7	0.103663854
201	0x3cda5546	0.02665199
202	0x3d820d83	0.063502334
203	0xbdaca285	-0.08429436
204	0xbcd1f406	-0.025629055
205	0xbdaa41be	-0.083133206
206	0xbd9d33a9	-0.07675869
207	0xbdfc8194	-0.123294026
208	0x3e4fc8b7	0.2029141
209	0x3da1c5f2	0.07899083
210	0xbd153dfc	-0.036436066
211	0xbe4ec4f2	-0.20192316
212	0xbd036e4b	-0.032087605
213	0xbe047326	-0.1293455
214	0x3ce9d274	0.028542735
215	0xbe1c450b	-0.15260713
216	0xbce8e70f	-0.02843049
217	0x3c1b5a4c	0.009481978
218	0xbd6f0653	-0.05835564
219	0x3df01a1c	0.1172373
220	0x3d9271f0	0.07150638
221	0x3cdd4fe7	0.02701564
222	0xbdb62858	-0.08894414
223	0xbd54bc3e	-0.051937334
224	0xbe150817	-0.14553867
225	0x3de9fc19	0.11425037
226	0xbdf3fc89	-0.11913402
227	0x3c1bfd6a	0.009520868
228	0x3b622b16	0.0034510545
229	0x3e152e02	0.14568332
230	0x3dc63dc8	0.096797526
231	0xbbaef365	-0.0053390735
232	0xbcfc5f77	-0.03080724
233	0xbd93ef41	-0.072233684
234	0x3e964b6e	0.29354423
235	0x3ccffe9d	0.025389964
236	0x3e1ff1fc	0.15619653
237	0x3d82db3c	0.06389472
238	0xbd245ee0	-0.040129542
239	0x3dd65591	0.10465539
240	0xbdb568b7	-0.088578634
241	0x3b65121a	0.0034953416
242	0xbd8416a6	-0.06449632
243	0x3e24b5dc	0.16084999
244	0x3dad9a6c	0.08476719
245	0xbe3b4a90	-0.18290162
246	0x3dbcd941	0.092211254
247	0x3d10f64b	0.035391133
248	0xbe2d401c	-0.16918987
249	0x3e44c301	0.19215013
250	0x3d006fde	0.031356685
251	0x3c815cb6	0.015791278
252	0x3d70617d	0.058686722
253	0xbdd7f3c4	-0.105445415
254	0x3d3c676e	0.045997076
255	0x3dbb134c	0.0913454

fc3.bias f4 [64]
0	0xbd1330c2	-0.03593517
1	0xbd8ae78b	-0.067824446
2	0x3daa584a	0.08317621
3	0x3d05723f	0.032579657
4	0x3d09ebc3	0.033672106
5	0xbdac6967	-0.084185414
6	0x3d5fa1e0	0.054597735
7	0xbd2ccebf	-0.042189356
8	0x3d23152c	0.039815113
9	0x3d777df1	0.06042284
10	0xbad1be6f	-0.0016002188
11	0xbd6e6a2b	-0.05820672
12	0x3b32fccc	0.0027311323
13	0x3d9f3121	0.077730425
14	0xbda18fad	-0.07888732
15	0xbd97b3de	-0.07407354
16	0x3d96148f	0.0732814
17	0x3d9fe573	0.07807436
18	0xbbed3067	-0.007238436
19	0x3cf09fcd	0.029373074
20	0xbd5e38bf	-0.054253336
21	0x3cdc0ccf	0.026861576
22	0x3c140203	0.009033683
23	0xbdb71b99	-0.08940811
24	0xbc9df193	-0.01928023
25	0xbdf62fb6	-0.12020819
26	0xbd86100c	-0.065460294
27	0xbde8e374	-0.11371508
28	0xbdd6b4f1	-0.104837306
29	0xbd94fbd2	-0.072745934
30	0xbd35f2bf	-0.044420954
31	0xbc393109	-0.011303195
32	0xbd696590	-0.056981623
33	0x3dda3917	0.1065542
34	0x3c496c02	0.0122938175
35	0xbcb1d174	-0.02170632
36	0x3dc9bc75	0.098503985
37	0xbdf05a00	-0.11735916
38	0x3d56baaa	0.05242411
39	0x3deca67d	0.115551926
40	0xbd2ef0c0	-0.042710066
41	0x3d42de7c	0.04757546
42	0xbd2df501	-0.042469982
43	0xbd2d02c7	-0.042238977
44	0x3ddf3b43	0.10899975
45	0xbde1b18e	-0.11020194
46	0xbdb647b4	-0.08900395
47	0x3dad08fe	0.08448981
48	0x3d11226c	0.035433218
49	0xbdd3f90c	-0.10350236
50	0x3ca10186	0.019654047
51	0x3dae02c2	0.0849662
52	0x3d9a024b	0.075199686
53	0x3ddc2bdd	0.10750554
54	0x3c5a45fd	0.013322351
55	0x3dfc49b1	0.12318743
56	0xbd52ffc9	-0.051513467
57	0x3d8c02d2	0.068364754
58	0xbdc08b6e	-0.09401594
59	0xbd7a0c74	-0.061047032
60	0x3cb310d5	0.021858612
61	0x3db7cf52	0.0897509
62	0x3ccfd875	0.02537177
63	0x3d945956	0.07243602

fc4.weight f4 [27, 64]
0	0x3e405a94	0.18784553
1	0x3ddf928a	0.10916622
2	0x3d98d488	0.07462412
3	0x3db9a9c3	0.090655826
4	0x3e1d8c1f	0.15385483
5	0x3d01570d	0.03157716
6	0x3dd8832e	0.105718955
7	0x3e005391	0.12531878
8	0xbda16c32	-0.07881965
9	0xbd48c9ad	-0.049020458
10	0x3d105c77	0.03524443
11	0x3ddff7f2	0.10935964
12	0xbe278099	-0.1635765
13	0xbd4e3144	-0.050339952
14	0x3da03de1	0.078243025
15	0x3dae24ae	0.0850309
16	0xbe01d96b	-0.12680595
17	0x3da3c9d9	0.07997484
18	0xbdc57ef4	-0.09643355
19	0x3dab0674	0.0835084
20	0x3e14b592	0.14522389
21	0xbd8396a8	-0.0642522
22	0x3da7443f	0.08167314
23	0x3cf52410	0.029924423
24	0x3cd5845a	0.026064087
25	0xbe5a8729	-0.21340622
26	0x3e2fe51f	0.17177247
27	0xbdca3d37	-0.09874957
28	0xbe621d44	-0.22081476
29	0x3e1186c6	0.14211568
30	0x3e00f26a	0.12592474
31	0x3d228661	0.039678935
32	0x3d6d554f	0.057942685
33	0x3e7a40de	0.24438807
34	0xbe520540	-0.20509815
35	0xbd51e7d9	-0.051246498
36	0x3deaa748	0.114576876
37	0xbda8fe59	-0.08251638
38	0x3c843473	0.016138291
39	0xbe2d92c9	-0.16950525
40	0x3e95d38a	0.29262954
41	0x3d83b35f	0.06430697
42	0xbe2d966d	-0.16951914
43	0x3dbcb989	0.092150755
44	0x3cb39278	0.021920428
45	0x3d4ab881	0.049492363
46	0x3da4fecd	0.08056412
47	0x3deda855	0.116043724
48	0x3d8f4f38	0.06997532
49	0x3e6bb981	0.23019983
50	0xbda44e91	-0.08022798
51	0xbe077a47	-0.13230239
52	0x3e8484da	0.25882608
53	0xbea959ee	-0.33076423
54	0xbe329a84	-0.17441756
55	0xbe83d04c	-0.25744855
56	0xbdbb605f	-0.09149241
57	0x3dbf7171	0.09347809
58	0xbe086264	-0.13318783
59	0xbda12d6f	-0.07869994
60	0x3d54831d	0.051882852
61	0xbe84d590	-0.25944185
62	0x3dcf208f	0.10113632
63	0x3e8e3039	0.27771166
64	0x3a168428	0.0005741739
65	0xbdd42bcc	-0.10359916
66	0x3e21fcf5	0.15819152
67	0x3dcecf11	0.100980885
68	0xbc9b30aa	-0.018944103
69	0xbdf27a90	-0.11839783
70	0xbd9ee517	-0.07758539
71	0x3df31814	0.11869827
72	0xbc2055a1	-0.0097860405
73	0xbc922db3	-0.017844057
74	0xbe7800f5	-0.24219115
75	0xbe94a005	-0.29028335
76	0x3d6e493c	0.05817531
77	0xbe196bfa	-0.14982596
78	0xbe39762e	-0.18111488
79	0xbd001f75	-0.03128
80	0x3e21cbd3	0.15800409
81	0xbd1cf13d	-0.038316
82	0xbe0dc238	-0.1384362
83	0x3db663ad	0.089057304
84	0x3e433223	0.19062094
85	0x3e03dfb5	0.12878306
86	0x3e245e00	0.16051483
87	0xbe43bd9a	-0.19115296
88	0xbb9f7fd1	-0.004867532
89	0x3d022726	0.031775616
90	0x3dc4b864	0.09605482
91	0x3cf63d2e	0.03005847
92	0xbd889290	-0.066685796
93	0xbc27fe5b	-0.010253514
94	0x3e2b9039	0.16754235
95	0x3d7480a2	0.059692986
96	0xbde3e5a2	-0.11127783
97	0xbd6855ff	-0.056722637
98	0xbe04d7c7	-0.12972938
99	0x3da927b1	0.08259524
100	0x3db44d1b	0.08803769
101	0x3d40c48b	0.047062438
102	0xbdc1206d	-0.09430013
103	0x3e458918	0.19290578
104	0xbe5b1573	-0.21394901
105	0x3e149d3a	0.14513102
106	0x3d981461	0.07425762
107	0x3dc990c2	0.098420635
108	0xbd321c4e	-0.043484025
109	0xbd69be08	-0.057065994
110	0x3c187e2b	0.009307425
111	0xbdee59bf	-0.116382115
112	0xbe2a1b3c	-0.16611952
113	0xbe116b89	-0.14201178
114	0x3d12f759	0.03588042
115	0xbd93d634	-0.072185904
116	0xbe097a20	-0.13425493
117	0xbcc16a96	-0.023610394
118	0xbc3ea125	-0.0116351
119	0xbea74277	-0.32667896
120	0x3e03dc3d	0.12876983
121	0x3d9c2c81	0.07625676
122	0x3ca305d0	0.019900233
123	0xbe465d7e	-0.19371602
124	0xbe03542e	-0.12825081
125	0x3e23291e	0.15933654
126	0x3cd8600e	0.02641299
127	0x3e2ff66a	0.17183843
128	0xbdb85c50	-0.09001982
129	0x3ce0b42b	0.02742966
130	0xbbc0aea6	-0.0058801947
131	0xbe0f0960	-0.1396842
132	0x3d9dde3e	0.07708405
133	0x3d7aedad	0.06126182
134	0x3e7ce3ae	0.24696228
135	0x3b6c25ea	0.003603334
136	0x3bec1ab5	0.007205332
137	0xbe421116	-0.1895183
138	0x3d0e93ed	0.03480904
139	0x3e0e294c	0.13882941
140	0x3dc860ab	0.09784063
141	0xbda2eb68	-0.079550564
142	0xbdf79acd	-0.12090073
143	0xbe055d57	-0.13023888
144	0xbe3444bc	-0.17604345
145	0xbe73bfca	-0.2380363
146	0x3d79a114	0.06094463
147	0xbc7eb706	-0.015546566
148	0xbe9823e6	-0.29714888
149	0xbd26401c	-0.040588483
150	0x3dd70c88	0.10500437
151	0x3c4108ab	0.011781852
152	0x3d607681	0.054800514
153	0x3e342f5a	0.17596188
154	0x3e1e1917	0.15439259
155	0x3d3dd52d	0.04634588
156	0x3e105978	0.1409663
157	0x3e085004	0.13311774
158	0xbe06a8a7	-0.13150273
159	0x3d000e47	0.031263616
160	0x3e4ee060	0.2020278
161	0x3dc0d13d	0.09414909
162	0xbe748bc0	-0.23881435
163	0xbdfe3b07	-0.12413602
164	0xbdf68617	-0.12037294
165	0x3d6f001b	0.05834971
166	0xbcf2bee7	-0.029632045
167	0xbe49618f	-0.19666122
168	0xbe20365a	-0.15645733
169	0x3e84fb8d	0.25973168
170	0xbdd14d06	-0.10219769
171	0xbe638eb7	-0.2222241
172	0xbd0efeaa	-0.034910835
173	0x3e3ac382	0.18238643
174	0x3e01de98	0.12682569
175	0x3d712103	0.058869373
176	0x3e08f190	0.13373399
177	0xbcd20b6c	-0.025640212
178	0xbe3f0efa	-0.18658057
179	0xbddd9098	-0.10818595
180	0x3e3386a3	0.17531829
181	0xbe8e1ba4	-0.27755463
182	0x3e4c3cf3	0.19945125
183	0x3d2dc9a6	0.042428635
184	0x3e03e135	0.12878878
185	0xbe075d87	-0.13219272
186	0x3c80d1e0	0.015725076
187	0xbcaeaf09	-0.021323698
188	0x3e5bf481	0.2147999
189	0x3d5ba903	0.05362798
190	0x3dab3ebc	0.08361575
191	0x3dca7664	0.098858625
192	0x3dda3041	0.10653735
193	0x3d1f16a7	0.038839962
194	0xbdb9624e	-0.09051953
195	0xbd908e92	-0.07058443
196	0xbd4cd837	-0.050010886
197	0xbb571289	-0.0032817444
198	0xbe06a5f4	-0.13149244
199	0xbe69b5f5	-0.22823317
200	0x3e3804e7	0.1797062
201	0x3e64e618	0.22353399
202	0x3c6a3885	0.014295702
203	0x3ced47fb	0.028964987
204	0xbe1b2da4	-0.1515413
205	0xbe8cf3b9	-0.27529696
206	0xbcd3bdd9	-0.025847362
207	0x3e137058	0.14398324
208	0x3d8ba60b	0.068187796
209	0xbd2040c1	-0.039124254
210	0xbd1fd6bc	-0.039023146
211	0x3e8a3d2f	0.26999804
212	0xbcb9bc77	-0.022672875
213	0x3d74f601	0.05980492
214	0xbd998f3a	-0.074980214
215	0x3e60a874	0.2193926
216	0xbca47355	-0.020074526
217	0xbec1e23f	-0.37867925
218	0xbe34a1a3	-0.17639785
219	0xbc8cbe08	-0.017180458
220	0x3d8cc76b	0.068739735
221	0x3827f144	4.00406e-05
222	0x3e3a71d6	0.18207487
223	0xbd3bc01a	-0.0458375
224	0xbc863476	-0.016382437
225	0x3d95f75e	0.07322572
226	0xbbd8c6de	-0.0066155037
227	0x3e614b79	0.22001447
228	0xbcbd7a81	-0.023129703
229	0x3e19c6c7	0.15017234
230	0xbdc981af	-0.09839188
231	0x3d1dc1ae	0.038514785
232	0x3e1fa9d4	0.15592128
233	0x3e044e2c	0.12920445
234	0x3d6faecd	0.058516312
235	0x3ccfdd15	0.025373975
236	0xbd245516	-0.040120207
237	0x3d4ea8ae	0.050453834
238	0xbdf93d95	-0.12169949
239	0x3b9d85c9	0.004807208
240	0xbcd5966b	-0.026072701
241	0xbd8d6a09	-0.0690499
242	0xbced9a0d	-0.029004121
243	0x3b315773	0.002706018
244	0xbd32751e	-0.043568723
245	0x3d40b1ba	0.047044493
246	0xbdc057db	-0.09391757
247	0x3e37eede	0.17962214
248	0xbea9217c	-0.3303336
249	0xbe3594a6	-0.17732486
250	0x3e3ba34e	0.18324015
251	0x3d0bae0e	0.03410154
252	0x3d5170d5	0.051132996
253	0x3d75056d	0.059819628
254	0xbcf88ee3	-0.030341571
255	0xbd7b2cbf	-0.06132197

fc4.bias f4 [27]
0	0x3c81aaba	0.01582848
1	0xbd893a69	-0.06700594
2	0x3d740cac	0.059582397
3	0xbdef8823	-0.11695888
4	0xbdb947b2	-0.09046878
5	0xbc3ad7c0	-0.011403978
6	0x3e093140	0.13397694
7	0x3d0b8bbb	0.034068804
8	0x3d2e868e	0.04260879
9	0x3dce0328	0.10059196
10	0xbd4c0ffb	-0.049819928
11	0x3dc25c50	0.094902635
12	0x3dd3231a	0.103094295
13	0xbcf75320	-0.030191004
14	0x3d1584a3	0.036503445
15	0x3d88f2d4	0.06686941
16	0x3db1e2eb	0.08685859
17	0xbe102cfa	-0.14079657
18	0xbc71c3db	-0.014756168
19	0xbd1842c1	-0.037173036
20	0x3d62a398	0.055331796
21	0x3d49f2a3	0.049303662
22	0xbccfa844	-0.02534879
23	0x3ce0e0fb	0.027451029
24	0x3d64fcfa	0.05590532
25	0x3dba015a	0.09082289
26	0xbd0090c7	-0.03138807
