trained_models/model_dimension3_400_epochs.pt (torch_old, 78590 bytes, 8 tensors)

fc1.weight f4 [64, 144]
0	0xbde2c261	-0.11072231
1	0xbdd997c1	-0.10624648
2	0xbddfaed2	-0.10922016
3	0xbd790621	-0.06079686
4	0xbdfa2a2b	-0.12215074
5	0xbe1b68b4	-0.1517666
6	0xbde9c212	-0.11413969
7	0xbd782e2a	-0.0605909
8	0xbdd0e0c0	-0.10199118
9	0xb99d1123	-0.0002995814
10	0x3c7add11	0.015311495
11	0xbcebf0b3	-0.028801298
12	0xbd1ca7eb	-0.038246077
13	0x3d4c3146	0.04985168
14	0x3c7d4ea8	0.015460648
15	0xbd36a905	-0.044594783
16	0xbe1f3516	-0.15547594
17	0xbc8e7b92	-0.017392907
18	0xbd095d26	-0.0335361
19	0xbe0d2f34	-0.13787538
20	0xbdf46282	-0.119328514
21	0xbd916160	-0.07098651
22	0xbe2d1842	-0.16903785
23	0xbde56fb0	-0.11202943
24	0xbd058138	-0.032593936
25	0x3c15773e	0.009122668
26	0x3d7f19de	0.06228053
27	0xba3e9ff8	-0.0007271762
28	0x3e06d747	0.1316806
29	0x3e299b0f	0.16563056
30	0x3dbd5142	0.09244014
31	0x3e21caf7	0.15800081
32	0x3dc9ef87	0.09860139
33	0x3daa659c	0.08320162
34	0x3dd2d45e	0.10294412
35	0x3d957783	0.07298186
36	0xbd1cbf41	-0.03826833
37	0x3d0ec70d	0.0348578
38	0x3dc5a658	0.09650868
39	0xbc5165e0	-0.012780637
40	0x3c6c911f	0.014438896
41	0x3d85ede6	0.06539516
42	0x3d139e25	0.03603949
43	0x3d2c57b6	0.042075835
44	0x3c5a7fe7	0.013336158
45	0x3d34257f	0.04398107
46	0x3da67908	0.08128554
47	0x3d16e6d9	0.036841247
48	0xbabd02ce	-0.0014420392
49	0x3d88e14d	0.06683598
50	0x3d153685	0.036428947
51	0x3e0571c1	0.13031675
52	0x3d908f91	0.07058633
53	0xbd68fddf	-0.056882735
54	0xbd6a086f	-0.05713695
55	0x3d92c8bb	0.071671925
56	0xbcd802b6	-0.02636848
57	0x3dbf9866	0.093552396
58	0xbccc4367	-0.024934484
59	0x3d7593c0	0.05995536
60	0x3da8b1a1	0.08237005
61	0xb9b25334	-0.00034012797
62	0xbc9093d0	-0.017648607
63	0xbc143d52	-0.009047823
64	0xbd395b18	-0.04525289
65	0xbcd5d5a3	-0.026102846
66	0xbd8e751d	-0.06955931
67	0xbd99334e	-0.07480489
68	0x3c0fe418	0.008782409
69	0xbc08f778	-0.008359782
70	0xbd89636a	-0.06708415
71	0xbce14282	-0.027497534
72	0xbd28fbb5	-0.04125567
73	0x3d2c0696	0.04199847
74	0x3c6744bb	0.014115508
75	0xbd8cdf3f	-0.06878518
76	0x3bb72fe0	0.005590424
77	0xbd9d882d	-0.07691989
78	0xbc011de9	-0.007880666
79	0xbcafbdab	-0.021452745
80	0xbcdc4698	-0.02688913
81	0x3dade169	0.08490259
82	0xbbc86994	-0.0061161015
83	0xbd825f18	-0.06365794
84	0x3b0abba7	0.0021168978
85	0x3d44c3d1	0.048038308
86	0x3c418e69	0.011813738
87	0x3cc3e7ad	0.023914183
88	0x3c0623a4	0.008187208
89	0xbda0a6b1	-0.07844294
90	0xbd2ff019	-0.042953584
91	0x3bc8af2b	0.0061243973
92	0x3d4278b4	0.047478393
93	0x3d164e57	0.036695804
94	0xbcba99b7	-0.022778375
95	0x3d958e7a	0.07302566
96	0xbcaeda2f	-0.021344272
97	0x3dba295c	0.0908992
98	0x3d10095c	0.035165176
99	0x3d6186b4	0.055060104
100	0x3e25e559	0.1620077
101	0xbccdd630	-0.025126547
102	0x3d107ad7	0.0352734
103	0x3e18923b	0.14899532
104	0x3cc212ff	0.023690699
105	0x3d1c307a	0.03813217
106	0x3c2eb09c	0.010662224
107	0xbd946775	-0.07246295
108	0xbda71aed	-0.081594326
109	0xbdc69293	-0.096959256
110	0xbd8469a3	-0.06465461
111	0xbe0992dd	-0.1343493
112	0x3dc94a8d	0.098286726
113	0x3d8dff88	0.06933504
114	0x3cbd3da9	0.02310069
115	0x3cc0d4b0	0.023538917
116	0x3e0685a7	0.13136922
117	0x3da8f2e8	0.08249456
118	0x3e02fdff	0.12792204
119	0xbc308ff4	-0.010776509
120	0xbd8eda36	-0.06975214
121	0xbc952033	-0.01820383
122	0xba54aeea	-0.00081132224
123	0xbdd1a4c1	-0.102365024
124	0xbdd8616c	-0.10565457
125	0xbdb6ae08	-0.089199126
126	0x3d125a94	0.035730913
127	0x3cadcf4c	0.02121701
128	0x3c514778	0.012773387
129	0x3cb1bf24	0.021697588
130	0xbd56f8ce	-0.052483372
131	0x3d7db571	0.061940614
132	0x3dbe55e0	0.09293723
133	0xbd23750e	-0.039906554
134	0xbcc4f53e	-0.024042722
135	0xbdb8ad0d	-0.09017382
136	0x3d9e5636	0.07731287
137	0xbd4f554d	-0.05061846
138	0x3d008c55	0.03138383
139	0x3d81d9a3	0.06340339
140	0xbd22dbf2	-0.039760537
141	0x3c1c5198	0.009540938
142	0x3d2229e2	0.039590724
143	0x3e082419	0.1329502
144	0x3d9873d0	0.074439645
145	0xbd2ac174	-0.041688398
146	0x3d9b614d	0.07586918
147	0xbc939b2a	-0.018018324
148	0x3d96f5cb	0.073711
149	0x3d94bd6c	0.07262692
150	0xbd96e133	-0.07367172
151	0x3c624a9e	0.013811735
152	0x3cac804a	0.021057267
153	0xbd07530b	-0.03303818
154	0xbc4b8ac8	-0.012423225
155	0xbc973017	-0.018455548
156	0x3db331ce	0.08749734
157	0xbbe5ffd7	-0.007019024
158	0xbdda340a	-0.10654457
159	0xbdff98e6	-0.12480335
160	0x3d9232c9	0.07138593
161	0xbd2a0b4f	-0.04151469
162	0x3da83c53	0.08214631
163	0xbca7d119	-0.020485448
164	0x3db3eaa8	0.087849915
165	0xbd53ad5a	-0.051678993
166	0xbc8d6de0	-0.017264307
167	0x3d8aad98	0.06771392
168	0xbe0c63b7	-0.13709913
169	0x3d45a73e	0.048255198
170	0xbdb91781	-0.09037686
171	0xbd83a12d	-0.06427226
172	0x3da72a93	0.08162417
173	0xbc3bd7a1	-0.011464984
174	0xbc8b9765	-0.017039964
175	0xbe1ae116	-0.15124926
176	0xbc7edd47	-0.015555686
177	0x3cf35129	0.029701786
178	0xbd2b3d3f	-0.041806456
179	0x3cf1a1ea	0.029496152
180	0xbde0e7b8	-0.10981697
181	0x3d3e5029	0.046463165
182	0xbd3b1f7d	-0.045684326
183	0xbca45c52	-0.020063553
184	0x3d4f5b04	0.05062391
185	0xbd222531	-0.03958625
186	0xbc8a13f5	-0.01685522
187	0x3d96629b	0.07343026
188	0x3d854236	0.06506769
189	0x3cce7ccf	0.025205998
190	0xbd67735c	-0.0565065
191	0xbdd043c5	-0.10169176
192	0x3daa1f24	0.08306721
193	0x3d842cc5	0.064538516
194	0x3d9235a0	0.071391344
195	0x3d2d1ed9	0.042265747
196	0x3df5e4cb	0.120065294
197	0x3dac1c82	0.08403875
198	0xbb249677	-0.0025114098
199	0xbd8ebebb	-0.06969973
200	0x3d4ae439	0.049534056
201	0xbdb978af	-0.09056222
202	0x3c62c1e6	0.013840174
203	0x3c60872e	0.013704104
204	0xbde90c0c	-0.11379251
205	0xbd92ac57	-0.071617775
206	0xbdd1fe83	-0.102536224
207	0xbce24338	-0.027619943
208	0x3da1f72b	0.07908472
209	0xbcdfb6cb	-0.027308842
210	0xbb63bae0	-0.0034748837
211	0xbc4171b2	-0.011806892
212	0x3c7e8928	0.01553563
213	0xbe049c15	-0.12950166
214	0xbc14714b	-0.009060214
215	0xbdecc935	-0.11561815
216	0x3e0ab742	0.1354647
217	0x3e20ca7c	0.15702242
218	0x3e09dd35	0.1346329
219	0x3e239888	0.15976155
220	0x3dff8ffa	0.12478633
221	0x3d7ab3ed	0.061206747
222	0x3e5d5932	0.21616057
223	0x3e511a35	0.20420153
224	0xbdc47878	-0.0959329
225	0xbdc185ae	-0.094493255
226	0xbd236a03	-0.039896023
227	0x3d1b9087	0.03797963
228	0x3de1ef4d	0.11031971
229	0x3d4354c5	0.047688264
230	0x3d5d094e	0.05396395
231	0xbd8ce9dc	-0.06880543
232	0x3a7f39e8	0.0009736107
233	0xbd0b0f18	-0.03394994
234	0x3d2bc529	0.041936073
235	0xbd85dd8b	-0.065363966
236	0x3e0f9e7c	0.140253
237	0x3dbc3f03	0.09191706
238	0x3cc43be8	0.023954347
239	0x3c1b55f5	0.009480943
240	0x3c65f300	0.0140349865
241	0xbdb2d42d	-0.087318756
242	0xbcc1884f	-0.023624567
243	0xbdcaa30f	-0.09894382
244	0xbde26540	-0.11054468
245	0x3d951063	0.07278516
246	0x3e352ce8	0.17692912
247	0x3de92491	0.113839276
248	0x3cc60351	0.024171503
249	0x3c69360d	0.014234078
250	0x3c1ced2b	0.00957803
251	0xbba8f7d2	-0.0051564956
252	0xbd294b49	-0.041331563
253	0xbd4ba432	-0.049717136
254	0xbda65185	-0.08121017
255	0xbcd29d99	-0.025709914

fc1.bias f4 [64]
0	0xbbad7cf8	-0.0052944385
1	0x3d937027	0.07199126
2	0xbd980dca	-0.07424505
3	0xbc164296	-0.009171149
4	0xbc3e15b5	-0.011601855
5	0x3d8fc0e2	0.07019211
6	0xbc56dc08	-0.013113983
7	0xbd8715a7	-0.06595927
8	0xbd0384ad	-0.03210895
9	0xbd95b881	-0.07310582
10	0x3d11b827	0.035576012
11	0xbb66c4f3	-0.0035212606
12	0xbc17713d	-0.009243307
13	0xba8db19d	-0.0010810379
14	0x3d1d2d7d	0.03837346
15	0xbd85ad98	-0.06527251
16	0xbd5710db	-0.05250631
17	0xbda006d4	-0.07813802
18	0x3d720f81	0.059096817
19	0x3d8ebcf1	0.069696315
20	0x3d7a9f4f	0.061187085
21	0x3cdd58da	0.027019907
22	0xbd1f2ffb	-0.038864117
23	0x3d9bf67c	0.076153725
24	0x3d453023	0.04814161
25	0xbd9c16b6	-0.07621519
26	0x3bbff3af	0.005857907
27	0xbd17efb2	-0.037093826
28	0xba07adbd	-0.00051757303
29	0xbd5f5ccf	-0.05453187
30	0x3c95f1b4	0.01830373
31	0xbd96c996	-0.07362668
32	0x3cbb838b	0.022889873
33	0x3ac951ba	0.001535944
34	0xba08fbea	-0.00052255264
35	0x3da0065e	0.078137144
36	0xbd57a865	-0.052650828
37	0xbcadd3e1	-0.021219196
38	0xbc87ab04	-0.016561039
39	0x3d77969d	0.06044637
40	0xbc9353d4	-0.017984308
41	0x3d8d51ea	0.069003895
42	0xbd5b779c	-0.053580865
43	0xbda09140	-0.07840204
44	0x3c90ea65	0.017689893
45	0xbda52194	-0.08063045
46	0xbd9f2eef	-0.07772624
47	0xbd3fe52b	-0.04684941
48	0x3d055f3e	0.032561533
49	0xbd15863a	-0.03650496
50	0x3c579824	0.013158832
51	0xbd3c2999	-0.045938108
52	0x3d788f39	0.060683463
53	0x3d34222d	0.043977905
54	0xbd50f284	-0.05101253
55	0xbd8cead8	-0.068807304
56	0x3d8f9a5b	0.07011863
57	0xbd892ec7	-0.06698375
58	0x3d97191c	0.07377836
59	0xbcde0352	-0.027101193
60	0xbd3fddba	-0.046842314
61	0x3d5f6682	0.05454112
62	0xbda27763	-0.079329275
63	0xbca8593c	-0.020550363

fc2.weight f4 [64, 64]
0	0x3a418668	0.0007382394
1	0x3d88785c	0.06663582
2	0x3d26c1af	0.040712055
3	0x3e140f7c	0.14459032
4	0xbce5d6c1	-0.028056504
5	0x3da88953	0.082293175
6	0x3e2359a3	0.15952162
7	0x3c0cd927	0.008596695
8	0x3dee8a97	0.11647528
9	0xbda68b12	-0.08131994
10	0xbe09909c	-0.1343407
11	0xbdb6150d	-0.08890734
12	0x3e0db4e4	0.13838536
13	0x3d0e444b	0.034733098
14	0x3e3f4d5c	0.18681854
15	0xbdce0548	-0.10059601
16	0x3cf261b8	0.029587612
17	0xbd6562a7	-0.056002285
18	0xbd872b70	-0.06600082
19	0x3dc3c03f	0.095581524
20	0x3d91fa7a	0.07127853
21	0x3d0affd7	0.033935394
22	0x3e535358	0.20637262
23	0x3dd013f5	0.101600565
24	0xbe1cb2e7	-0.15302621
25	0x3db5191f	0.08842682
26	0xbda7e054	-0.08197084
27	0xbe327160	-0.17426062
28	0xbd5a3509	-0.053273235
29	0x3df59f09	0.11993224
30	0x3e01bd18	0.1266979
31	0xbda8a6bf	-0.08234929
32	0x3c990653	0.018679773
33	0x3dfbf349	0.12302262
34	0x3d351f00	0.044219017
35	0x3df78d38	0.12087482
36	0xbd8a4cc0	-0.0675292
37	0xbce90cd8	-0.028448507
38	0x3d7809cf	0.06055623
39	0x3de54edb	0.11196681
40	0x3dfed745	0.12443403
41	0xbca28d08	-0.01984264
42	0xbbf32060	-0.007419631
43	0x3d5cb3a6	0.053882264
44	0xbd8a14c0	-0.06742239
45	0xbbc5ea07	-0.006039861
46	0x3dc4dd17	0.09612482
47	0xbd262f35	-0.040572364
48	0x3cf2786b	0.029598435
49	0x3a0503e7	0.0005074129
50	0xbd675d94	-0.056485727
51	0xbe01a9a7	-0.12662373
52	0xbbb50e6f	-0.0055254023
53	0xbdfb3add	-0.12267087
54	0xbdb062f5	-0.086126246
55	0xbd05cfb6	-0.03266879
56	0x3d6581bd	0.05603193
57	0x3cc2f6e2	0.023799364
58	0x3d9c4aa4	0.07631424
59	0xbd8ae051	-0.06781066
60	0x3d16c6b2	0.036810584
61	0x3d88bf35	0.06677095
62	0xbd6b90ac	-0.057511017
63	0x3cffca68	0.031224445
64	0x3ded41a6	0.11584787
65	0x3cbfbd69	0.023405747
66	0xbc3ff8df	-0.01171705
67	0xbd60d309	-0.05488876
68	0xbd25b8df	-0.04045951
69	0xbcb9a5ab	-0.022662004
70	0xbac592f1	-0.0015073699
71	0x3ea8f23d	0.32997313
72	0x3d15c5da	0.03656564
73	0x3c473081	0.01215756
74	0xbcf0164f	-0.029307513
75	0xbcefa3ea	-0.029252965
76	0xbe412240	-0.18860722
77	0xbd10c875	-0.03534742
78	0x3e1a429b	0.1506447
79	0xbdcf8a25	-0.10133771
80	0x3d9949c9	0.074847765
81	0xbdd315b2	-0.103068724
82	0x3dfca566	0.12336235
83	0xbcd1683f	-0.025562404
84	0x3bb741ba	0.005592552
85	0xbe24cc2b	-0.16093509
86	0x3d890499	0.0669033
87	0xbc9ff929	-0.019527989
88	0x3e1c0841	0.15237524
89	0x3def3883	0.11680701
90	0xbe6af23d	-0.22943969
91	0xbd4394b2	-0.04774923
92	0x3dfca8d8	0.12336892
93	0xbd233c34	-0.039852336
94	0xbd3188f3	-0.043343496
95	0xbd7aed4b	-0.061261456
96	0x3d88953d	0.0666909
97	0x3e082bba	0.1329793
98	0x3dd47741	0.103743084
99	0xbdf90a46	-0.12160163
100	0xbdd67b7b	-0.10472771
101	0xbe68d6af	-0.22738145
102	0x3c7d5247	0.015461511
103	0xbd859731	-0.06522978
104	0x3cef2adb	0.02919524
105	0x3dd91e5a	0.10601492
106	0xbdbfbc5d	-0.09362099
107	0xbc8f3968	-0.017483428
108	0xbd23ee34	-0.04002209
109	0xbe0b6b7f	-0.13615225
110	0xbde9bd6b	-0.11413082
111	0x3e221f0e	0.15832159
112	0x3e171260	0.14753103
113	0x3dd53b82	0.10411741
114	0x3e1eebf3	0.15519695
115	0x3db02e1e	0.08602546
116	0x3c4e9418	0.0126085505
117	0xbc9a805d	-0.018860037
118	0x3dd865d0	0.10566294
119	0xbd05b382	-0.032641895
120	0xbd2dd2f5	-0.042437512
121	0xbe2a71d5	-0.16644986
122	0xbdb0d432	-0.08634223
123	0xbe2db0fa	-0.16962042
124	0x3c923e47	0.017851962
125	0x3cb1b6f8	0.021693692
126	0xbdfcab33	-0.12337341
127	0xbd7b3c83	-0.061337005
128	0x3d15e323	0.036593568
129	0x3c274524	0.0102093555
130	0x3d98b7b5	0.07456914
131	0x3ddd817d	0.108157136
132	0xbe0d81e4	-0.1381908
133	0xbd992ce3	-0.074792646
134	0x3df9bb57	0.12193935
135	0xbd0e8b7f	-0.034801003
136	0x3e2f5df2	0.17125681
137	0xbdd52872	-0.10408105
138	0x3d334e25	0.043775696
139	0xbd92cf07	-0.071683936
140	0x3d6dcac9	0.05805472
141	0xbda857af	-0.08219849
142	0x3cb2e8be	0.021839496
143	0x3dfba82e	0.12287937
144	0xbd5186c9	-0.05115393
145	0x3df9d767	0.12199288
146	0x3d6d045c	0.057865486
147	0xbc80dc5d	-0.015730077
148	0x3d84f6de	0.06492399
149	0x3bb71847	0.005587611
150	0x3e6c242c	0.23060673
151	0x3dc978d5	0.098375
152	0x3dbc2304	0.09186366
153	0xbde8391e	-0.11339019
154	0xbe0ddde4	-0.13854176
155	0xbe02a450	-0.12757993
156	0xbe30b0af	-0.172549
157	0xbdd99c10	-0.1062547
158	0x3dbf1352	0.09329857
159	0x3d605605	0.054769535
160	0xbd486ab4	-0.048929885
161	0xbe0f5a9f	-0.13999413
162	0xbd707f03	-0.058714878
163	0xbe507ab4	-0.20359308
164	0xbd02c2bf	-0.031924006
165	0x3d1ccf9b	0.038283926
166	0x3d8f2b4f	0.06990682
167	0x3b8f65b7	0.004376139
168	0xbdb9b6e3	-0.09068086
169	0xbcde5979	-0.027142273
170	0x3dc9786a	0.0983742
171	0xbde4d72b	-0.111738525
172	0x3bc28416	0.005936156
173	0xbe148aa4	-0.14506012
174	0x3d14a5d7	0.03629097
175	0xbdaa9fb5	-0.08331243
176	0x3af6d649	0.0018832172
177	0x3c24d2d7	0.010060034
178	0x3c4a97fd	0.012365338
179	0x3e33b191	0.17548205
180	0x3e1bef51	0.1522801
181	0xbddf8808	-0.10914618
182	0x3d3b2373	0.045688104
183	0x3dbb0058	0.09130925
184	0x3e26039c	0.16212314
185	0xbbb8af69	-0.005636145
186	0xbe5ad84c	-0.21371573
187	0x3e1446c2	0.14480117
188	0x3cdef763	0.027217573
189	0xbe94e2c3	-0.29079255
190	0x3c432605	0.01191092
191	0xbe074706	-0.13210687
192	0x3d7fbce7	0.06243601
193	0x3dad6f46	0.08468489
194	0x3bdfcec0	0.0068300664
195	0x3d245904	0.040123954
196	0x3ce46780	0.027881384
197	0xbd932161	-0.07184101
198	0xbe0e1765	-0.13876112
199	0xbdc4b12e	-0.09604107
200	0xbdfcb355	-0.12338892
201	0x3debce5d	0.1151397
202	0xbe01ab4a	-0.12662998
203	0xbd8cdf46	-0.068785235
204	0xbe35f0a2	-0.17767575
205	0x3d7a957f	0.061177727
206	0xbe36f7e2	-0.17867997
207	0xbbbf0807	-0.0058298144
208	0x3e3cd28e	0.18439695
209	0xba7885c5	-0.00094803824
210	0x3e6b337f	0.22968863
211	0xbe355102	-0.17706683
212	0x3d968f89	0.07351596
213	0x3e5f29aa	0.21793237
214	0xbe36c4cf	-0.17848514
215	0x3d0d5941	0.034508947
216	0xbc68aebc	-0.014201816
217	0x3d060bf9	0.03272626
218	0x3d9b2982	0.07576276
219	0x3e0b8d1a	0.13628045
220	0x3dcc6aee	0.09981333
221	0xbe6ccac4	-0.23124224
222	0xbc0ab22d	-0.008465332
223	0xbdc758e3	-0.09733751
224	0xbe0c2629	-0.13686432
225	0x3b546263	0.0032407276
226	0xbd84a289	-0.064763136
227	0xbdb6971e	-0.08915542
228	0x3e3fc85a	0.18728772
229	0x3d9dfc56	0.07714145
230	0xbe246e0b	-0.16057603
231	0x3e5488cf	0.20755313
232	0xbe0313da	-0.12800542
233	0xbd816d92	-0.06319727
234	0x3b128c63	0.002236151
235	0x3daba787	0.08381563
236	0xbd6856e8	-0.056723505
237	0x3e0d92d3	0.1382554
238	0xbd8a9519	-0.06766719
239	0x3d309af3	0.04311652
240	0x3d86915b	0.06570693
241	0xbdd72e29	-0.10506851
242	0xbc6310a0	-0.013858944
243	0x3acca29d	0.0015612427
244	0xbdb49ee4	-0.088193685
245	0xbddedc4f	-0.10881864
246	0xbdfcab8f	-0.1233741
247	0xbe05f14f	-0.13080333
248	0x3db5f744	0.08885053
249	0x3cb9b2e4	0.02266831
250	0x3de06ace	0.109578714
251	0x3e85ff3f	0.261713
252	0xbdef4081	-0.11682225
253	0x3d613969	0.05498639
254	0x3b63170d	0.003465119
255	0xbcdbefee	-0.026847806

fc2.bias f4 [64]
0	0x3df127e2	0.11775185
1	0xbd478648	-0.048712045
2	0xbde782c2	-0.11304237
3	0xbcb5246a	-0.02211209
4	0x3c041b49	0.008063146
5	0x3d9d32b8	0.076756895
6	0xbba132a5	-0.0049193674
7	0xbd595077	-0.053055253
8	0xbdca7f6e	-0.098875865
9	0xbc9e05b9	-0.019289838
10	0xbda884bd	-0.08228443
11	0xbdca340d	-0.09873209
12	0xbd42dd92	-0.047574587
13	0x3cfd455b	0.03091686
14	0xbda73f7b	-0.08166405
15	0x3cb3942f	0.021921245
16	0xbd37f45f	-0.044910785
17	0xbc44dd72	-0.012015687
18	0xbddd08fa	-0.10792728
19	0xbdf62286	-0.120183036
20	0x3d64ecda	0.05588994
21	0xbd9811ea	-0.07425292
22	0x3bef61f3	0.0073053776
23	0x3da7d353	0.08194604
24	0xbdfe111a	-0.124056056
25	0xbdd45867	-0.10368424
26	0x3db3739e	0.087622866
27	0xbc7c587b	-0.015401955
28	0x3de2d108	0.11075026
29	0x3db69799	0.08915634
30	0xbdd68f84	-0.10476592
31	0xbceb3c89	-0.028715389
32	0xba848beb	-0.00101125
33	0x3dc7b569	0.09751398
34	0x3d779a72	0.060450025
35	0xbdeba5cd	-0.11506233
36	0xbdf1d5d4	-0.118083626
37	0xbd30f5ae	-0.04320305
38	0xbdfd8d3b	-0.12380453
39	0x3bce09f3	0.006287807
40	0xbd990a25	-0.07472638
41	0x3bed518e	0.007242388
42	0x3db00f5a	0.08596678
43	0xbb937e25	-0.0045011216
44	0x3d455827	0.04817977
45	0xbd544b4d	-0.051829625
46	0x3da259ac	0.0792726
47	0xbd143641	-0.036184553
48	0x3cf8c862	0.030368987
49	0xbd8f9113	-0.070100926
50	0xbcf77205	-0.030205736
51	0x3d83bfe9	0.06433088
52	0xbda14d43	-0.07876065
53	0x3dd6b8fa	0.104845
54	0xbda6878f	-0.081313245
55	0x3dd16b09	0.102254935
56	0xbdf11f86	-0.11773591
57	0x3dc54add	0.0963342
58	0x3d22a87a	0.039711453
59	0x3c80d53b	0.015726676
60	0xbd8d7fe5	-0.069091596
61	0xbd91039f	-0.07080769
62	0xbd468fbd	-0.048476923
63	0xbd252bd1	-0.04032499

fc3.weight f4 [64, 64]
0	0x3d8b0785	0.067885436
1	0xbd1b9556	-0.037984215
2	0xbe2f28eb	-0.17105453
3	0x3bb503b0	0.005524121
4	0xbd024564	-0.031804457
5	0xbcb86582	-0.02250934
6	0x3daf2b2c	0.08553156
7	0x3c94d81c	0.018169455
8	0x3cd50cc4	0.026007064
9	0xbdc4d694	-0.0961124
10	0xbe0737b3	-0.13204841
11	0x3da8f632	0.08250083
12	0x3d6296b5	0.055319507
13	0x3dd116d2	0.10209431
14	0xbe1856b1	-0.1487682
15	0xbdd105b7	-0.10206168
16	0xbd86ee76	-0.065884516
17	0xbe1b87af	-0.15188478
18	0x3d2d08f1	0.042244855
19	0xbcf2bd03	-0.029631143
20	0x3dd47088	0.10373026
21	0x3dde91b9	0.10867638
22	0x3dfcc794	0.12342754
23	0xbce4426f	-0.02786371
24	0x3d53afd7	0.051681366
25	0xbdce934f	-0.10086691
26	0x3d67c783	0.056586754
27	0x3e5971bb	0.21234791
28	0xbdbcebdb	-0.09224673
29	0x3d06a537	0.032872405
30	0x3c2284c6	0.009919351
31	0x3db33f34	0.087522894
32	0x3d7c0c8c	0.061535403
33	0x3e2b63e3	0.16737323
34	0x3b163cab	0.0022924345
35	0x3e079962	0.13242105
36	0xbd529ec9	-0.05142096
37	0x3db3db13	0.087820195
38	0x3c66d7d8	0.014089547
39	0xbd8df8aa	-0.069321945
40	0x3e61ff25	0.22069986
41	0xbd7704d9	-0.060307357
42	0x3da37d52	0.07982887
43	0xbde4ba2e	-0.111683235
44	0x3e1ea969	0.15494312
45	0x3d1cc44b	0.038273137
46	0x3dd67376	0.10471241
47	0xbe192234	-0.14954454
48	0xbd8e3714	-0.06944099
49	0x3ccaa26a	0.024735648
50	0x3e132f74	0.1437357
51	0xbe1f622a	-0.1556479
52	0xbc6c3209	-0.014416226
53	0xbd84aab8	-0.064778745
54	0xbd914e60	-0.07095027
55	0xbe08ed22	-0.13371709
56	0xbe0efcc3	-0.13963608
57	0xbd8af6ab	-0.067853294
58	0xbda194c3	-0.07889702
59	0xbda71ce3	-0.081598066
60	0xbe4279bc	-0.1899175
61	0xbdead772	-0.11466874
62	0xbddfab9d	-0.109214045
63	0x3d1dbbd9	0.038509224
64	0xbd95d5f5	-0.073162
65	0xbdaf0b4f	-0.08547079
66	0x3dfbd8da	0.122972205
67	0x3db641bb	0.08899256
68	0x3c32bf82	0.010909917
69	0x3d2ac5ce	0.041692548
70	0xba4e7691	-0.0007875944
71	0xbcc69ff7	-0.024246199
72	0xba0e57ba	-0.00054299424
73	0xbbdc02f7	-0.0067142206
74	0xbd7fe288	-0.062471896
75	0x3de32512	0.11091055
76	0xbdaade2d	-0.08343158
77	0xbdfeb17f	-0.124361984
78	0xbd971a0d	-0.07378016
79	0xbd703886	-0.058647655
80	0xbdb3001a	-0.08740254
81	0x3d33fbee	0.04394143
82	0x3d5e6a7d	0.054300774
83	0xbd7ffea6	-0.06249871
84	0x3c557453	0.013028222
85	0xbcb1aeea	-0.02168985
86	0x3e30c464	0.17262417
87	0xbc7cac96	-0.015422007
88	0xbdce7d80	-0.10082531
89	0xbdad3c6e	-0.08458792
90	0x3d99aeca	0.075040415
91	0x3d547d6e	0.05187743
92	0x3dc3352f	0.09531628
93	0xbde1ebd5	-0.110313095
94	0x3d7248e9	0.059151564
95	0xbd5dcb02	-0.05414868
96	0xbc6c6112	-0.01442744
97	0xbd3ff5ce	-0.046865277
98	0x3dd979fa	0.10618968
99	0xbe0df6df	-0.13863705
100	0xbddd4a74	-0.108052164
101	0xbdb9d506	-0.09073834
102	0xbda994fa	-0.08280368
103	0xbd70d681	-0.058798317
104	0x3dff96ba	0.12479921
105	0xbe0a9c43	-0.13536172
106	0x3cf52c98	0.02992849
107	0xbdf5de1d	-0.12005255
108	0x3da7b02e	0.081879005
109	0xbdfb8b01	-0.12282372
110	0xbcc65418	-0.02421002
111	0x3c890765	0.016727159
112	0xbd52ca96	-0.051462732
113	0xbdf72e88	-0.12069422
114	0xbc97c5dd	-0.018526966
115	0x3d988026	0.074463174
116	0x3d7f7fdd	0.0623778
117	0x3ddf2289	0.10895259
118	0x3dd197b5	0.10234014
119	0xbe2fe3b3	-0.17176704
120	0xbcc1e7f2	-0.02367017
121	0xbd1d3cc7	-0.03838804
122	0xbd8a656a	-0.067576244
123	0x3e3d61e5	0.18494375
124	0xbdebddb1	-0.11516894
125	0x3cbf7bb2	0.023374412
126	0x3e060ba4	0.13090378
127	0x3d4d1f43	0.05007864
128	0x3e1c6871	0.15274216
129	0x3d8b5809	0.06803901
130	0xbc93f972	-0.01806328
131	0x3d6f2bfe	0.058391564
132	0xbe052c8f	-0.13005279
133	0xbd289c3b	-0.041164618
134	0x3d507622	0.05089391
135	0x3dd03de8	0.10168058
136	0xbdb6a3cb	-0.0891796
137	0x3d695423	0.056965005
138	0xbdc2c477	-0.09510129
139	0xbd1cc3f9	-0.03827283
140	0x3e0d381d	0.13790937
141	0x3da53de6	0.08068447
142	0x3d68a398	0.05679664
143	0x3d08c591	0.03339154
144	0x3ddc07e6	0.10743694
145	0x3e082826	0.13296565
146	0xbdd8e0f8	-0.105897844
147	0xbe1293b7	-0.14314161
148	0x3dec03a7	0.11524134
149	0xbde50f9f	-0.1118462
150	0x3d3e2031	0.04641742
151	0xbc53653b	-0.012902553
152	0x3d579ecc	0.052641675
153	0xbd2be698	-0.04196796
154	0x3d5b34e0	0.053517222
155	0x3dbf5e3c	0.09344146
156	0x3d6fce10	0.058546126
157	0xbd0ddd97	-0.034635153
158	0xbd2e1011	-0.04249579
159	0x3d9db10c	0.07699785
160	0xbd410a29	-0.04712883
161	0xbe23d989	-0.16000952
162	0xbcb95e58	-0.022627994
163	0x3da3012d	0.07959209
164	0xbe0a1606	-0.13484964
165	0xbe28df89	-0.16491522
166	0x3d43ead4	0.04783137
167	0xbd22d505	-0.039753933
168	0xbc88f1a7	-0.016716791
169	0xbcfbed5f	-0.030752836
170	0x3ec443b3	0.383329
171	0xbbe7588c	-0.007060116
172	0xbd8697c0	-0.06571913
173	0xbd150aa0	-0.036387086
174	0xbe092ae3	-0.13395266
175	0x3dda4636	0.10657923
176	0x3d85efef	0.06539904
177	0xbe604c4b	-0.21904103
178	0x3cc3573e	0.023845311
179	0xbd8ed617	-0.06974428
180	0x3e0dd38e	0.13850233
181	0x3e1e66a3	0.1546884
182	0x3c976374	0.01848004
183	0x3e840693	0.25786266
184	0x3c9a345e	0.018823799
185	0xbda05724	-0.07829121
186	0xbdd76625	-0.105175294
187	0xbe23c438	-0.1599282
188	0xbdb64dcf	-0.089015596
189	0x3db59001	0.08865357
190	0xbdd24371	-0.1026677
191	0x3c595c1f	0.013266592
192	0x3e229dfa	0.15880576
193	0xbe0d7547	-0.13814269
194	0xbd905fca	-0.0704952
195	0x3e4729a7	0.19449483
196	0xbc8874e5	-0.016657302
197	0x3ddbaea4	0.107266694
198	0x3de65ce7	0.112481885
199	0xbe01ce86	-0.12676439
200	0x3dd358c0	0.10319662
201	0x3cdd6ce3	0.02702946
202	0x3d81e752	0.06342949
203	0xbdab88fb	-0.08375736
204	0xbcd104c1	-0.025514962
205	0xbda9067d	-0.08253191
206	0xbd9c5d82	-0.07635023
207	0xbdfc9335	-0.12332765
208	0x3e4e93d2	0.20173576
209	0x3da08875	0.07838527
210	0xbd14b410	-0.036304533
211	0xbe4dccac	-0.20097607
212	0xbd03c2c8	-0.03216818
213	0xbe042ecb	-0.12908475
214	0x3ce91b56	0.028455418
215	0xbe1bf4bd	-0.15230079
216	0xbce78349	-0.028260844
217	0x3c19eb6c	0.009394508
218	0xbd6e39bd	-0.058160532
219	0x3deff2ee	0.11716257
220	0x3d92abfe	0.07161711
221	0x3cdc9b0d	0.026929403
222	0xbdb46335	-0.08807985
223	0xbd52e798	-0.051490396
224	0xbe14b3f6	-0.14521775
225	0x3de8dcee	0.11370264
226	0xbdf34a57	-0.118794136
227	0x3c1b2a45	0.009470527
228	0x3b567357	0.0032722556
229	0x3e14cfd6	0.14532408
230	0x3dc638a2	0.096787706
231	0xbbae7c2f	-0.0053248624
232	0xbcfe90b5	-0.031074861
233	0xbd931adf	-0.0718286
234	0x3e95c506	0.2925188
235	0x3cd19cf3	0.025587535
236	0x3e1f9f16	0.1558803
237	0x3d821e61	0.063534506
238	0xbd251a55	-0.040308315
239	0x3dd5f21f	0.104465716
240	0xbdb47283	-0.08810904
241	0x3b62ff3d	0.0034636997
242	0xbd82f3c3	-0.0639415
243	0x3e2441c7	0.16040717
244	0x3dad273f	0.08454751
245	0xbe3a7183	-0.18207364
246	0x3dbb7e5a	0.09154959
247	0x3d102504	0.03519155
248	0xbe2c7e9e	-0.16845176
249	0x3e443510	0.19160867
250	0x3cff29fa	0.031147946
251	0x3c851d3e	0.016249295
252	0x3d6f2b96	0.058391176
253	0xbdd858d3	-0.10563817
254	0x3d3bef90	0.04588276
255	0x3db9adbe	0.09066342

fc3.bias f4 [64]
0	0xbd133749	-0.035941396
1	0xbd8ae9e2	-0.06782891
2	0x3daa540c	0.08316812
3	0x3d056e71	0.03257603
4	0x3d09db1b	0.03365622
5	0xbdac6db2	-0.0841936
6	0x3d5fa9f5	0.054605443
7	0xbd2cc061	-0.042175654
8	0x3d22f708	0.03978637
9	0x3d776729	0.060401116
10	0xbad0c54d	-0.0015927941
11	0xbd6e73d4	-0.05821593
12	0x3b324cb0	0.0027206354
13	0x3d9f21f0	0.07770145
14	0xbda189a9	-0.07887585
15	0xbd97b1f1	-0.074069865
16	0x3d961189	0.07327563
17	0x3d9fe6a8	0.07807666
18	0xbbed4e29	-0.0072419834
19	0x3cf0b7df	0.029384552
20	0xbd5e7171	-0.054307405
21	0x3cdc0bd4	0.026861109
22	0x3c143920	0.009046823
23	0xbdb71cb3	-0.08941021
24	0xbc9dfae9	-0.019284682
25	0xbdf62eb7	-0.12020629
26	0xbd8610e5	-0.06546191
27	0xbde8de93	-0.11370578
28	0xbdd6ab7d	-0.104819275
29	0xbd94fee5	-0.0727518
30	0xbd35fee2	-0.04443253
31	0xbc3919bb	-0.0112976385
32	0xbd696c23	-0.056987893
33	0x3dda3c42	0.106560245
34	0x3c494877	0.012285343
35	0xbcb1c3f2	-0.02169988
36	0x3dc9bb02	0.09850122
37	0xbdf05232	-0.117344275
38	0x3d56b6eb	0.052420538
39	0x3dec9d5f	0.11553454
40	0xbd2ef768	-0.042716414
41	0x3d42e1c9	0.047578607
42	0xbd2defd2	-0.04246504
43	0xbd2d061e	-0.042242162
44	0x3ddf3be1	0.10900093
45	0xbde1af94	-0.11019817
46	0xbdb64c20	-0.089012384
47	0x3dad0121	0.08447481
48	0x3d1135b9	0.035451625
49	0xbdd3ff62	-0.10351445
50	0x3ca0fdd6	0.019652288
51	0x3dae0231	0.08496512
52	0x3d99fd8c	0.07519063
53	0x3ddc2635	0.10749475
54	0x3c5a4903	0.013323071
55	0x3dfc4b73	0.12319078
56	0xbd52fea4	-0.051512375
57	0x3d8c0823	0.068374895
58	0xbdc082d9	-0.09399957
59	0xbd7a06bb	-0.061041575
60	0x3cb31d40	0.021864533
61	0x3db7d74d	0.08976612
62	0x3ccfe749	0.02537884
63	0x3d946197	0.07245176

fc4.weight f4 [27, 64]
0	0x3e3fad6d	0.187185
1	0x3ddf2e70	0.10897529
2	0x3d987b15	0.07445351
3	0x3db82758	0.08991879
4	0x3e1d0551	0.1533406
5	0x3d032d2c	0.0320255
6	0x3dd824a7	0.10553866
7	0x3dfe8dbd	0.12429378
8	0xbda00c29	-0.07814819
9	0xbd4913c8	-0.04909113
10	0x3d0d1afc	0.034449562
11	0x3dde99e1	0.10869194
12	0xbe26e335	-0.1629761
13	0xbd4d07e1	-0.050056342
14	0x3d9f4dcc	0.077785105
15	0x3dacdbaa	0.08440335
16	0xbe0158dc	-0.12631553
17	0x3da2d115	0.079500355
18	0xbdc4d0a6	-0.09610109
19	0x3da9727b	0.082737885
20	0x3e13f38c	0.14448375
21	0xbd836d7b	-0.06417366
22	0x3da761ee	0.081729755
23	0x3cfa64fe	0.030565735
24	0x3cd4fc24	0.025999136
25	0xbe5972f1	-0.21235253
26	0x3e2f3d22	0.17113164
27	0xbdc99440	-0.098427296
28	0xbe614861	-0.22000267
29	0x3e10f05e	0.14154193
30	0x3e00305f	0.12518452
31	0x3d2204a2	0.0395552
32	0x3d6d0a09	0.0578709
33	0x3e78e7dd	0.24307199
34	0xbe51223e	-0.20423219
35	0xbd51ab15	-0.051188547
36	0x3de9f6cb	0.11424025
37	0xbda7b3e4	-0.08188608
38	0x3c80f61a	0.01574235
39	0xbe2d3d99	-0.16918029
40	0x3e95368f	0.29143187
41	0x3d83525d	0.06412194
42	0xbe2d286d	-0.16909952
43	0x3dbbe3eb	0.09174331
44	0x3cb3b7b2	0.021938179
45	0x3d4b0f7e	0.04957532
46	0x3da52356	0.080633804
47	0x3ded6bd3	0.115928315
48	0x3d8f8cb5	0.070092596
49	0x3e6a904e	0.2290661
50	0xbda3df9d	-0.08001635
51	0xbe077986	-0.13229951
52	0x3e841d56	0.25803632
53	0xbea8ba92	-0.32954842
54	0xbe32791b	-0.1742901
55	0xbe836a0b	-0.25666842
56	0xbdba7f16	-0.09106271
57	0x3dbe983d	0.09306381
58	0xbe07f0fc	-0.13275522
59	0xbda0f8d0	-0.07859957
60	0x3d53a37f	0.051669594
61	0xbe845951	-0.25849393
62	0x3dcdbad9	0.10045404
63	0x3e8dc274	0.27687418
64	0x39cf8441	0.00039580654
65	0xbdd4283e	-0.10359238
66	0x3e215fb5	0.15759166
67	0x3dce224f	0.100651376
68	0xbc9d42b7	-0.019196851
69	0xbdf1e2aa	-0.11810811
70	0xbd9e2329	-0.0772155
71	0x3df103d5	0.11768309
72	0xbc290b92	-0.0103177
73	0xbc90276a	-0.01759692
74	0xbe76c957	-0.24100243
75	0xbe93fe9b	-0.28905186
76	0x3d6db56b	0.05803434
77	0xbe187531	-0.14888455
78	0xbe38bd6c	-0.18041009
79	0xbcfdfecc	-0.031005286
80	0x3e216811	0.15762354
81	0xbd1cacf0	-0.038250864
82	0xbe0d4579	-0.13796033
83	0x3db5f714	0.08885017
84	0x3e42ad7f	0.19011496
85	0x3e03911e	0.12848327
86	0x3e24591d	0.16049619
87	0xbe433ec9	-0.1906692
88	0xbb9c822a	-0.004776259
89	0x3d03c37b	0.032168847
90	0x3dc4fb7d	0.0961828
91	0x3cf6fc7f	0.030149696
92	0xbd878677	-0.06617444
93	0xbc281562	-0.010259004
94	0x3e2aee7f	0.16692542
95	0x3d73e2e7	0.059542563
96	0xbde316b7	-0.11088317
97	0xbd681cdf	-0.05666816
98	0xbe0408b1	-0.1289394
99	0x3da85a21	0.08220316
100	0x3db47328	0.08811027
101	0x3d3f1cd8	0.046658367
102	0xbdc0e41c	-0.094185084
103	0x3e44cc61	0.1921859
104	0xbe5abed6	-0.2136186
105	0x3e13f224	0.14447838
106	0x3d97666e	0.07392584
107	0x3dc8604a	0.09783991
108	0xbd3236fa	-0.04350946
109	0xbd68f3bc	-0.05687307
110	0x3c142299	0.009041452
111	0xbdedd563	-0.11612966
112	0xbe2a53ca	-0.16633525
113	0xbe1093e0	-0.1411891
114	0x3d12dc17	0.035854425
115	0xbd93e3af	-0.072211616
116	0xbe08eb19	-0.13370933
117	0xbcc27b10	-0.023740321
118	0xbc3f22f5	-0.011666049
119	0xbea68099	-0.32519987
120	0x3e03b416	0.12861666
121	0x3d9b1193	0.075717114
122	0x3ca2552b	0.019816002
123	0xbe4597bf	-0.19296168
124	0xbe02a8dd	-0.12759729
125	0x3e22125b	0.15827315
126	0x3cd5be2e	0.026091661
127	0x3e2f9d35	0.17149813
128	0xbdb8ad1d	-0.09017394
129	0x3cde7ef6	0.027160149
130	0xbbcd92ed	-0.0062736184
131	0xbe0e89c3	-0.1391974
132	0x3d9d887b	0.07692047
133	0x3d78a64a	0.06070546
134	0x3e7b5ff5	0.24548323
135	0x3b64e3c3	0.0034925796
136	0x3bdedf0a	0.0068014907
137	0xbe414791	-0.18874957
138	0x3d0bbab2	0.034113593
139	0x3e0deca5	0.13859804
140	0x3dc73934	0.097277075
141	0xbda18eb5	-0.07888547
142	0xbdf7acd5	-0.12093512
143	0xbe04a3cc	-0.12953109
144	0xbe337867	-0.17526399
145	0xbe72579d	-0.23666234
146	0x3d78cf8d	0.06074481
147	0xbc7a8b4e	-0.015292002
148	0xbe975525	-0.29557148
149	0xbd2772e7	-0.040881064
150	0x3dd5c185	0.104373015
151	0x3c3ad9d5	0.011404474
152	0x3d5f3675	0.054495294
153	0x3e33ed82	0.17571071
154	0x3e1da44a	0.15394703
155	0x3d3be24a	0.045870103
156	0x3e0f8f26	0.1401945
157	0x3e07fda9	0.13280357
158	0xbe06563a	-0.1311883
159	0x3cff9dde	0.031203207
160	0x3e4d62f0	0.20057273
161	0x3dc06f2d	0.09396205
162	0xbe733a61	-0.23752739
163	0xbdfe3597	-0.12412565
164	0xbdf6c16a	-0.120486096
165	0x3d6d9eef	0.0580129
166	0xbcf14714	-0.029452838
167	0xbe48bf38	-0.19604194
168	0xbe1f4eff	-0.15557478
169	0x3e846fa1	0.25866416
170	0xbdd089e8	-0.101825535
171	0xbe623a5d	-0.22092576
172	0xbd0fd8fd	-0.035119046
173	0x3e3a0381	0.18165399
174	0x3e018dc5	0.12651737
175	0x3d716bbc	0.058940634
176	0x3e08ccd3	0.13359384
177	0xbcd20afa	-0.02564
178	0xbe3e3991	-0.18576647
179	0xbddd4cc2	-0.10805656
180	0x3e321c32	0.17393568
181	0xbe8dbe77	-0.27684376
182	0x3e4baa54	0.19889194
183	0x3d2d516e	0.042313986
184	0x3e039515	0.12849839
185	0xbe06a8f3	-0.13150387
186	0x3c80e99a	0.01573639
187	0xbcab4597	-0.020907206
188	0x3e5abf82	0.21362117
189	0x3d5bc14c	0.05365114
190	0x3da97fbc	0.082763165
191	0x3dca9120	0.09890962
192	0x3dda9f1d	0.1067488
193	0x3d1f269a	0.038855173
194	0xbdb9400a	-0.090454176
195	0xbd8f1692	-0.06986727
196	0xbd4bf3de	-0.049793117
197	0xbb5fe049	-0.0034160784
198	0xbe06527c	-0.13117403
199	0xbe683c9c	-0.2267937
200	0x3e373bf0	0.17893958
201	0x3e6421f8	0.22278583
202	0x3c679c22	0.014136346
203	0x3cea2d0f	0.028585939
204	0xbe1a318a	-0.1505796
205	0xbe8c6af8	-0.2742536
206	0xbccff82d	-0.025386894
207	0x3e12934f	0.14314006
208	0x3d8bd0f1	0.06826962
209	0xbd1f7a13	-0.03893478
210	0xbd1fbf38	-0.03900072
211	0x3e897e3e	0.26854128
212	0xbcba86d2	-0.022769365
213	0x3d748520	0.05969727
214	0xbd98221d	-0.074283816
215	0x3e5fed41	0.21867849
216	0xbca503a3	-0.020143336
217	0xbec10f8d	-0.37707177
218	0xbe33de9b	-0.17565386
219	0xbc8e5ca3	-0.017378157
220	0x3d8be551	0.06830848
221	0xb9f1e91c	-0.00046140782
222	0x3e395c15	0.18101533
223	0xbd3b4da1	-0.04572833
224	0xbc85724e	-0.016289856
225	0x3d964bdb	0.07338687
226	0xbbd6fce1	-0.0065609072
227	0x3e60c087	0.21948443
228	0xbcbabf2f	-0.022796242
229	0x3e195617	0.14974247
230	0xbdc874aa	-0.09787877
231	0x3d1d1b1c	0.03835593
232	0x3e1e31ab	0.15448634
233	0x3e035dc2	0.12828735
234	0x3d705a40	0.05867982
235	0x3cd2b258	0.025719807
236	0xbd23e24d	-0.04001074
237	0x3d4c4319	0.049868677
238	0xbdf7e3ef	-0.12104022
239	0x3b9f2556	0.0048567457
240	0xbcd7fe6e	-0.026366439
241	0xbd8cef71	-0.06881607
242	0xbce95a66	-0.028485488
243	0x3b370be7	0.0027930678
244	0xbd32b605	-0.04363062
245	0x3d42553c	0.047444567
246	0xbdbf7794	-0.093489796
247	0x3e370ee6	0.17876777
248	0xbea8bc05	-0.32955948
249	0xbe34ec83	-0.17668347
250	0x3e3b3988	0.18283665
251	0x3d0c6cd9	0.034283493
252	0x3d4fae2b	0.05070321
253	0x3d738c90	0.059460223
254	0xbcf5a370	-0.02998516
255	0xbd79f5fb	-0.0610256

fc4.bias f4 [27]
0	0x3c816c4d	0.015798712
1	0xbd893f95	-0.067015804
2	0x3d743198	0.05961761
3	0xbdef8fa8	-0.11697322
4	0xbdb94ddc	-0.090480536
5	0xbc3ac25f	-0.011398881
6	0x3e092495	0.13392861
7	0x3d0b89fc	0.03406714
8	0x3d2e7df0	0.042600572
9	0x3dce053c	0.10059592
10	0xbd4c11b0	-0.049821556
11	0x3dc25870	0.09489524
12	0x3dd2ffe4	0.103027135
13	0xbcf7216e	-0.030167308
14	0x3d156162	0.036469825
15	0x3d88e479	0.06684203
16	0x3db1e2b6	0.0868582
17	0xbe102869	-0.14077915
18	0xbc7198a8	-0.014745869
19	0xbd186b4d	-0.037211705
20	0x3d62b3df	0.05534732
21	0x3d49a577	0.049230065
22	0xbccfc81b	-0.025363972
23	0x3ce0dc28	0.027448729
24	0x3d64f0ec	0.055893824
25	0x3db9f7ce	0.09080468
26	0xbd00abc2	-0.0314138
