src/trained_models/model_dimension3_250_epochs.pt (torch_old, 78590 bytes, 8 tensors)

fc1.weight f4 [64, 144]
000000 ee cc de bd 2e a8 d5 bd 01 28 dc bd e0 d1 71 bd
       -0.10878931 -0.10432468 -0.10749818 -0.059038043
000010 85 b3 f6 bd 0e 4e 19 be 7e 1e e4 bd b4 77 74 bd
       -0.120459594 -0.14971182 -0.111386284 -0.05968447
000020 7b 08 cf bd ad 88 23 3a c3 78 84 3c 84 34 e4 bc
       -0.101090394 0.0006238323 0.016170865 -0.027857073
000030 25 90 1b bd 81 a5 4e 3d 8e 81 84 3c c1 c5 33 bd
       -0.037979264 0.050450806 0.016175058 -0.043889765
000040 f3 31 1d be 5c 6a 7b bc e7 23 01 bd 43 0f 0b be
       -0.15351085 -0.015345182 -0.03152838 -0.1358004
000050 67 47 f0 bd 2e 79 8d bd 4c 0e 2b be 89 53 e3 bd
       -0.11732369 -0.06907879 -0.16704673 -0.110999174
000060 4c 37 0c bd 41 8c f8 3b af b8 78 3d c5 49 09 bb
       -0.034232423 0.007585079 0.060723003 -0.002094851
000070 99 70 05 3e 33 4a 27 3e 20 c9 b9 3d d2 c0 1e 3e
       0.13031234 0.16336899 0.09071565 0.15503243
000080 53 1f c7 3d d3 67 a7 3d 27 ad cf 3d 39 ef 91 3d
       0.097227715 0.081741 0.10140448 0.07125706
000090 91 e3 1f bd dc e9 0a 3d de ff c4 3d 55 a5 58 bc
       -0.039035384 0.033914432 0.09619115 -0.013223012
0000a0 e4 b2 67 3c 59 e9 84 3d 07 e1 11 3d 0c b3 29 3d
       0.014141772 0.0648982 0.035614993 0.041430518
0000b0 9b e7 4c 3c 62 f9 2c 3d 39 0b a5 3d 84 ac 17 3d
       0.012506391 0.042230017 0.08058781 0.037029758
0000c0 c9 95 17 bb a7 06 87 3d fe e6 10 3d 08 60 04 3e
       -0.002313005 0.06593066 0.03537654 0.12927258
0000d0 28 c0 8e 3d df db 67 bd ea 65 6a bd 15 45 90 3d
       0.06970245 -0.05660617 -0.0572261 0.07044426
0000e0 68 e4 dd bc 0a 65 be 3d bb 8d d0 bc e4 7d 73 3d
       -0.027086452 0.092966154 -0.025458207 0.05944623
0000f0 75 17 aa 3d 7b 0c a6 b8 50 b1 8c bc 0c cf 0b bc
       0.08305255 -7.9178215e-05 -0.017174393 -0.008533251
000100 46 c7 38 bd 59 24 d5 bc 26 95 8e bd 51 77 99 bd
       -0.045111917 -0.026018308 -0.069620416 -0.07493461
000110 8e 70 11 3c 7b b5 05 bc 69 e7 88 bd d3 f9 dc bc
       0.008876933 -0.008160944 -0.06684763 -0.026974594
000120 b5 e7 2b bd fa 07 29 3d b8 bb 67 3c 80 a2 8c bd
       -0.04196902 0.041267373 0.014143877 -0.06866932
000130 8b e5 b5 3b 9b 5e 9c bd 60 56 1b bc 06 0f b6 bc
       0.0055510453 -0.07635232 -0.009481043 -0.02222396
000140 bc c0 da bc 38 0e ae 3d 13 d7 cb bb 5d d8 82 bd
       -0.026703231 0.08498806 -0.006220707 -0.06388924
000150 5a 48 f2 3a 6e 0f 44 3d 60 79 3d 3c e9 50 be 3c
       0.0018484697 0.047866277 0.011564583 0.02323194
000160 af 38 0c 3c 6a bc a0 bd 50 50 30 bd ef 52 bb 3b
       0.008558436 -0.07848437 -0.043045342 0.0057166736
000170 e6 5e 41 3d 23 d7 13 3d 3e 22 bb bc 9c df 93 3d
       0.047209643 0.036093842 -0.022843476 0.072203845
000180 84 4b bb bc c3 64 b7 3d 00 f1 09 3d cc 99 59 3d
       -0.022863157 0.08954766 0.0336771 0.053125188
000190 69 f0 22 3e 14 56 c8 bc a9 0d 11 3d 23 85 17 3e
       0.15912022 -0.024455108 0.035413418 0.14796881
0001a0 0e b7 c8 3c df 91 1d 3d b9 4b 39 3c f6 22 93 bd
       0.02450135 0.03846919 0.011309558 -0.07184403
0001b0 98 57 a5 bd 52 14 c5 bd b2 8c 82 bd 08 66 08 be
       -0.08073348 -0.096230164 -0.06374492 -0.13320172
0001c0 e3 13 c7 3d ac cd 8a 3d 38 e1 b5 3c b3 60 b8 3c
       0.0972059 0.0677751 0.02220212 0.022507047
0001d0 ac 24 05 3e d0 67 a6 3d 14 4b 02 3e 5f ed 31 bc
       0.1300227 0.081252694 0.12723953 -0.010859816
0001e0 3d 62 8d bd 4d b5 8f bc b4 c6 40 b9 27 87 cf bd
       -0.06903503 -0.017542506 -0.0001838457 -0.101332
0001f0 3e 2c d5 bd 67 29 b5 bd 57 a6 12 3d 14 db ae 3c
       -0.10408829 -0.088457875 0.035803165 0.021344699
000200 94 c8 59 3c 09 21 b8 3c 7f 0a 54 bd f0 5a 80 3d
       0.01329245 0.02247669 -0.051767822 0.06267345
000210 af c5 c0 3d c9 12 25 bd 32 32 be bc f1 ce b7 bd
       0.09412705 -0.040301118 -0.023217294 -0.08975018
000220 e9 58 9b 3d 16 80 54 bd f0 60 f6 3c 21 24 7d 3d
       0.07585318 -0.051879965 0.03007552 0.061802033
000230 d1 87 28 bd aa 2f 16 3c c1 bf 20 3d 75 04 07 3e
       -0.04114515 0.009166637 0.03924537 0.13185294
000240 e0 38 96 3d 94 12 2c bd 3e 6d 9b 3d e8 2d 96 bc
       0.07335067 -0.042009905 0.07589196 -0.018332437
000250 71 8f 96 3d 36 77 93 3d 7b e8 97 bd 5f 80 45 3c
       0.07351578 0.07200472 -0.07417389 0.012054532
000260 12 39 ae 3c f3 9d 05 bd 1c 9d 43 bc b5 fd 96 bc
       0.021267448 -0.032621335 -0.011939313 -0.018431524
000270 33 bb b2 3d 92 bb d1 bb 22 c5 d8 bd 97 c0 fc bd
       0.08727112 -0.006400534 -0.10584475 -0.12341421
000280 46 f9 91 3d 99 02 2b bd b8 f3 a6 3d 64 c6 ac bc
       0.07127623 -0.041750524 0.081519544 -0.021090694
000290 1a d4 b0 3d 98 0e 56 bd 5d 3c 92 bc 9e a1 86 3d
       0.08634205 -0.05226001 -0.01785105 0.06573795
0002a0 b0 22 0b be 8a e8 47 3d af 88 b7 bd 0a 49 80 bd
       -0.13587451 0.04880575 -0.08961617 -0.06263931
0002b0 57 d9 aa 3d 9e 0a 26 bc 57 9e 7d bc 58 61 19 be
       0.083422355 -0.010134367 -0.015479646 -0.1497854
0002c0 69 c7 78 bc d8 bd f4 3c 70 d9 2a bd be b0 f1 3c
       -0.015184262 0.02987568 -0.04171127 0.029503223
0002d0 50 79 e0 bd ce 54 3f 3d 53 37 3b bd 80 32 9b bc
       -0.109606385 0.046711735 -0.04570706 -0.018944979
0002e0 9a 01 48 3d 1a cb 27 bd 0f 9f 94 bc 6c 28 94 3d
       0.048829652 -0.040965177 -0.018142251 0.07234272
0002f0 90 28 84 3d d3 02 d7 3c 1e 0e 62 bd 20 78 ce bd
       0.06453049 0.026246464 -0.055189244 -0.10081506
000300 c9 83 a4 3d 59 4d 7f 3d db 67 8d 3d ec 55 26 3d
       0.080329485 0.062329624 0.069045745 0.040609285
000310 a7 b3 f1 3d af bd a8 3d 44 2c 51 bb 7d 5e 8e bd
       0.11801844 0.08239304 -0.0031917254 -0.06951616
000320 94 94 4a 3d 8b 3a b9 bd 0c 1f 65 3c 35 cc 63 3c
       0.0494581 -0.09044369 0.013984453 0.013903667
000330 c4 6c e7 bd 34 98 90 bd b3 85 cd bd 9e cd d9 bc
       -0.11300042 -0.070602804 -0.10035267 -0.026587304
000340 c2 1b a2 3d 16 36 e0 bc 05 9b 58 bb e0 19 3d bc
       0.07915451 -0.02736954 -0.0033051383 -0.011541814
000350 56 60 86 3c cc de 02 be 5a d2 ea bb eb 4c e8 bd
       0.016403358 -0.12780303 -0.007166189 -0.11342796
000360 26 9a 08 3e f1 9e 1e 3e ee 15 08 3e 64 59 21 3e
       0.13340053 0.15490319 0.13289616 0.15756756
000370 ea 39 fc 3d 06 b3 6f 3d 49 c5 58 3e 8b 41 4c 3e
       0.12315734 0.05852034 0.21169008 0.19946878
000380 b7 1e c3 bd e2 00 c0 bd 2d 4c 1d bd ea 2d 22 3d
       -0.09527343 -0.093751684 -0.038402725 0.03959457
000390 f6 a2 e1 3d 8f 5d 41 3d e1 4f 5b 3d aa b2 8b bd
       0.110174105 0.047208365 0.053542975 -0.06821187
0003a0 87 90 cf 39 f0 bd 0b bd 9f 74 2c 3d 2f 3a 85 bd
       0.00039589798 -0.034116685 0.042103406 -0.06505238
0003b0 99 1d 0e 3e 02 5e bb 3d 40 c9 bf 3c 4b fb 1f 3c
       0.13878478 0.0914879 0.023411393 0.009764503
0003c0 ea 01 6f 3c 3f ab b0 bd 58 9c ba bc 59 86 c9 bd
       0.014587859 -0.086264126 -0.022779629 -0.09840078
0003d0 76 47 e0 bd 52 8f 90 3d 0f f8 32 3e 09 02 e7 3d
       -0.1095113 0.07058586 0.1747744 0.11279685
0003e0 a0 1b cc 3c 03 84 68 3c 2c 55 1c 3c 51 51 a9 bb
       0.024915516 0.01419163 0.009541791 -0.0051671644
0003f0 67 a1 29 bd 82 fa 48 bd 52 cf a4 bd f8 49 c1 bc
       -0.04141369 -0.049067028 -0.08047356 -0.023594841

fc1.bias f4 [64]
000000 79 3f ae bb bd 89 93 3d ca 0d 98 bd 44 46 16 bc
       -0.005317625 0.07204006 -0.07424505 -0.009172026
000010 36 03 3e bc 73 ba 8f 3d 5c d3 55 bc 2e 0e 87 bd
       -0.011597445 0.07017984 -0.01305088 -0.065945014
000020 62 8b 03 bd 46 cd 95 bd e6 9c 11 3d aa c9 66 bb
       -0.032115348 -0.073145434 0.03555002 -0.0035215416
000030 a7 1f 17 bc 0a d9 8e ba a9 4d 1d 3d 58 79 85 bd
       -0.009223855 -0.0010898423 0.03840414 -0.06517285
000040 2b 1b 57 bd 6b 06 a0 bd ca ea 71 3d 0b b9 8e 3d
       -0.052516144 -0.07813724 0.059061803 0.06968888
000050 0f 89 7a 3d 78 4e dd 3c 11 1b 1f bd d1 e8 9b 3d
       0.061165866 0.027014956 -0.038844172 0.076127656
000060 df 3b 45 3d fb 15 9c bd 9c 8e bf 3b 96 05 18 bd
       0.0481528 -0.0762138 0.005845858 -0.037114702
000070 80 80 05 ba 8e 6f 5f bd 33 f9 95 3c e0 c1 96 bd
       -0.00050926954 -0.054549746 0.018307304 -0.073611975
000080 a1 77 bb 3c ef 4d cc 3a f5 f3 09 ba b7 0f a0 3d
       0.022884192 0.0015587191 -0.00052624877 0.07815497
000090 27 c7 57 bd f4 c6 ad bc 85 55 88 bc e1 7d 77 3d
       -0.05268016 -0.021213032 -0.016642341 0.06042278
0000a0 a1 5c 93 bc 3a 4a 8d 3d 1a 8f 5b bd c4 7c a0 bd
       -0.017988505 0.06898923 -0.05360327 -0.07836297
0000b0 bc b6 90 3c 3f 3d a5 bd f6 2b 9f bd c5 09 40 bd
       0.01766526 -0.080683224 -0.07772057 -0.046884317
0000c0 1d 47 05 3d 0f 8a 15 bd e9 d9 57 3c 74 06 3c bd
       0.032538522 -0.036508616 0.013174512 -0.04590459
0000d0 79 98 78 3d fc 18 34 3d c9 ec 50 bd 9c f2 8c bd
       0.060692284 0.04396914 -0.051007066 -0.068822116
0000e0 8a 93 8f 3d d1 2a 89 bd 76 2c 97 3d 38 36 de bc
       0.07010563 -0.0669762 0.07381527 -0.027125463
0000f0 be f7 3f bd 61 39 5f 3d 84 99 a2 bd be 4f a8 bc
       -0.046867125 0.05449808 -0.07939437 -0.020545837

fc2.weight f4 [64, 64]
000000 50 db bc 3a 39 d3 89 3d af c1 26 3d 2d e4 12 3e
       0.0014408622 0.06729741 0.040712055 0.14344855
000010 4e 17 e4 bc dd 80 a7 3d 4a c8 20 3e 9f b7 16 3c
       -0.027843144 0.081788756 0.15701404 0.009199052
000020 f5 1f eb 3d e0 ef a6 bd 02 b3 07 be c2 d1 b5 bd
       0.11480705 -0.08151221 -0.1325188 -0.08877899
000030 55 5a 0c 3e 96 74 0e 3d 38 63 3c 3e 6d 55 cd bd
       0.13706334 0.034779154 0.18397224 -0.10026059
000040 94 8c e6 3c e4 30 65 bd 9c 8c 85 bd ca f8 c1 3d
       0.028143205 -0.05595483 -0.0652096 0.09471281
000050 8e 7f 8d 3d 14 4e 09 3d 7d 5d 50 3e 32 8d cd 3d
       0.06909095 0.033521727 0.20348163 0.100366965
000060 69 e0 1b be 9e 8b b3 3d a0 c2 a6 bd 2d db 30 be
       -0.15222324 0.08766864 -0.081425905 -0.17271109
000070 63 20 58 bd ba 28 f5 3d 2c af fb 3d d4 91 a6 bd
       -0.05276526 0.119706586 0.12289271 -0.08133283
000080 69 21 91 3c 22 ef f9 3d f5 48 35 3d eb da f5 3d
       0.017716127 0.12203814 0.04425903 0.12004646
000090 1e a1 8b bd 92 b2 ef bc 7f 20 76 3d 1f f7 e4 3d
       -0.0681784 -0.029259954 0.060089584 0.11179947
0000a0 1b 34 fe 3d a3 5a a2 bc 34 06 dd bb 10 98 5b 3d
       0.12412282 -0.01981861 -0.0067451242 0.053611815
0000b0 e1 84 84 bd b7 80 00 bc 1f 7b c2 3d 0a 96 1f bd
       -0.06470657 -0.007843188 0.0949614 -0.038961448
0000c0 df 19 f7 3c 5d ab 4c b8 c3 d4 66 bd 6e f7 fd bd
       0.030163703 -4.8796985e-05 -0.05635525 -0.12400709
0000d0 e9 8d e6 bb cb 96 f7 bd d9 ef ae bd 97 75 02 bd
       -0.00703596 -0.12089308 -0.08541841 -0.031850424
0000e0 49 4c 62 3d c0 69 bd 3c 30 64 99 3d 00 8e 8b bd
       0.055248532 0.023121715 0.074898124 -0.06814194
0000f0 08 66 1d 3d f6 30 83 3d 78 e7 69 bd 8c ff fe 3c
       0.038427383 0.06405823 -0.05710551 0.031127714
000100 f8 bc ed 3d a4 e9 c4 3c df f8 3f bc 1e bd 61 bd
       0.116083086 0.02403719 -0.01171705 -0.055111997
000110 da cf 26 bd 59 e9 b4 bc 38 5b 4a bb ea d7 a6 3e
       -0.040725566 -0.022083925 -0.0030877125 0.32586604
000120 82 7c 15 3d c9 9c 26 3c 95 76 ee bc 02 81 e9 bc
       0.036495693 0.010169216 -0.029109279 -0.028503899
000130 81 51 40 be cf 64 12 bd 78 68 18 3e 8b 70 cb bd
       -0.18781091 -0.03574067 0.14883602 -0.09933575
000140 cb d1 94 3d c7 e8 d2 bd 4f 67 fb 3d 5c b3 cc bc
       0.07266577 -0.10298305 0.12275564 -0.024987869
000150 53 68 a6 3b 08 55 24 be e5 3c 88 3d a1 59 9c bc
       0.0050783544 -0.16048062 0.0665224 -0.019085707
000160 6e 42 19 3e 05 0a ee 3d b3 22 69 be b3 d3 3e bd
       0.14966747 0.11623005 -0.22767143 -0.04658861
000170 c8 e8 f8 3d 0c 9b 24 bd 34 1a 2e bd 26 89 80 bd
       0.121537745 -0.040186927 -0.042505458 -0.06276159
000180 e6 f0 86 3d c9 a4 07 3e 07 f5 d4 3d 1a 79 f7 bd
       0.065889165 0.13246454 0.10398298 -0.12083645
000190 a3 68 d1 bd be b6 65 be c0 c0 89 3c e6 5a 80 bd
       -0.10225036 -0.22432992 0.016815543 -0.062673375
0001a0 72 06 e9 3c c0 88 d6 3d a6 62 c0 bd 75 49 97 bc
       0.028445456 0.10475302 -0.09393816 -0.018467644
0001b0 90 25 22 bd 16 2e 0b be 55 91 e8 bd e3 8b 20 3e
       -0.039586604 -0.13591799 -0.11355845 0.15678363
0001c0 95 75 14 3e b5 dd d1 3d 49 ad 1d 3e b6 bd ad 3d
       0.14497979 0.102473654 0.15398134 0.0848345
0001d0 38 4e 48 3c 05 eb 99 bc cf 91 d6 3d 15 5c 01 bd
       0.01222568 -0.018788824 0.104770295 -0.031581957
0001e0 01 65 2b bd 2e 5f 28 be 36 69 ad bd 64 c1 2a be
       -0.04184437 -0.16442558 -0.08467333 -0.16675335
0001f0 ef 2c 9b 3c 47 b6 ab 3c 2b 8d fa bd e3 5b 7c bd
       0.018942324 0.02096094 -0.12233957 -0.061611068
000200 c3 cc 0b 3d 6e 8b 18 3c b5 b7 98 3d 1b 03 df 3d
       0.034130823 0.009310586 0.07456914 0.10889264
000210 27 84 0c be e3 db 98 bd ee 9d f9 3d ce 10 14 bd
       -0.13722287 -0.07463815 0.12188326 -0.03614884
000220 1a d7 2b 3e c5 05 d3 bd 1b e1 33 3d d5 ba 8d bd
       0.16781273 -0.10303835 0.04391585 -0.06920401
000230 16 d6 62 3d 5c 00 a7 bd fb 0b a8 3c 5f 9b f9 3d
       0.05537995 -0.081543654 0.020513525 0.12187838
000240 18 78 4c bd 79 e5 f9 3d fb 31 60 3d 0b b0 81 bc
       -0.049919218 0.122019716 0.054735165 -0.015831014
000250 44 9e 82 3d d0 4c 0c 3c 5b e9 69 3e 2f a4 cb 3d
       0.06377843 0.008563235 0.22842924 0.09943425
000260 5a 3c ba 3d 2d b7 e7 bd 79 3a 0c be 1f 7c 00 be
       0.090935424 -0.11314235 -0.1369418 -0.12547348
000270 51 dd 2d be 38 45 d8 bd 6f 50 bc 3d 3a 8c 51 3d
       -0.16978957 -0.105600774 0.09195029 0.05115912
000280 a9 7c 3a bd 3e 05 0f be a6 bb 71 bd 58 a3 4c be
       -0.04552904 -0.13966843 -0.059016846 -0.19984186
000290 b3 c9 01 bd 3e 66 20 3d c2 cf 87 3d 2e 31 79 3b
       -0.031686496 0.039160006 0.066314235 0.0038023698
0002a0 59 c8 ba bd 5d 46 c7 bc 03 e4 c4 3d c4 0b e2 bd
       -0.091202445 -0.024325544 0.09613802 -0.110374
0002b0 0f a6 e4 3b bc d3 12 be 0f c8 16 3d 1f 8d a6 bd
       0.0069778035 -0.14338583 0.036811884 -0.081323855
0002c0 73 6e 24 3a bb f9 16 3c 5b 87 51 3c cb 29 33 3e
       0.0006272562 0.009214814 0.012788619 0.17496412
0002d0 d4 30 1b 3e 6a 58 e2 bd 80 02 3a 3d 96 d8 bb 3d
       0.15155345 -0.1105202 0.04541254 0.0917217
0002e0 a2 b9 23 3e c3 ce da bb 88 20 59 be b7 d3 0f 3e
       0.15988782 -0.00667748 -0.21203816 0.14045607
0002f0 e3 1c ec 3c 44 cb 92 be 2e 29 3b 3c 11 3a 07 be
       0.028822368 -0.28670704 0.011423392 -0.13205744
000300 d0 31 7e 3d a6 ef a8 3d c0 ce df 3b 5d cd 24 3d
       0.062059224 0.08248834 0.0068300664 0.040234912
000310 36 6d df 3c a6 2f 95 bd cf 76 0a be d0 13 c0 bd
       0.027273756 -0.07284479 -0.13521884 -0.09378779
000320 44 ea f9 bd 7d b2 ec 3d cf d8 ff bd d6 01 8b bd
       -0.12202886 0.115574814 -0.12492525 -0.067874596
000330 06 56 33 be d2 81 77 3d 37 e0 35 be 76 7d da bb
       -0.17513284 0.06042654 -0.17761312 -0.006667788
000340 4f 10 39 3e 14 74 81 ba 9e a4 66 3e 0a 5e 33 be
       0.18072627 -0.0009876513 0.22523734 -0.17516342
000350 24 93 94 3d db 3a 5a 3e 7e fe 32 be c8 23 12 3d
       0.07254627 0.21311514 -0.17479894 0.035678655
000360 de cd 74 bc 9f 64 04 3d e0 f5 97 3d 5d 50 09 3e
       -0.014941661 0.032322522 0.07419944 0.13409562
000370 73 3d c8 3d 2e b7 68 be b2 b0 02 bc e8 13 c1 bd
       0.097773455 -0.22726128 -0.007976698 -0.09427625
000380 06 81 09 be c9 8d 38 3b 84 fa 85 bd 23 02 b8 bd
       -0.13428125 0.0028160682 -0.06541923 -0.089847825
000390 b0 91 3c 3e 64 9b 9d 3d d4 53 22 be 75 49 52 3e
       0.1841495 0.07695654 -0.1585229 0.20535834
0003a0 9e b3 01 be 9f 73 83 bd 85 21 13 3b ca 93 a9 3d
       -0.12666175 -0.06418537 0.00224504 0.08280142
0003b0 53 1e 65 bd 18 5b 0b 3e 29 c8 8a bd fe 82 2c 3d
       -0.055937123 0.13608968 -0.06776459 0.04211711
0003c0 8a ff 81 3d f1 33 cf bd 7a 3c 4d bc fa 92 4c 3b
       0.06347568 -0.10117329 -0.012526626 0.0031215535
0003d0 02 4a af bd 93 5f dd bd 8b 74 f5 bd 20 97 06 be
       -0.08559038 -0.10809245 -0.119851194 -0.13143587
0003e0 b4 cc b7 3d e7 16 c1 3c bf 2d dc 3d b4 f9 83 3e
       0.08974591 0.023570491 0.10750913 0.25776446
0003f0 ea 83 eb bd 58 91 5a 3d a9 8e 48 3b e2 52 db bc
       -0.1149977 0.053361267 0.003060261 -0.02677292

fc2.bias f4 [64]
000000 c8 22 f1 3d 24 6f 47 bd 54 7f e7 bd 53 ad b5 bc
       0.11774212 -0.048689976 -0.11303583 -0.022177374
000010 37 5f 04 3c 6d 49 9d 3d cc 18 a1 bb 35 76 59 bd
       0.008079342 0.076800205 -0.004916286 -0.053091247
000020 13 83 ca bd c4 32 9e bc d3 90 a8 bd da 3a ca bd
       -0.09888282 -0.019311316 -0.08230748 -0.09874506
000030 b2 f7 42 bd 16 87 fd 3c 68 39 a7 bd 64 c0 b3 3c
       -0.047599502 0.030948203 -0.08165246 0.021942325
000040 e3 17 38 bd 9d 3d 45 bc c3 02 dd bd 4e 43 f6 bd
       -0.044944655 -0.0120386155 -0.107915424 -0.12024556
000050 7a e8 64 3d 4b 0c 98 bd 6a ba ef 3b ee cb a7 3d
       0.05588577 -0.0742422 0.0073159235 0.081931934
000060 f3 fb fd bd fa 50 d4 bd 3b 81 b3 3d 8a 62 7d bc
       -0.12401571 -0.103670076 0.08764883 -0.015465388
000070 d8 c9 e2 3d ce 8f b6 3d 40 78 d6 bd bd 9e eb bc
       0.11073655 0.08914147 -0.104721546 -0.028762216
000080 8b c9 86 ba 5b 80 c7 3d 68 c8 77 3d 1a c3 eb bd
       -0.0010283453 0.09741279 0.060493857 -0.11511822
000090 1f e9 f1 bd 0e fc 30 bd 77 86 fd bd ed c9 cd 3b
       -0.118120424 -0.043209128 -0.12379163 0.006280175
0000a0 ad 1b 99 bd 14 ce eb 3b c8 17 b0 3d 62 dd 92 bb
       -0.07475982 0.0071961973 0.08598286 -0.0044819573
0000b0 3e 6c 45 3d 00 b1 54 bd 12 54 a2 3d 39 35 14 bd
       0.04819893 -0.051926613 0.079261914 -0.03618357
0000c0 a6 73 f9 3c 9d 93 8f bd d2 b8 f7 bc 1d c9 83 3d
       0.030450653 -0.07010577 -0.030239496 0.06434844
0000d0 27 44 a1 bd 8a 8b d6 3d 54 99 a6 bd 8d 69 d1 3d
       -0.07874327 0.10475834 -0.08134714 0.1022521
0000e0 c3 32 f1 bd 05 39 c5 3d 57 aa 22 3d 19 43 81 3c
       -0.1177726 0.09630016 0.03971323 0.015779065
0000f0 57 80 8d bd 6b 06 91 bd 1f 5b 46 bd 64 ff 24 bd
       -0.069092445 -0.07081302 -0.048426744 -0.040282622

fc3.weight f4 [64, 64]
000000 c5 3e 89 3d c1 da 1b bd b8 bb 2c be 96 a6 ad 3b
       0.067014255 -0.038050417 -0.16868484 0.0052993996
000010 91 71 f8 bc 92 a5 ae bc 4f 4e af 3d c9 52 97 3c
       -0.03032759 -0.021319184 0.08559858 0.018472092
000020 9a 8c dd 3c f3 e0 c3 bd 77 9a 05 be cc 87 a8 3d
       0.027044583 -0.0956439 -0.13047205 0.08229026
000030 a4 d4 62 3d a7 91 ce 3d d5 48 18 be e3 80 ce bd
       0.05537857 0.10086375 -0.14871533 -0.10083177
000040 24 17 85 bd fe 2d 19 be 0d 34 26 3d 7a 77 01 bd
       -0.06498554 -0.14958951 0.040576983 -0.031608082
000050 43 47 d4 3d ce 1c df 3d d4 2b fa 3d 1a c5 e2 bc
       0.103651546 0.10894166 0.12215391 -0.027681876
000060 64 d6 59 3d d8 6d cd bd 8b 4d 64 3d d5 e1 56 3e
       0.053182974 -0.10030717 0.055738013 0.20984586
000070 c8 a6 bc bd 03 6d 08 3d 3d 95 28 3c 79 ff b3 3d
       -0.092114985 0.033307087 0.010289487 0.08788962
000080 ac 3e 81 3d f9 9d 2b 3e fc 6c 72 3b fb c7 04 3e
       0.06310782 0.1675948 0.003699123 0.12966911
000090 95 b3 4f bd fb 46 b3 3d 20 bc 6c 3c 16 1e 8d bd
       -0.050708372 0.08753773 0.014449149 -0.06890504
0000a0 45 6b 5f 3e 65 76 78 bd 6a 45 a2 3d 1b a1 e4 bd
       0.21818264 -0.060659785 0.07923396 -0.11163541
0000b0 aa 8c 1d 3e aa 11 1c 3d 80 41 d4 3d 79 de 16 be
       0.1538569 0.038102783 0.10364056 -0.14733304
0000c0 e1 16 92 bd 1d d7 c4 3c 7c ae 12 3e d0 06 1f be
       -0.0713327 0.024028355 0.14324373 -0.15529943
0000d0 06 da 71 bc ed 68 84 bd ed 1c 8c bd a0 1a 09 be
       -0.0147614535 -0.064653255 -0.06841455 -0.13389063
0000e0 0d 77 0e be ef b9 8d bd df dd 9f bd 2e cf a5 bd
       -0.13912602 -0.0692023 -0.078059904 -0.08096157
0000f0 a0 4f 40 be c8 ab eb bd 07 f5 db bd eb 67 1e 3d
       -0.18780375 -0.11507374 -0.10740095 0.038673323
000100 43 3e 97 bd c7 ad b1 bd a5 09 fb 3d 4d 5c b2 3d
       -0.07384922 -0.086757235 0.12257699 0.08709011
000110 aa f3 2e 3c 22 b0 20 3d 6f 55 94 ba 3f 2b c5 bc
       0.010678211 0.039230473 -0.0011316965 -0.024068473
000120 32 ab 4f ba 36 ab e4 bb 29 c5 7b bd 4c f1 e2 3d
       -0.00079219334 -0.0069784177 -0.061467323 0.1108118
000130 c3 4f ab bd 10 65 fb bd 90 e4 93 bd b3 6a 70 bd
       -0.08364823 -0.122751355 -0.07221329 -0.058695506
000140 d9 b8 b5 bd e8 23 33 3d 6b f6 5d 3d 5e ff 80 bd
       -0.088731475 0.043735415 0.05419008 -0.062987074
000150 01 c6 59 3c 12 6b a9 bc 8e 2c 2f 3e 3d d8 7d bc
       0.013291837 -0.020680938 0.1710684 -0.01549345
000160 8d 70 cd bd bc ee ab bd 04 30 98 3d cd c2 52 3d
       -0.10031233 -0.08395144 0.07431033 0.051455308
000170 1c 82 c1 3d 7d 74 e1 bd 0e aa 6d 3d eb 7b 5f bd
       0.094486445 -0.110085465 0.058023505 -0.054561537
000180 b7 52 71 bc b3 ee 39 bd 68 8b db 3d 48 29 0d be
       -0.014729193 -0.045393657 0.10719949 -0.13785279
000190 79 67 db bd 59 c6 b9 bd ca 36 aa bd 75 6b 71 bd
       -0.10713095 -0.09071035 -0.083112314 -0.05894037
0001a0 60 b9 fb 3d 2d dc 0a be bb ea ef 3c 2c 17 f3 bd
       0.12291217 -0.13560553 0.029286733 -0.11869654
0001b0 89 83 a6 3d 5e 86 fc bd 29 d4 c2 bc 5e 63 85 3c
       0.08130557 -0.12330316 -0.023782806 0.016282734
0001c0 7c d5 56 bd c3 3e f2 bd 99 03 90 bc 19 02 98 3d
       -0.05244969 -0.11828377 -0.01757984 0.07422275
0001d0 43 99 81 3d 91 07 df 3d 5e 37 d1 3d 9e 5d 2e be
       0.063280605 0.10890115 0.102156386 -0.170279
0001e0 7c d2 bc bc 61 20 1a bd ad e7 89 bd 46 ca 3c 3e
       -0.023049586 -0.037628535 -0.06733642 0.18436536
0001f0 b8 9e ed bd 06 68 c5 3c ff 8b 03 3e 38 2c 4c 3d
       -0.11602539 0.024097454 0.12846373 0.049846858
000200 86 1d 1b 3e e3 81 87 3d b4 08 8b bc d7 58 6e 3d
       0.15147981 0.06616571 -0.016971923 0.058190193
000210 2c 59 05 be 12 c2 20 bd 01 87 4b 3d 8e 57 cb 3d
       -0.13022298 -0.03924758 0.049689297 0.09928809
000220 52 a9 b4 bd 8a ae 66 3d ca 30 c4 bd 9f 56 23 bd
       -0.08821358 0.056318797 -0.09579618 -0.03987753
000230 06 4d 09 3e 29 4a a0 3d 36 69 65 3d 53 5c 11 3d
       0.13408288 0.07826645 0.05600854 0.035488438
000240 c5 aa dc 3d 00 84 06 3e 5a 8f d6 bd ca 3c 11 be
       0.10774759 0.13136292 -0.10476561 -0.14183345
000250 ea 89 eb 3d 75 fc de bd b1 e9 37 3d 9a de 5e bc
       0.115009144 -0.10887996 0.0449006 -0.013602877
000260 a1 de 58 3d ee 41 23 bd d1 7b 55 3d a3 13 c1 3d
       0.05294669 -0.039857797 0.052120034 0.094275735
000270 78 fe 6b 3d 20 58 12 bd df 2e 37 bd 75 5a 9c 3d
       0.057615727 -0.035728574 -0.044722434 0.07634441
000280 6b b7 3a bd f5 f2 22 be de a1 b4 bc 0c af 9e 3d
       -0.045585077 -0.15912993 -0.02204984 0.07748231
000290 af f7 08 be 16 23 26 be 04 b8 45 3d 90 a6 1b bd
       -0.13375734 -0.16224322 0.048271194 -0.038000643
0002a0 8d dd 76 bc 1c 79 fd bc 0e bd c0 3e df 22 e6 bb
       -0.01506747 -0.030941539 0.37644237 -0.0070232
0002b0 a7 50 7e bd a0 67 12 bd c6 44 08 be 41 87 d7 3d
       -0.062088635 -0.035743356 -0.13307485 0.105238445
0002c0 80 fa 83 3d bd c3 5e be 2d fe b7 3c cc 4e 8b bd
       0.064442635 -0.21754356 0.022460068 -0.06802139
0002d0 c6 df 0b 3e 2d 3e 1d 3e 72 26 8d 3c 4c 26 82 3e
       0.13659582 0.1535575 0.017230246 0.25419843
0002e0 f2 b8 9a 3c e6 6f a1 bd 7c 5a d7 bd 6c e6 20 be
       0.018887017 -0.07882671 -0.105153054 -0.15712899
0002f0 bb 66 b2 bd e3 22 b4 3d 46 08 d1 bd e4 a0 5f 3c
       -0.087110005 0.087957166 -0.10206656 0.013649199
000300 18 d9 20 3e 80 c7 0a be 3a 58 8d bd fd 9c 44 3e
       0.15707815 -0.13552666 -0.069015935 0.19200511
000310 3c da 89 bc 21 ee d9 3d 4b a4 e3 3d 4b b8 00 be
       -0.016827695 0.106411226 0.11115321 -0.12570302
000320 f4 3b cf 3d d7 02 ed 3c eb 44 81 3d 65 e8 a6 bd
       0.10118857 0.028932018 0.06311973 -0.081497945
000330 0d 45 cd bc 8d e4 a3 bd 8d 23 98 bd 03 24 fd bd
       -0.02505734 -0.08002577 -0.07428656 -0.12360384
000340 a1 36 49 3e 9a 44 9b 3d 53 d7 11 bd 2b 80 49 be
       0.19649746 0.07581444 -0.03560574 -0.19677798
000350 bc 28 05 bd b3 d8 02 be 50 61 e7 3c 65 88 1a be
       -0.03250955 -0.12777977 0.028244644 -0.15091093
000360 21 5f e3 bc 63 db 14 3c 39 69 6b bd ae 4d ef 3d
       -0.027755322 0.009085509 -0.057473395 0.11684738
000370 50 ab 93 3d 84 3d da 3c f3 cf ac bd 1d 06 4b bd
       0.0721041 0.026640661 -0.08438101 -0.049566377
000380 47 64 13 be 2e e8 e3 3d 0d 27 f0 bd 15 22 1b 3c
       -0.14393722 0.11128269 -0.11726198 0.009468575
000390 26 1e 20 3b c5 3b 13 3e 21 36 c6 3d df 8f ac bb
       0.0024432032 0.14378269 0.09678293 -0.005266174
0003a0 70 0d 04 bd 74 a2 8f bd 1c 5e 93 3e fe 01 d9 3c
       -0.032239377 -0.07013407 0.28782737 0.026490208
0003b0 6f 56 1e 3e 54 c5 7d 3d f6 18 28 bd c8 aa d4 3d
       0.1546266 0.061955765 -0.04103943 0.103841364
0003c0 de 17 b1 bd 22 ab 59 3b 1c f3 7b bd cd 35 22 3e
       -0.086471304 0.0033213575 -0.061511144 0.15840836
0003d0 d1 9f ab 3d 7b e1 36 be 55 75 b5 3d eb c1 0b 3d
       0.08380092 -0.17859451 0.0886027 0.03412048
0003e0 a3 54 29 be dd bd 41 3e 11 a6 f8 3c 6d 1d 95 3c
       -0.16536193 0.18920083 0.030352624 0.018202508
0003f0 eb ab 6a 3d 82 f2 d9 bd ca d3 39 3d 03 8e b3 3d
       0.05729286 -0.10641958 0.045367993 0.08767321

fc3.bias f4 [64]
000000 76 62 13 bd 11 e5 8a bd 82 3d aa 3d cd 58 05 3d
       -0.03598257 -0.06781972 0.08312513 0.03255539
000010 94 98 09 3d b5 85 ac bd 26 d4 5f 3d bb 7d 2c bd
       0.033592775 -0.0842394 0.05464568 -0.042112093
000020 00 79 22 3d e7 fc 76 3d 92 87 cc ba ef 98 6e bd
       0.039666176 0.06029978 -0.0015604368 -0.058251318
000030 22 17 2f 3b 6e e6 9e 3d a4 6e a1 bd 9d a7 97 bd
       0.002671667 0.07758795 -0.07882431 -0.074050166
000040 d3 00 96 3d bf e5 9f 3d ea da ed bb f9 2f f1 3c
       0.07324376 0.078074925 -0.0072587626 0.02944182
000050 1a 6a 5f bd 24 fd db 3c ac 3c 15 3c c0 2c b7 bd
       -0.054544546 0.026854105 0.009108704 -0.08944082
000060 82 20 9e bc 92 1f f6 bd 74 12 86 bd 7e d6 e8 bd
       -0.01930261 -0.1201774 -0.065464884 -0.11369036
000070 f5 83 d6 bd 84 12 95 bd 34 3c 36 bd 21 ba 38 bc
       -0.104743876 -0.07278922 -0.044491008 -0.011274845
000080 37 8a 69 bd f5 48 da 3d 3d b3 48 3c 6b 94 b1 bc
       -0.057016578 0.10658447 0.012249765 -0.021677217
000090 3f b7 c9 3d 0e 35 f0 bd f1 af 56 3d a2 87 ec 3d
       0.098494045 -0.117288694 0.052413885 0.115493074
0000a0 8c 0a 2f bd 53 f3 42 3d 8e da 2d bd 9e 1b 2d bd
       -0.042734668 0.047595333 -0.042444758 -0.042262666
0000b0 7f 3d df 3d fb a0 e1 bd 68 50 b6 bd df e0 ac 3d
       0.10900401 -0.11017033 -0.08902055 0.08441328
0000c0 45 79 11 3d 27 18 d4 bd c6 eb a0 3c 5e fb ad 3d
       0.035516042 -0.10356169 0.019643676 0.0849521
0000d0 df dd 99 3d 02 0a dc 3d 07 55 5a 3c 8f 4f fc 3d
       0.07513022 0.10744096 0.013325936 0.12319862
0000e0 cc fb 52 bd 7c 20 8c 3d 27 57 c0 bd 18 ed 79 bd
       -0.051509663 0.068421334 -0.09391623 -0.061017126
0000f0 fa 55 b3 3c b7 fa b7 3d 27 26 d0 3c 87 81 94 3d
       0.021891583 0.08983367 0.025408817 0.07251268

fc4.weight f4 [27, 64]
000000 81 fe 3c 3e e8 92 dd 3d 18 87 96 3d 22 c3 b1 3d
       0.1845646 0.10819036 0.07349986 0.08679797
000010 67 c2 1a 3e 48 d1 09 3d 8d 8d d6 3d 09 fc f5 3d
       0.15113221 0.03364685 0.104762174 0.120109625
000020 a8 82 99 bd 18 13 4a bd 84 7a ff 3c b2 79 d8 3d
       -0.07495624 -0.049334615 0.03118635 0.105700865
000030 50 56 24 be 9c 20 48 bd 01 a5 9b 3d 83 a9 a7 3d
       -0.1604855 -0.048859224 0.07599831 0.08186629
000040 1a e8 fd bd b0 92 9e 3d f2 c6 c1 bd b9 84 a2 3d
       -0.123977855 0.07742822 -0.09461774 0.07935471
000050 55 73 10 3e e3 f6 82 bd 1d b2 a7 3d 81 66 08 3d
       0.14106496 -0.06394746 0.08188269 0.03330088
000060 82 2d d3 3c 7d bb 54 be ce 73 2c 3e b5 19 c7 bd
       0.025778536 -0.20774646 0.16841051 -0.097217
000070 fd 92 5d be c4 7a 0e 3e 27 05 fa 3d 84 2c 1f 3d
       -0.21638103 0.13914019 0.12208014 0.038860813
000080 3c aa 6b 3d 1e 0c 73 3e 48 70 4d be 04 00 51 bd
       0.057535395 0.23735091 -0.20062363 -0.051025406
000090 a1 1b e7 3d 33 68 a1 bd 34 c5 64 3c 21 e7 2b be
       0.11284567 -0.078812025 0.0139630325 -0.16787387
0000a0 f0 85 92 3e 30 da 81 3d 95 63 2b be e7 e6 b7 3d
       0.2861781 0.06340444 -0.16737206 0.08979588
0000b0 1f 85 b4 3c 0f 3f 4d 3d 4b 51 a5 3d b4 63 ec 3d
       0.022036133 0.050108965 0.08072146 0.11542454
0000c0 e3 95 90 3d 94 7f 65 3e d9 f0 a1 bd 4f 3d 07 be
       0.070598386 0.22411948 -0.07907266 -0.13206981
0000d0 c0 5e 82 3e 8c d8 a5 be eb 26 32 be c2 ad 81 be
       0.25462914 -0.32391775 -0.17397659 -0.2532788
0000e0 df 5d b6 bd 25 b1 bb 3d a5 fc 05 be 24 6e a0 bd
       -0.08904623 0.09164647 -0.13084657 -0.07833508
0000f0 bd d9 4f 3d 57 53 82 be 92 83 c7 3d b0 f1 8b 3e
       0.05074476 -0.25454208 0.09741892 0.2733283
000100 1c 80 aa b9 d2 1e d4 bd 13 e6 1e 3e 0b a1 cb 3d
       -0.00032520376 -0.10357441 0.15517454 0.09942826
000110 fb 07 a7 bc 15 3f ef bd 13 66 9a bd 8d 5b e8 3d
       -0.020389548 -0.11681954 -0.07539 0.11345587
000120 23 86 51 bc aa 3f 85 bc 1d 5f 71 be a4 2b 91 be
       -0.012788328 -0.016265709 -0.23571439 -0.28353608
000130 e4 e6 6b 3d 49 50 14 be 1b 8d 35 be e0 e4 f3 bc
       0.05759324 -0.14483751 -0.17729609 -0.029772222
000140 62 07 20 3e 4a 0b 1c bd 16 21 0b be 72 34 b5 3d
       0.15627816 -0.038096704 -0.1358684 0.08847894
000150 98 8d 40 3e 40 0f 02 3e 48 cb 24 3e 6c ff 40 be
       0.18804014 0.1270113 0.1609317 -0.18847436
000160 c9 43 91 bb 6a eb 0a 3d 55 5b c6 3d 3b cf f9 3c
       -0.0044331294 0.033915915 0.09685389 0.030494323
000170 35 10 83 bd d7 1e 27 bc b9 4b 28 3e 5e 03 71 3d
       -0.063995756 -0.010200224 0.16435136 0.0588411
000180 d9 c6 df bd 98 c2 67 bd 8e 83 00 be 74 b7 a4 3d
       -0.10926599 -0.056582063 -0.12550184 0.080428034
000190 31 15 b5 3d 29 74 38 3d 80 04 c0 bd 40 bc 41 3e
       0.088419326 0.045032654 -0.09375858 0.18919468
0001a0 df 4b 59 be b0 10 11 3e 57 61 94 3d ec af c3 3d
       -0.21220349 0.14166522 0.072451286 0.09555039
0001b0 db 96 32 bd 8c f8 65 bd a3 74 01 3c 9e 81 eb bd
       -0.0436009 -0.056145236 0.0079013435 -0.11499332
0001c0 51 8b 2b be 6d e8 0c be 03 4a 13 3d d8 3f 94 bd
       -0.16752364 -0.13760538 0.035959255 -0.0723874
0001d0 62 74 06 be 85 d6 c5 bc 1d 84 40 bc 72 49 a3 be
       -0.13130334 -0.024150142 -0.011750248 -0.31891972
0001e0 cf 28 03 3e c3 4d 96 3d a6 e3 a0 3c 59 48 42 be
       0.12808536 0.073390506 0.019639801 -0.18972911
0001f0 98 8a ff bd 66 aa 1d 3e cc 43 ca 3c ea 2c 2e 3e
       -0.124776065 0.15397033 0.024690531 0.17009321
000200 ed 02 ba bd 26 dc d4 3c 85 3e 02 bc a8 27 0c be
       -0.09082589 0.025983881 -0.007949476 -0.13687003
000210 6d 04 9c 3d 46 d6 6e 3d 6e f9 74 3e 60 4d 3c 3b
       0.07618032 0.058309816 0.23923275 0.0028732643
000220 18 74 9d 3b 29 dd 3d be 94 cb ff 3c 21 11 0d 3e
       0.004805099 -0.18541397 0.031225003 0.13776065
000230 4f 67 c2 3d 84 86 9b bd cd 15 f8 bd 1a 7a 01 be
       0.09492361 -0.07594016 -0.12113533 -0.12644234
000240 34 12 30 be 68 46 6c be f0 18 75 3d a4 ff 66 bc
       -0.17194444 -0.23073733 0.059838235 -0.014099035
000250 50 e5 93 be 11 e3 2c bd ec ea cf 3d 5e 0b 20 3c
       -0.2888589 -0.042208735 0.1015223 0.009768335
000260 39 a3 59 3d 6b 15 33 3e 1a b8 1b 3e c5 70 33 3d
       0.053134177 0.17488639 0.15206948 0.043808717
000270 07 35 0c 3e 78 d8 06 3e 65 0e 05 be da 00 fc 3c
       0.13692103 0.13168514 -0.12993772 0.030762125
000280 f0 1b 47 3e 06 be be 3d 6d c7 6d be 75 14 fe bd
       0.19444251 0.09313588 -0.23220606 -0.124062456
000290 b1 06 f8 bd a5 2a 67 3d e8 cd e9 bc 76 c4 45 be
       -0.12110651 0.056437153 -0.028540567 -0.19313225
0002a0 7a 5b 1b be e0 0b 82 3e 23 13 cd bd 2a 64 5c be
       -0.15171614 0.25399685 -0.10013416 -0.21522585
0002b0 a4 67 13 bd df ca 36 3e 22 37 00 3e 19 9d 72 3d
       -0.03598751 0.17850827 0.12521031 0.05923185
0002c0 bc 2a 08 3e 6b a1 d0 bc a6 a9 3a be 75 1d dc bd
       0.13297552 -0.025467595 -0.18228778 -0.10747806
0002d0 e0 df 2b 3e 33 3a 8c be 9a 29 49 3e d1 47 2b 3d
       0.1678462 -0.27388152 0.19644776 0.041816536
0002e0 db 51 02 3e e0 aa 03 be f2 73 7d 3c 06 bd 9d bc
       0.12726538 -0.12858152 0.015469538 -0.019255172
0002f0 bb 9e 55 3e 97 fd 5c 3d d2 3d a2 3d 49 33 cb 3d
       0.20861332 0.05395278 0.079219475 0.09921891
000300 68 58 dc 3d 3d 6c 1f 3d d0 e0 b8 bd 86 96 88 bd
       0.1075905 0.038921583 -0.090272546 -0.06669335
000310 32 39 48 bd 65 a6 87 bb 61 f9 04 be 1d fa 61 be
       -0.04888267 -0.004139709 -0.12985756 -0.22068067
000320 2d ca 33 3e 0c f2 60 3e d9 0d 5c 3c b1 c6 de 3c
       0.17557593 0.21967334 0.013431036 0.027194353
000330 3e e6 15 be 1c 1b 8a be 3f d0 be bc 29 ed 0e 3e
       -0.14638612 -0.26973808 -0.023292659 0.13957657
000340 aa a9 8c 3d c8 0d 1c bd d3 16 20 bd 4d 49 86 3e
       0.06868298 -0.03809908 -0.039084267 0.262278
000350 f4 2a bd bc a6 3b 73 3d 1c d6 91 bd 83 c7 5c 3e
       -0.02309177 0.059383057 -0.07120916 0.21560483
000360 3f ee a6 bc 25 7a bd be 95 7c 30 be 03 92 94 bc
       -0.020377276 -0.3700725 -0.17235024 -0.01813603
000370 11 1d 88 3d 33 87 25 bb 48 c3 34 3e bf bb 38 bd
       0.06646169 -0.0025257587 0.17652619 -0.045100924
000380 d2 3d 81 bc a1 cb 97 3d 17 b3 c5 bb dd 81 5e 3e
       -0.015776549 0.07411886 -0.006033312 0.21729226
000390 eb 0d af bc 03 9c 17 3e 92 ab c3 bd 21 82 19 3d
       -0.021368941 0.14805607 -0.09554209 0.037477616
0003a0 40 ef 17 3e 02 c0 fe 3d e9 b9 72 3d 74 5c e0 3c
       0.1483736 0.12438966 0.05925933 0.027387835
0003b0 68 ea 21 bd 27 3b 42 3d 5d ec f1 bd 76 0f a3 3b
       -0.039530188 0.047419693 -0.11812661 0.0049762083
0003c0 8d 4b e2 bc e7 ed 8a bd 39 d2 d6 bc ba 04 4a 3b
       -0.027623916 -0.067836575 -0.026223289 0.003082557
0003d0 ff 57 34 bd d0 77 49 3d 5f bd bb bd 4a 05 33 3e
       -0.044029232 0.049186528 -0.09166979 0.17482486
0003e0 68 08 a7 be 56 e6 31 be 96 9a 39 3e 6a ca 0f 3d
       -0.326236 -0.17373022 0.18125376 0.035105146
0003f0 08 70 48 3d 94 69 6d 3d ff 48 e9 bc 19 f4 74 bd
       0.048934966 0.057962015 -0.02847719 -0.059803102

fc4.bias f4 [27]
000000 9c 5f 80 3c db 46 89 bd d8 dc 74 3d ed a3 ef bd
       0.01567059 -0.06702968 0.059780926 -0.11701188
000010 2c 60 b9 bd 1a 6e 3a bc a0 f5 08 3e b7 86 0b 3d
       -0.090515465 -0.011378789 0.13374949 0.03406402
000020 60 6b 2e 3d 46 11 ce 3d f1 03 4c bd 6c 56 c2 3d
       0.04258287 0.100618884 -0.049808446 0.0948914
000030 15 76 d2 3d 2a 3e f6 bc d4 c4 14 3d 60 aa 88 3d
       0.102764286 -0.030058939 0.036320522 0.066731215
000040 bd e9 b1 3d 07 06 10 be f3 bd 70 bc 0d 0d 19 bd
       0.0868716 -0.14064799 -0.014693725 -0.03736596
000050 51 07 63 3d 46 56 48 3d 17 54 d0 bc cb d6 e0 3c
       0.0554269 0.0489104 -0.025430722 0.027446171
000060 5d bf 64 3d 1d dd b9 3d 16 11 01 bd
       0.05584656 0.09075377 -0.031510435
