src/trained_models/model_200_144.pt (torch_old, 78702 bytes, 8 tensors)

fc1.weight f4 [64, 144]
0	0xbc9ce7dc	-0.019153528
1	0xbd304bc3	-0.043041002
2	0x3d8af445	0.06784872
3	0x3a9000f8	0.0010986617
4	0xbbf48cfc	-0.0074630957
5	0x3d1d3640	0.038381815
6	0xbd81f698	-0.06345862
7	0x3d6baaf0	0.057536066
8	0x3d0aaf35	0.033858497
9	0xb936abb6	-0.0001742084
10	0x3c242800	0.010019302
11	0x3d9f2cb0	0.07772195
12	0xbcc5bcbc	-0.024137847
13	0xbb33f5b7	-0.002745969
14	0xbcdb86fa	-0.02679776
15	0x3d37bc72	0.04485745
16	0x3dd591bd	0.10428188
17	0x3bfa8698	0.0076454394
18	0xbbf2cf8a	-0.0074099945
19	0x3dc46eed	0.0959147
20	0xbca5c05a	-0.020233322
21	0x3dc9897b	0.098406754
22	0xbcd31c4e	-0.025770333
23	0x3d726412	0.059177466
24	0xbcf76332	-0.030198667
25	0x3db3ec2d	0.08785281
26	0x3da454af	0.080239646
27	0x3d9e77d0	0.07737696
28	0xbca855e2	-0.020548765
29	0xbcd94341	-0.026521327
30	0x3d5eb48f	0.054371413
31	0xbd49fd70	-0.049313962
32	0x3c875452	0.0165197
33	0xbdab7b85	-0.08373169
34	0x3d69a72a	0.057044186
35	0x3d583066	0.05278053
36	0xbb206e58	-0.0024479833
37	0xbce321cd	-0.027726078
38	0x3ad6cafd	0.00163874
39	0xbbacc476	-0.0052724434
40	0x3dda60b8	0.10662979
41	0x3da2d26d	0.07950292
42	0x3c9e8840	0.019352078
43	0x3d6ae557	0.05734762
44	0x3d0a8e78	0.033827275
45	0x3d7ee174	0.062226728
46	0xbd6b730f	-0.057482775
47	0xbcd338cd	-0.02578392
48	0x3d82a56c	0.06379208
49	0x3d865652	0.06559433
50	0xbd373646	-0.044729494
51	0xbd499bf4	-0.049220994
52	0x3cbb35e5	0.022852847
53	0x3d63201c	0.055450544
54	0x3c6dcb53	0.014513808
55	0xbd5ebad6	-0.0543774
56	0x3d1e0da7	0.03858724
57	0x3db3b4ca	0.08774717
58	0x3dd49ee3	0.10381868
59	0x3d8c6bbf	0.068564884
60	0xbcbac9d6	-0.022801321
61	0xba1a769c	-0.0005892308
62	0x3d988b0a	0.074483946
63	0xbcb32026	-0.021865916
64	0xbd2ca400	-0.04214859
65	0xbd8183ba	-0.06323953
66	0xbd218e5a	-0.039442398
67	0x3d286012	0.041107245
68	0x3da8b30f	0.08237278
69	0x3c2518cc	0.010076713
70	0x3a2487a9	0.00062763185
71	0xbbecee5b	-0.0072305626
72	0xbc67d3b9	-0.0141496
73	0x3da1b894	0.078965336
74	0xbd812ccb	-0.06307372
75	0xbda048b4	-0.07826367
76	0x3d1d4b3d	0.03840183
77	0x3d310f51	0.043227497
78	0x3dab8eb9	0.083768316
79	0xbca8875b	-0.020572355
80	0xbd8f127b	-0.06985947
81	0xbdc8f77b	-0.09812828
82	0xbcd16343	-0.025560027
83	0x3d413b84	0.0471759
84	0xbd85c8eb	-0.06532463
85	0x3c68b728	0.014203824
86	0xbd572f24	-0.05253519
87	0xbc85eb67	-0.0163476
88	0x3d3aefcf	0.045638856
89	0xbd8cfad4	-0.06883779
90	0xbd86e156	-0.06585948
91	0xbd1ff3f3	-0.039051007
92	0x3dbccf60	0.09219241
93	0x3cd56d92	0.026053224
94	0x3c9b97ea	0.018993337
95	0x3d5de960	0.054177642
96	0xbd4370f5	-0.047715146
97	0x3cfbbc61	0.030729474
98	0xbc28f743	-0.010312858
99	0x3da8f0ad	0.0824903
100	0x3cfb7883	0.030697113
101	0xbdbcf927	-0.092272095
102	0x3c58399c	0.013197329
103	0xbd124e80	-0.035719395
104	0xbc739430	-0.014866874
105	0x3d963545	0.07334379
106	0xbc236172	-0.009971963
107	0x3db3e55c	0.08783981
108	0x3d4c322c	0.049852535
109	0xbcd7aefd	-0.026328558
110	0x3b4d46ed	0.0031322793
111	0x3ce52804	0.027973182
112	0xbd759104	-0.05995275
113	0x3d70a383	0.058749687
114	0xbca51dd7	-0.02015583
115	0xbdb50197	-0.08838194
116	0x3cad4a7d	0.021153683
117	0xbd384a45	-0.044992704
118	0x3cf1a225	0.029496262
119	0xbd8e529f	-0.069493525
120	0x3ce4455b	0.027865103
121	0xbc15c4db	-0.009141172
122	0xbd75e53c	-0.060033068
123	0x3c6aff6a	0.014343122
124	0xbcb4949e	-0.022043522
125	0xbd1c912b	-0.03822438
126	0x3cd2f08e	0.025749471
127	0x3d936979	0.07197852
128	0x3c8570cc	0.016289137
129	0x3c329387	0.010899431
130	0x3d9baa4f	0.07600843
131	0x3d2face3	0.042889487
132	0xbd4ddbc3	-0.05025841
133	0xbdbd0f7a	-0.092314675
134	0x3d3343b4	0.04376574
135	0x3d01bb88	0.031672984
136	0x3d0769ea	0.033059992
137	0xbd35619a	-0.044282533
138	0x3cfc81b6	0.03082357
139	0xbc3f39b2	-0.0116714705
140	0x3b900485	0.00439507
141	0xbcd0b963	-0.025479024
142	0xbdccbe11	-0.0999719
143	0xbdf8d62d	-0.12150226
144	0x3c7e86b4	0.015535045
145	0xbce57f95	-0.028014937
146	0xbd906b47	-0.070517115
147	0xbd77ab96	-0.06046637
148	0xbdb11cd4	-0.08648077
149	0x3d8eeeab	0.06979116
150	0x3d6561cc	0.05600147
151	0x3d2627c3	0.040565263
152	0xbd3aa529	-0.045567665
153	0xbd7f2a73	-0.062296342
154	0xbd4d7e1d	-0.0501691
155	0xbd3fc43f	-0.046818014
156	0x3d1fc1f6	0.039003335
157	0x3c0bd0ee	0.008533699
158	0xbd1f8680	-0.03894663
159	0xbcb92080	-0.022598505
160	0x3dc0cf74	0.094145685
161	0x3d8ea6fb	0.06965443
162	0xbd71303e	-0.058883898
163	0xbd89f0e1	-0.06735397
164	0xbd5188ee	-0.051155977
165	0x3d6b1bad	0.05739944
166	0x3d0fe86d	0.035133768
167	0x3cb27686	0.021785032
168	0xbd4c48f0	-0.049874246
169	0xbd527e16	-0.051389776
170	0xbcb8fa81	-0.022580387
171	0x3da3a48a	0.07990368
172	0x3c9c9762	0.019115154
173	0x3d98db58	0.074637115
174	0x3d60eddf	0.05491435
175	0xbc8f12b2	-0.01746497
176	0xbdaefd16	-0.08544366
177	0x3d8cf82f	0.06883275
178	0x3d78546f	0.060627397
179	0xbb740772	-0.0037235883
180	0x3c3b7335	0.011441042
181	0x3d5037a1	0.0508343
182	0xbdbf8fd3	-0.09353604
183	0xbd11ade0	-0.03556621
184	0x3ba6b9f8	0.005088087
185	0xbab9009d	-0.0014114563
186	0xbb557700	-0.003257215
187	0x3d495a5b	0.049158435
188	0xbca8dd26	-0.020613264
189	0x3d41842d	0.047245193
190	0xbd39681f	-0.045265313
191	0xbcc9e6bf	-0.024646161
192	0xbd58e759	-0.052955005
193	0xbd43ccc7	-0.047802713
194	0x3da28f52	0.079374924
195	0x3c64fb8c	0.013975989
196	0x3dc4f6b5	0.09617368
197	0x3d267452	0.040638275
198	0x3d052418	0.032505125
199	0x3d9670ad	0.0734571
200	0x3cb0c606	0.0215788
201	0x3d6281aa	0.05529944
202	0x3d3afb3e	0.04564976
203	0x3d5ff59e	0.0546776
204	0xbda5b18f	-0.08090507
205	0x3c9a4652	0.01883236
206	0x3b18beb8	0.0023307037
207	0x3c5469c2	0.012964668
208	0x3d0bc2cb	0.034121316
209	0xbcc672ca	-0.024224658
210	0x3cc7eb9e	0.024404343
211	0xbd93fa6d	-0.07225499
212	0xbd0b7035	-0.034042556
213	0xbc18719a	-0.0093044285
214	0x3d35ce04	0.044385925
215	0xbdb1191f	-0.086473696
216	0xbd74b8ff	-0.05974674
217	0xbd8ed5d6	-0.0697438
218	0x3d932b57	0.07186001
219	0xbcdbf108	-0.026848331
220	0xbda8a090	-0.0823375
221	0x3caafd53	0.020872748
222	0xbca33a3d	-0.019925231
223	0x3d79bb5f	0.060969707
224	0xbcc10b57	-0.023564978
225	0xbd44fff7	-0.04809567
226	0xbd301ac3	-0.042994272
227	0xbd68057a	-0.056645848
228	0x3d7fa048	0.062408715
229	0xbd7142fd	-0.058901776
230	0x3d56b063	0.05241431
231	0x3cae1258	0.021248981
232	0x3a33d75a	0.0006860398
233	0xbcbe9b0f	-0.023267297
234	0x3bacd63a	0.0052745612
235	0xbbc66c14	-0.0060553644
236	0xbd354d68	-0.044263273
237	0xbc857d88	-0.01629521
238	0x3d430bc5	0.047618646
239	0x3d9f48c8	0.07777554
240	0x3d8ab84d	0.06773434
241	0xbdcc17a3	-0.09965446
242	0x3d2a538a	0.041583575
243	0x3cb8000b	0.022460958
244	0x3d868e16	0.065700695
245	0xbd3ad1bf	-0.045610186
246	0xbccf9256	-0.025338333
247	0x3dd24a2a	0.10268052
248	0xbc3bac05	-0.011454587
249	0x3c52057d	0.012818691
250	0x3cc8923e	0.024483796
251	0xbd9d1ccf	-0.076715104
252	0x3d2ddef7	0.042448964
253	0xbd834fb3	-0.06411686
254	0xbd6dd9f9	-0.058069203
255	0xbd25f378	-0.040515393

fc1.bias f4 [64]
0	0x3ccddf85	0.025130996
1	0x3d81411b	0.06311246
2	0x3cd299cd	0.025708104
3	0x3c79a15b	0.015236224
4	0xbd0a046b	-0.03369562
5	0x3ca570c5	0.020195374
6	0xbda1cb5a	-0.07900114
7	0x3d493728	0.049124867
8	0xbc573839	-0.013135963
9	0x3d70d62b	0.058797996
10	0x3da84a53	0.08217301
11	0xbd7b7ea2	-0.061400063
12	0xbda3af92	-0.07992472
13	0xbd48cee8	-0.049025446
14	0x3d948820	0.07252526
15	0xbd4a3f31	-0.04937667
16	0x3d8f53c1	0.06998397
17	0x3d8c4501	0.06849099
18	0x3d992daf	0.074794166
19	0xbd94c9d8	-0.07265061
20	0xbc5ab179	-0.013347977
21	0xbb41c9ba	-0.0029569701
22	0x3d71aaa6	0.059000634
23	0xbd786102	-0.06063939
24	0x3d8ea8ab	0.069657646
25	0x3d37985d	0.04482304
26	0xbda7496a	-0.081682995
27	0x3d609adb	0.05483518
28	0xbda0f26c	-0.07858738
29	0xbd953a07	-0.072864585
30	0x3d880857	0.06642216
31	0xbd8bb4ed	-0.06821618
32	0x3da188cb	0.07887419
33	0xbbee0399	-0.0072636125
34	0x3d5ea593	0.054357123
35	0xbd79df2a	-0.06100384
36	0xbd7aaba4	-0.061198846
37	0xbc9e9c8d	-0.019361759
38	0xbda4fd6b	-0.08056148
39	0xbcb6fe28	-0.022337988
40	0xbc361468	-0.011113264
41	0xbcbdd880	-0.023174524
42	0x3bc967e7	0.0061464193
43	0xbd6dfdf5	-0.05810352
44	0x3d98711a	0.074434474
45	0x3d8ec555	0.06971232
46	0xbd4bd95d	-0.04976784
47	0xbd958138	-0.07300037
48	0xbd82029c	-0.06348154
49	0x3d19faf2	0.037592836
50	0x3aaa7a80	0.0013006479
51	0xbda30def	-0.07961642
52	0xbb15d0b5	-0.0022859995
53	0x3d283741	0.04106832
54	0xbcb57293	-0.02214936
55	0x3d4cef37	0.05003282
56	0xbc9f65f0	-0.019457787
57	0xbd8118b6	-0.06303541
58	0xbd17516e	-0.03694289
59	0x3d3dd84b	0.04634885
60	0xbd73274c	-0.05936365
61	0x3da977f9	0.08274836
62	0xbd1d8896	-0.038460337
63	0xb96a4453	-0.00022341432

fc2.weight f4 [64, 64]
0	0x3d4968ba	0.04917214
1	0xbc9bd359	-0.019021677
2	0xbddf5356	-0.10904567
3	0x3d290158	0.041261047
4	0x3dfb362f	0.12266194
5	0xbd8388d3	-0.064225815
6	0x3b0e8326	0.002174565
7	0xbc8408af	-0.016117422
8	0x3e0fe949	0.14053835
9	0x3d606b6a	0.054789938
10	0x3db61a4c	0.088917345
11	0xbd5290dc	-0.05140768
12	0xbd46f8fd	-0.048577297
13	0x3d0d4392	0.03448827
14	0xbdebec53	-0.11519685
15	0xbd1f2714	-0.038855627
16	0x3d16062d	0.036626983
17	0x3d501418	0.050800413
18	0xbdc5f9bd	-0.096667744
19	0x3d94e21e	0.07269691
20	0xbdaf3f33	-0.08556976
21	0xbda12856	-0.078690216
22	0x3dcd2c8f	0.100182645
23	0x3d437904	0.04772283
24	0xbd9ce08e	-0.07660018
25	0xbdfbe639	-0.12299771
26	0xbd69b62c	-0.0570585
27	0xbdd2fd30	-0.10302198
28	0xbdbc8696	-0.09205358
29	0xbdb89fdd	-0.090148665
30	0x3dfdd5e2	0.123943105
31	0xbded1b4a	-0.115774706
32	0x3d95423d	0.072880246
33	0x3cf8a3aa	0.030351479
34	0xbda57f9f	-0.080809824
35	0xbda6453f	-0.081186764
36	0x3d3ed52f	0.046590026
37	0x3df15f62	0.11785771
38	0x3c4874aa	0.012234846
39	0x3d71ef24	0.059065953
40	0x3dbb0507	0.09131818
41	0x3ca91f5d	0.020644838
42	0xbd8c51c7	-0.06851535
43	0xbdd6940b	-0.10477456
44	0x3db8d382	0.09024717
45	0xbd287b86	-0.041133426
46	0xbda066bd	-0.07832096
47	0xbe085ff4	-0.13317853
48	0xbdabfce1	-0.08397842
49	0xbbe5a33e	-0.0070079854
50	0xbdbea710	-0.093092084
51	0xbd9def4b	-0.07711657
52	0xbc849725	-0.016185353
53	0xbd25f75c	-0.040519103
54	0xbc840643	-0.016116267
55	0x3a2038e5	0.00061119936
56	0x3bfd022e	0.007721207
57	0x3d314414	0.043277815
58	0x3df14e92	0.11782564
59	0x3dcc3165	0.09970359
60	0x3e149605	0.14510353
61	0xbdeda9ca	-0.1160465
62	0xbda7c0e6	-0.08191089
63	0xbdd07aa2	-0.1017964
64	0xbe162f14	-0.14666396
65	0x3b8527fc	0.0040636044
66	0x3db5030e	0.08838473
67	0xbcd06751	-0.02543989
68	0x3da92079	0.08258147
69	0x3d8920b5	0.066956915
70	0x3dd51241	0.10403872
71	0x3d319969	0.043359194
72	0xbd8384cf	-0.064218156
73	0xbd8281c6	-0.063724086
74	0x3cd5d2c0	0.02610147
75	0x3ba2af62	0.004964755
76	0xbe0118d2	-0.12607124
77	0xbc1d7a20	-0.009611636
78	0x3d47c414	0.04877098
79	0xbd396b73	-0.045268487
80	0xbddfa1af	-0.109195106
81	0x3d0c50c1	0.0342567
82	0x3d8a9281	0.06766225
83	0xbe1b09f4	-0.15140516
84	0x3e02ec70	0.12785506
85	0x3cf917f3	0.030406928
86	0xbc2e2e1d	-0.010631111
87	0x3c2fea30	0.010736987
88	0xbcbd8233	-0.023133373
89	0x3ddace53	0.106838845
90	0x3cfebe72	0.03109667
91	0x3db50b00	0.08839989
92	0x3d0d1bb3	0.034450244
93	0x3d37c96f	0.044869836
94	0x3bbdadee	0.0057885563
95	0xbd19642e	-0.037449054
96	0x3df83256	0.12118976
97	0xbd26f173	-0.040757608
98	0xbaac4c07	-0.0013145217
99	0x3deb4cb3	0.114892386
100	0x3d03c21a	0.03216753
101	0x3d2c71c1	0.04210067
102	0xbd0e6a6b	-0.034769457
103	0x3de6712e	0.11252056
104	0xbd2ed821	-0.042686585
105	0xbd495b0b	-0.04915909
106	0x3df0b806	0.1175385
107	0x3db29764	0.08720282
108	0xbd313484	-0.043262973
109	0x3da29db8	0.07940239
110	0xbbc21ac2	-0.0059236
111	0x3cd2b1f2	0.025719617
112	0x3dfe7ed5	0.12426535
113	0xbde25caf	-0.11052834
114	0x3deb0fc7	0.11477619
115	0x3d666e4e	0.05625754
116	0xbde4ca02	-0.111713424
117	0xbd392b6e	-0.045207433
118	0xbdd56cf7	-0.10421174
119	0x3de802df	0.113286726
120	0xbdfe7b17	-0.12425821
121	0x3b549cba	0.003244205
122	0xbc052680	-0.008126855
123	0xbd04028f	-0.032229003
124	0x3c33a441	0.010964454
125	0xbbb20dc8	-0.0054337718
126	0x3cafcc04	0.021459587
127	0xbdb9a0b3	-0.09063854
128	0xbdb2433d	-0.08704231
129	0x3dc6c396	0.09705274
130	0xbda63a5e	-0.081166014
131	0x3abfe78a	0.0014641148
132	0x3dbc3339	0.091894574
133	0xbd6d6466	-0.057957076
134	0x3c62da4d	0.013845992
135	0xbde2c2fc	-0.110723466
136	0xbdff515c	-0.1246669
137	0x3e00adc8	0.12566292
138	0xbda1b030	-0.07894933
139	0xbd2d57ab	-0.042319935
140	0xbc871121	-0.01648766
141	0xbd5472f1	-0.05186743
142	0xb993037e	-0.00028040627
143	0xbd65c067	-0.056091692
144	0xbd7f9575	-0.062398393
145	0xbd2512fa	-0.0403013
146	0x3db6a051	0.08917297
147	0xbd64a7bc	-0.055824026
148	0x3dea7735	0.11448518
149	0x3dc8a5d6	0.09797256
150	0x3cb89ee3	0.0225367
151	0x3dfed9ef	0.12443911
152	0xbdc97c53	-0.09838166
153	0xbddcd05f	-0.10781931
154	0x3bf938c0	0.007605642
155	0x3dc4c081	0.0960703
156	0xbdfbfae3	-0.12303712
157	0xbdc5c203	-0.096561454
158	0x3d892d19	0.06698055
159	0xbce4b5dd	-0.02791875
160	0xbd782fa6	-0.060592316
161	0x3d2f9627	0.042867806
162	0x3def787d	0.11692903
163	0xbddfb6b2	-0.10923518
164	0x3dfad206	0.1224709
165	0xbcb0eacf	-0.02159634
166	0x3d19a3c8	0.03750971
167	0xbd013c86	-0.03155186
168	0x3d98866c	0.07447514
169	0x3dcb4715	0.09925667
170	0x3d9af2c1	0.07565833
171	0x3df3d94d	0.11906681
172	0x3dcfb817	0.10142534
173	0x3dfb78b4	0.12278882
174	0xbdadfe15	-0.08495728
175	0xbc914229	-0.017731743
176	0xbd9c4f96	-0.07632367
177	0x3df65a86	0.12028985
178	0x3d3780d6	0.044800602
179	0xbd50b741	-0.050956015
180	0xbdef4c24	-0.116844445
181	0x3cbfcfd5	0.023414532
182	0x3c5f9cfa	0.013648266
183	0xbdec1f0d	-0.1152936
184	0xbd30f657	-0.043203678
185	0x3db66619	0.08906192
186	0xbc8e93c4	-0.017404445
187	0xbdb98d48	-0.090601504
188	0x3da58410	0.080818295
189	0xbca20e85	-0.019782314
190	0xbdba3bd4	-0.090934426
191	0xbcea942e	-0.02863511
192	0x3d7caf68	0.061690718
193	0x3db7f101	0.08981515
194	0x3c583571	0.013196335
195	0x3dbf93cf	0.09354364
196	0xbdd3297b	-0.10310646
197	0xbdfb313c	-0.1226525
198	0x3cdd7079	0.02703117
199	0xbe0620df	-0.13098477
200	0x3dcdf540	0.10056543
201	0x3ce5f622	0.028071467
202	0x3dd821e4	0.10553339
203	0xbd887f7d	-0.066649415
204	0xbc9cc1b0	-0.019135326
205	0x3d908a18	0.07057589
206	0x3d6638cf	0.05620652
207	0x3e061c58	0.1309675
208	0xbd86a2c6	-0.06574015
209	0x3d0bc2d1	0.03412134
210	0xbd955624	-0.07291821
211	0xbe07c8ea	-0.13260236
212	0x3d316231	0.043306533
213	0x3cfca28b	0.030839225
214	0x3dce4e13	0.10073485
215	0xbd09c12a	-0.03363148
216	0x3db9b1d8	0.09067124
217	0xbdbffc7a	-0.09374328
218	0xbdf924cc	-0.121652216
219	0x3b26f788	0.002547713
220	0xbd535b5d	-0.051600803
221	0xbd7ba690	-0.061438143
222	0xbbfccce6	-0.0077148555
223	0x3ca8fcc9	0.02062835
224	0x3dfdc894	0.12391773
225	0x3ca83141	0.020531299
226	0xbd4b4553	-0.04962666
227	0x3dc86ad9	0.097860046
228	0x3e064490	0.13112092
229	0xbbe2e390	-0.0069241
230	0x3e1a9603	0.15096287
231	0xbdc674ac	-0.09690222
232	0xbd990920	-0.074724436
233	0xbd88d70a	-0.066816404
234	0x3d0a56eb	0.033774298
235	0xbdce91da	-0.10086413
236	0x3dc75aa2	0.09734084
237	0xbdbe904d	-0.09304867
238	0x3e264bda	0.16239873
239	0xbdd5f6ef	-0.104474895
240	0x3ca2ace0	0.019857824
241	0x3c5822aa	0.013191858
242	0xbda6d9bf	-0.081470005
243	0x3d89ff46	0.06738143
244	0xbe173144	-0.14764887
245	0x3d32e01a	0.04367075
246	0xbd05d984	-0.032678142
247	0x3d7f217e	0.0622878
248	0xbdda867f	-0.10670184
249	0xbd26f708	-0.04076293
250	0xbdb1e895	-0.086869396
251	0x3db089bc	0.08620021
252	0x3c0aa472	0.008462058
253	0xbd015dd4	-0.031583622
254	0x3d8f4594	0.06995693
255	0x3d954cd5	0.07290045

fc2.bias f4 [64]
0	0xbd247b86	-0.040156864
1	0xbdb167e9	-0.086623974
2	0x3df46ed7	0.119352035
3	0xbc5492ff	-0.0129745
4	0x3d9ab8c1	0.0755477
5	0x3d0fb569	0.035085116
6	0x3d8157a8	0.06315547
7	0xbde9f48f	-0.11423599
8	0x3dc6950b	0.096963964
9	0xbc19f315	-0.009396334
10	0xbde2beeb	-0.11071571
11	0xbdd72d93	-0.105067395
12	0xbd45bda8	-0.048276573
13	0xbd95ee36	-0.07320826
14	0xbdef9270	-0.116978526
15	0xbc299817	-0.010351202
16	0x3df4fa83	0.11961844
17	0x3d296c9a	0.041363336
18	0xbca31824	-0.019908972
19	0xbc1a94c1	-0.00943488
20	0xbdbe9a80	-0.09306812
21	0xbdf31858	-0.118698776
22	0x3db5d532	0.088785544
23	0xbd46af69	-0.048507128
24	0xbd8b2cd6	-0.06795661
25	0x3ba36f7b	0.0049876547
26	0xbd15c038	-0.036560267
27	0xbe00c1fa	-0.12573996
28	0xba3026e8	-0.00067196647
29	0xbdecfc61	-0.11571575
30	0x3d85bae7	0.065297894
31	0x3db5974e	0.0886675
32	0x3d16f5c6	0.03685548
33	0x3bebc98b	0.0071956567
34	0x3cb726ab	0.022357306
35	0x3c017910	0.007902399
36	0x3decb37f	0.11557674
37	0x3c2b45bc	0.010453638
38	0xbd3a5efc	-0.04550074
39	0xbdf9c96c	-0.12196621
40	0xbdb6d51a	-0.08927365
41	0xbd97d69e	-0.07413982
42	0xbda000d5	-0.07812659
43	0xbca95663	-0.020671075
44	0x3d9a5aae	0.07536827
45	0x3dd40600	0.10352707
46	0xbdf8e06d	-0.12152181
47	0x3d970dd4	0.073756844
48	0xbc6aef16	-0.014339229
49	0x3da2a028	0.07940704
50	0xbdc1b890	-0.09459031
51	0x3d97b01b	0.07406636
52	0xbcb01a85	-0.02149702
53	0xbd429b8b	-0.04751162
54	0x3c230f60	0.009952396
55	0xbd8435e6	-0.06455593
56	0x3de6689f	0.11250424
57	0x3ddc4519	0.10755367
58	0xbda1892b	-0.07887491
59	0xbd81ee7c	-0.063443154
60	0xbd96a1d3	-0.07355084
61	0x3d2233ca	0.03960017
62	0xbcc59092	-0.024116788
63	0xbdc4dbee	-0.09612261

fc3.weight f4 [64, 64]
0	0xbd1f72ed	-0.03892796
1	0xbc46dad1	-0.012137131
2	0x3d04dd44	0.032437578
3	0xbdd8eb5c	-0.10591766
4	0xbc8a9a48	-0.01691927
5	0x3d970d76	0.07375614
6	0xbdae3abb	-0.08507296
7	0xbc12194d	-0.008917165
8	0x3c564cd5	0.013079842
9	0x3ca2fa73	0.019894814
10	0x3d05c567	0.03265896
11	0xbdf2bee4	-0.11852816
12	0xbdb132dd	-0.086522795
13	0xbcee15a8	-0.02906306
14	0xbd8bedf1	-0.06832493
15	0xbd4ab4ec	-0.049488947
16	0x3d4ef807	0.050529506
17	0x3bcd297c	0.006261049
18	0xbcd8b28a	-0.026452322
19	0xbd499814	-0.0492173
20	0x3cce3dec	0.025176011
21	0xbd880124	-0.066408426
22	0xbda7981f	-0.08183312
23	0xbd405a40	-0.04696107
24	0xbded1f23	-0.115782045
25	0x3a73dc22	0.00093025167
26	0x3dd6433c	0.10462043
27	0xbdceeda6	-0.101039216
28	0x3cbf6c0b	0.023366949
29	0x3d0942d3	0.033510994
30	0x3c83e3a0	0.016099751
31	0xbce5123a	-0.027962793
32	0xbdbd0366	-0.09229164
33	0xba45e8dd	-0.0007549653
34	0xbd15d3bc	-0.03657888
35	0xbd9123ea	-0.07086928
36	0x3d85e276	0.065373346
37	0x3dae4505	0.08509258
38	0xbdc58588	-0.0964461
39	0x3dcc6d06	0.09981732
40	0x3d2e0ce3	0.04249276
41	0xbd0b619b	-0.03402863
42	0x3d89901f	0.06716942
43	0xbd088b39	-0.033335898
44	0xbdc88318	-0.09790629
45	0x3d87da55	0.066334404
46	0xbdc16b4f	-0.094442956
47	0x3d906a43	0.07051518
48	0xbdf482eb	-0.11939033
49	0xbdd3b144	-0.10336545
50	0x3dce6163	0.10077169
51	0xbda1e23e	-0.079044804
52	0x3d026814	0.031837538
53	0xba9dc210	-0.0012035985
54	0xbc873240	-0.016503453
55	0x3daf1122	0.0854819
56	0x3c9fa4fe	0.019487854
57	0x3d5f22c0	0.0544765
58	0xbda0ef2c	-0.078581184
59	0xbdddc2ca	-0.10828169
60	0x3deced3f	0.115686886
61	0xbaa27463	-0.0012394305
62	0xbd4632fc	-0.048388466
63	0x3db7e642	0.08979465
64	0xbcde3d92	-0.027128968
65	0x3da9e0e3	0.08294847
66	0x3c2d9bc3	0.0105962185
67	0xbddfddf5	-0.10931007
68	0xbdccc162	-0.09997822
69	0x3df33d24	0.11876896
70	0x3cd1b7d5	0.025600353
71	0xbd25599e	-0.04036867
72	0x3cea8539	0.028627979
73	0x3dea022b	0.11426195
74	0x3c917249	0.01775469
75	0x3da54655	0.080700554
76	0x3db6442a	0.0889972
77	0x3d9b309e	0.07577632
78	0x3d8a7497	0.06760519
79	0x3d73aeaf	0.059492763
80	0xbd71afb1	-0.059005443
81	0xbcfd4d77	-0.030920727
82	0x3da1757b	0.07883736
83	0xbda89b2d	-0.082327224
84	0xbe051d00	-0.12999344
85	0x3dbf5f22	0.09344317
86	0xbcad137a	-0.021127451
87	0xbde13e1c	-0.109981745
88	0x3b1a4da3	0.002354481
89	0x3dc47c5d	0.09594033
90	0xbdb9c46f	-0.0907067
91	0x3df25643	0.11832859
92	0x3d73e423	0.05954374
93	0xbc22c8c8	-0.009935565
94	0x3d8147f5	0.06312553
95	0x3d4cd890	0.050011218
96	0xbdb0f177	-0.08639806
97	0x3d43dc57	0.047817554
98	0x3cadcbf0	0.021215409
99	0x3d3c77dc	0.046012744
100	0xbd6a2ee5	-0.05717363
101	0xbc9dd7d2	-0.01926795
102	0x3dea5bff	0.11443328
103	0x3d061c2c	0.03274171
104	0xbc3abb04	-0.011397127
105	0x3ce1ef19	0.027579831
106	0xbbf6d86c	-0.0075331237
107	0x3da07bbc	0.078361005
108	0x3d8bf4d3	0.06833806
109	0xbc760852	-0.015016632
110	0xbdd6e510	-0.10492909
111	0x3da70623	0.08155467
112	0xbd81eb87	-0.063437514
113	0x3d034f66	0.032058142
114	0x3d7c97e8	0.061668307
115	0x3dfe3524	0.124124795
116	0xbd18b868	-0.03728524
117	0x3c880ec3	0.016608601
118	0xbd165e57	-0.036711063
119	0x3d99ec6e	0.075157985
120	0xbce3dc7b	-0.027815094
121	0x3cb40553	0.021975195
122	0x3e18f3e2	0.14936784
123	0xbd7abe39	-0.061216567
124	0xbdffae0e	-0.1248437
125	0xbdda4184	-0.10657027
126	0x3c82ba4f	0.01595798
127	0xbe0770f2	-0.13226679
128	0xbe07822c	-0.1323325
129	0xbd9735ef	-0.07383334
130	0x3d91d2b7	0.07120269
131	0x3c81f440	0.015863538
132	0xbdd3633a	-0.1032166
133	0xbde5f7f5	-0.11228935
134	0x3ccfe58e	0.025378015
135	0x3cda5d54	0.02665583
136	0x3dfc25be	0.12311886
137	0xbd4b6e63	-0.04966582
138	0x3d2deac9	0.042460237
139	0x3d8ff401	0.07028962
140	0x3db2c33c	0.08728644
141	0x3d45c5d8	0.04828438
142	0xbd7b734d	-0.061389256
143	0xbddb6e08	-0.10714346
144	0xbcc9272a	-0.024554808
145	0x3d5f8867	0.054573443
146	0xbb9f2f4a	-0.004857932
147	0x3ce60a7f	0.028081177
148	0x3d19ee11	0.037580553
149	0xbd93593c	-0.071947545
150	0x3b1142d6	0.0022165081
151	0xbddba4c1	-0.10724784
152	0xbda83716	-0.08213632
153	0x3da6e555	0.0814921
154	0x3d965aa9	0.07341511
155	0x3af17791	0.0018422474
156	0xbd9a0326	-0.07520132
157	0x3cd92b7a	0.026509989
158	0x3ddba916	0.1072561
159	0xbb6d3d1c	-0.0036199754
160	0xbc123387	-0.008923418
161	0x3ce8f097	0.028435035
162	0xbdadbfc7	-0.08483844
163	0x3daba540	0.08381128
164	0x3db2c713	0.08729377
165	0x3db2e0aa	0.087342575
166	0x3cf1f5f9	0.029536234
167	0x3d84db63	0.06487157
168	0xbdf6dc78	-0.1205377
169	0xbdababe1	-0.08382393
170	0x3dfea9b8	0.12434715
171	0x3dae8ace	0.08522569
172	0x3c966edc	0.018363409
173	0xbdbc94f8	-0.09208101
174	0xbceabec8	-0.028655425
175	0x3d3257b7	0.043540683
176	0x3ddeaf6e	0.10873304
177	0x3dd68a00	0.1047554
178	0xbdef5184	-0.1168547
179	0xbd639c54	-0.055569008
180	0x3df8126f	0.12112891
181	0xbdf0b549	-0.117533274
182	0xbd85dbfb	-0.065360986
183	0xbdfda368	-0.12384683
184	0xbd394e81	-0.045240883
185	0xbdd1e97f	-0.10249614
186	0x3d923b01	0.0714016
187	0x3df7dbba	0.121024564
188	0xbdba34c5	-0.09092096
189	0x3d778df7	0.060438123
190	0x3df01392	0.11722483
191	0xbcffa82a	-0.031208117
192	0x3ddc17eb	0.107467495
193	0xbdc596e1	-0.096479185
194	0x3da74975	0.08168308
195	0x3b0ba034	0.0021305205
196	0x3de4f766	0.1118
197	0x3db6d21d	0.08926795
198	0x3d5890e5	0.052872557
199	0x3d976c09	0.07393653
200	0x3dfeb66f	0.1243714
201	0x3de75224	0.11294964
202	0xbe07201d	-0.13195844
203	0xbddb4d30	-0.10708082
204	0xbd04596b	-0.032311838
205	0x3daa2a1e	0.083088145
206	0xbdbf7a49	-0.09349496
207	0xbcff87fc	-0.031192772
208	0xbe08524a	-0.13312641
209	0xbdd1a020	-0.102356195
210	0xbd357d24	-0.044308797
211	0xb940fafa	-0.00018404043
212	0xbd48d979	-0.049035523
213	0x3db36e6b	0.08761295
214	0xbdabbcab	-0.08385595
215	0x3d99afca	0.07504232
216	0x3e0adaee	0.13560078
217	0x3d45cfa2	0.048293717
218	0xbdde16ca	-0.108441904
219	0x3c9ace32	0.01889715
220	0xbde9437b	-0.11389824
221	0xbd00ee98	-0.03147754
222	0xbdab379f	-0.08360218
223	0xbd444d3b	-0.047925215
224	0x3e04b6ca	0.12960353
225	0x3c9842e2	0.01858658
226	0x3d18bdee	0.037290506
227	0x3c46b2d0	0.012127593
228	0xbcf84bb0	-0.030309528
229	0xbd8f70ca	-0.07003935
230	0xbba0f6fa	-0.0049122544
231	0xbd883ec3	-0.06652596
232	0x3ceacb8a	0.028661508
233	0xbd4e780c	-0.050407454
234	0x3d797307	0.060900714
235	0xbd067350	-0.032824814
236	0xbdd73969	-0.10508997
237	0x3e110f67	0.14166032
238	0x3e0d55da	0.13802281
239	0x3d8ce724	0.06880024
240	0x3daa6e4c	0.08321819
241	0x3c90d611	0.0176802
242	0xbcadf9f8	-0.021237358
243	0xbd825200	-0.063632965
244	0x3da6cf7d	0.08145044
245	0xbda7de78	-0.081967294
246	0x3e013951	0.1261952
247	0x3c386776	0.011255136
248	0xbcd0b8cb	-0.025478741
249	0x3dbebf7f	0.09313869
250	0x3cb9c7e1	0.022678318
251	0x3dd0b54c	0.1019083
252	0xbdb911f0	-0.090366244
253	0xbb8b3ce6	-0.004249203
254	0x3dfc2842	0.12312366
255	0x3d6b3b57	0.057429638

fc3.bias f4 [64]
0	0xbd7b962d	-0.061422516
1	0x3df83b55	0.12120692
2	0x3dbb5cf3	0.09148588
3	0xbd48b936	-0.049004756
4	0xbd871334	-0.065954596
5	0xbda764fe	-0.081735596
6	0xbdade04d	-0.084900476
7	0x3d533c84	0.051571384
8	0xbd9c3aae	-0.0762838
9	0x3da05f3a	0.07830663
10	0xbddabbb8	-0.10680336
11	0x3d04fe1c	0.0324689
12	0x3da56905	0.080766715
13	0xbda296aa	-0.07938893
14	0xbcff1f39	-0.031142818
15	0xbd96e6c1	-0.073682316
16	0xbdfb5a29	-0.12273056
17	0xbddc2830	-0.10749853
18	0x3d3a859a	0.04553757
19	0xbc6a7629	-0.014310398
20	0x3da3d58a	0.07999714
21	0xbde2bc81	-0.110711105
22	0xbc630035	-0.01385503
23	0xbc1d93f2	-0.009617792
24	0x3dc61adf	0.09673094
25	0xbdaa96cb	-0.08329543
26	0xbddcde1d	-0.10784552
27	0xbd4f60eb	-0.050629538
28	0xbc9e1cba	-0.019300807
29	0x3ded98c7	0.116014056
30	0xbb77c4cb	-0.0037806507
31	0xbd897892	-0.0671245
32	0x3d2ef3ae	0.04271286
33	0xbd17088f	-0.036873396
34	0xbd88ce81	-0.066800125
35	0xbd1ad596	-0.037801348
36	0xbdf20d55	-0.11818949
37	0x3db049b7	0.0860781
38	0x3d573117	0.05253705
39	0xbd8dc406	-0.06922154
40	0x3de5d62e	0.11222492
41	0x3d8c1059	0.068390556
42	0x3c2cf4e4	0.010556433
43	0xbdf77e51	-0.1208464
44	0xbdf2ba8f	-0.118519895
45	0x3ae1d3f9	0.001722931
46	0xbdd5cdd4	-0.10439649
47	0xbdc8f1d9	-0.09811754
48	0x3da3d3fa	0.07999416
49	0x3d9e68b0	0.07734811
50	0xbd0d6861	-0.03452337
51	0xbdfdd6ca	-0.123944834
52	0xbd23414c	-0.039857194
53	0x3da23310	0.07919896
54	0x3d9e160a	0.07719047
55	0x3daca651	0.0843016
56	0x3cc0a661	0.023516836
57	0x3d99dc0a	0.07512672
58	0x3dbf6a44	0.093464404
59	0xbbb02df7	-0.005376573
60	0x3dd29ed0	0.10284197
61	0xbdb41e00	-0.087947845
62	0x3dd90344	0.10596326
63	0x3d27e9c3	0.040994417

fc4.weight f4 [27, 64]
0	0x3dc05190	0.09390557
1	0xbe0746f6	-0.13210663
2	0x3c9b61b8	0.018967494
3	0x3c988df5	0.018622378
4	0xbd26323c	-0.04057525
5	0xbc050ce3	-0.008120748
6	0xbd9549e0	-0.07289481
7	0xbde1e06f	-0.110291354
8	0x3d5eac5e	0.0543636
9	0x3dc9ad5a	0.09847517
10	0xbd12616d	-0.035737444
11	0xbdb1e022	-0.08685328
12	0x3d2830bf	0.041062113
13	0x3d6c1b0a	0.057642974
14	0x3ba14cee	0.004922501
15	0x3c8a5230	0.016884893
16	0x3dcafe45	0.09911779
17	0xbd7eb507	-0.06218436
18	0x3cd36203	0.025803572
19	0xbdacde81	-0.08440877
20	0xbd86866b	-0.06568607
21	0xbd640fcd	-0.05567913
22	0xbe0ee8da	-0.13956013
23	0xbd7b95b9	-0.061422084
24	0x3da1b85a	0.078964904
25	0xbb6daeaf	-0.003626745
26	0xbcf3e241	-0.029770972
27	0xbd905f08	-0.07049376
28	0x3d4b385a	0.049614288
29	0xbdf9d9f1	-0.12199772
30	0x3c4a872d	0.01236133
31	0x3d36e62d	0.044653106
32	0x3d9bd477	0.07608884
33	0x3d47c66c	0.048773214
34	0xbd4899ae	-0.048974685
35	0x3dda37f3	0.10655203
36	0x3e376d7c	0.17912859
37	0x3dd351f4	0.10318366
38	0x3c8a1405	0.01685525
39	0xbd28f2fe	-0.04124736
40	0x3d9dc1ae	0.07702957
41	0x3d2d0356	0.04223951
42	0xbd4051ee	-0.046953134
43	0xbc9efa53	-0.019406473
44	0x3dcf0c5c	0.10109779
45	0x3d5bbcf1	0.053646985
46	0x3b8c87ef	0.0042886655
47	0x3d5a38e5	0.053276915
48	0xbdfdf65e	-0.124005064
49	0xbcf2f0ef	-0.029655902
50	0x3cf36a44	0.029713757
51	0x3dedc18b	0.11609181
52	0xbc57407f	-0.013137936
53	0x3d28045c	0.041019782
54	0x3da374d9	0.07981271
55	0x3df7f1c5	0.12106661
56	0x3cadb10e	0.02120259
57	0xbdfed53e	-0.124430165
58	0x3daf9b60	0.08574557
59	0x3dbd936d	0.09256635
60	0xbd09e9d5	-0.033670265
61	0xbdccad91	-0.09994043
62	0xbda5d24d	-0.08096752
63	0x3cebc911	0.0287824
64	0xbc173317	-0.009228489
65	0x3dbc6d6b	0.09200557
66	0x3b4404ab	0.002991001
67	0x3ca929bb	0.020649781
68	0xbbac0f4a	-0.005250846
69	0x3ded406f	0.11584555
70	0xbbc8691b	-0.006116045
71	0x3cc7a5a6	0.02437098
72	0xbc38aeb5	-0.011272122
73	0x3dbc0981	0.091815
74	0xbc0c019d	-0.0085453065
75	0xbc37a343	-0.011208358
76	0xbdaf8c5d	-0.08571694
77	0x3e12b73e	0.14327714
78	0xbde449ab	-0.111468635
79	0x3be59069	0.0070057404
80	0xbd4ee85a	-0.050514556
81	0x3d887c5f	0.06664347
82	0xbd3febc9	-0.04685572
83	0x3cbebf67	0.023284627
84	0x3e17e6be	0.14834115
85	0x3dd68198	0.10473937
86	0xbd5eabb6	-0.054362975
87	0xbd7e86d8	-0.062140316
88	0xbb6d3954	-0.00361975
89	0x3dfe24bc	0.1240935
90	0x3db0ee30	0.08639181
91	0xbcb9d00f	-0.022682218
92	0xbb8db098	-0.00432403
93	0xbdf6cf5e	-0.12051271
94	0x3ce2aebc	0.02767121
95	0x3dce157b	0.10062691
96	0xbdc48e3c	-0.095974416
97	0x3d016393	0.031589102
98	0x3dfd64f9	0.12372775
99	0xbc077802	-0.008268358
100	0x3d0b547f	0.03401613
101	0xbd85e97a	-0.06538673
102	0xbdfb1ce6	-0.12261371
103	0x3db1d1a3	0.08682563
104	0x3d944815	0.07240311
105	0xbd2266d9	-0.039648864
106	0x3e02a802	0.12759402
107	0x3cea40bd	0.028595323
108	0xbddf9a69	-0.10918123
109	0x3dcd3056	0.10018985
110	0x3cea5c1b	0.028608372
111	0x3d6203a7	0.055179264
112	0x3d907c86	0.07055001
113	0x3d4ee999	0.050515745
114	0x3df7e943	0.12105038
115	0xbd79b3fd	-0.060962666
116	0xbdfe0c40	-0.1240468
117	0x3d33ae23	0.04386724
118	0xbe00b8fa	-0.12570563
119	0xbdac52cf	-0.08414232
120	0x3ddfa2e1	0.109197386
121	0xbd956a90	-0.07295716
122	0xbdcd1b14	-0.1001493
123	0x3ca0f558	0.019648239
124	0x3d5124ac	0.051060364
125	0xbe0ff1d8	-0.140571
126	0x3d2e8dd7	0.042615738
127	0xbaec7e68	-0.0018043043
128	0x3d3cc68a	0.04608778
129	0x3cae7265	0.021294782
130	0x3de8556c	0.11344418
131	0xbd66f3eb	-0.056384962
132	0xbe045177	-0.12921701
133	0xbd95ad87	-0.07308488
134	0xbd804280	-0.06262684
135	0x3d5b814d	0.053590108
136	0xbce4782c	-0.027889334
137	0x3e1179ac	0.1420657
138	0xbd7223fd	-0.059116352
139	0x3adfc56b	0.0017072385
140	0xbd6e4559	-0.058171604
141	0xbe1699f7	-0.1470717
142	0xbe1231b2	-0.1427677
143	0x3d210bb6	0.03931781
144	0xbd9da789	-0.076979704
145	0x3c808622	0.01568896
146	0x3d8d2df1	0.06893528
147	0x3e0b6f12	0.13616589
148	0xbde0615a	-0.10956068
149	0x3d9e51f5	0.07730476
150	0x3dd629a0	0.10457158
151	0x3dc9c134	0.09851304
152	0x3cd08fa6	0.025459122
153	0xbd6a0891	-0.057137076
154	0x3d81696c	0.06318936
155	0x3bb82774	0.0056199376
156	0x3d368bc5	0.04456689
157	0xbe17c170	-0.14819884
158	0x3c11753c	0.0088780485
159	0xbd5cda21	-0.05391896
160	0x3dbe8940	0.09303522
161	0x3ded5ea9	0.115903206
162	0xbdc6c6ef	-0.09705912
163	0x3c0c66df	0.008569448
164	0xbc57fa4f	-0.013182237
165	0x3d001d37	0.03127786
166	0x3da365d4	0.079784065
167	0x3de5693d	0.11201713
168	0x3b1af4cc	0.0023644445
169	0xbd9f615d	-0.077822424
170	0xbdd71b06	-0.10503201
171	0x3df55bbe	0.11980389
172	0x3ca4db7e	0.020124193
173	0x3e05e251	0.13074614
174	0xbdf0db47	-0.11760574
175	0xbdce64de	-0.10077833
176	0x3caf6ba6	0.021413635
177	0xbddbc8f9	-0.10731692
178	0xbcf71563	-0.030161565
179	0x3da175e6	0.078838155
180	0xbe0a65a1	-0.13515331
181	0x3dcbdf46	0.099546954
182	0x3c28ad6e	0.010295255
183	0xbd775c75	-0.06039091
184	0x3dab98b7	0.083787374
185	0x3df19a59	0.117970176
186	0x3d881651	0.066448815
187	0x3d17ca45	0.037058134
188	0xbe23c8b8	-0.15994537
189	0x3d9c4f7f	0.0763235
190	0xbd770ed8	-0.06031689
191	0x3da0170a	0.07816894
192	0xbdca4daf	-0.09878098
193	0x3cb1d43e	0.02170765
194	0x3d929a8c	0.07158384
195	0xbe0a2e3e	-0.13494202
196	0xbcc09524	-0.023508616
197	0x3db19e55	0.086727776
198	0xbd9b29b3	-0.07576313
199	0x3d0c7e46	0.03430011
200	0x3e03922c	0.12848729
201	0x3de797eb	0.11308273
202	0xbe1b39f4	-0.15158826
203	0x3d0fba9c	0.035090074
204	0x3ceacda1	0.028662505
205	0xbd4a096c	-0.04932539
206	0xbc474814	-0.012163181
207	0xbd815d18	-0.06316584
208	0xbcfde8a4	-0.03099472
209	0xbd6f56b5	-0.0584323
210	0xbc4774a5	-0.012173806
211	0xb9b53bf9	-0.00034567693
212	0x3e1a308c	0.15057582
213	0xbbcc5d68	-0.006236721
214	0x3d97ad06	0.074060485
215	0x3d28fac0	0.04125476
216	0x3dec56bb	0.1153998
217	0x3dd77821	0.1052096
218	0xbe26c1e3	-0.162849
219	0xbd022c12	-0.03178031
220	0xbdac0d30	-0.08400953
221	0x3de10979	0.10988135
222	0xbd1d5ebb	-0.03842042
223	0x3daa7847	0.08323722
224	0x3df0d20e	0.11758815
225	0x3d90d458	0.07071751
226	0xbd8f00a8	-0.06982547
227	0xbd333659	-0.043753
228	0x3dabfd4b	0.08397921
229	0x3b4264ea	0.00296622
230	0xbd82868c	-0.06373319
231	0xbda5772b	-0.0807937
232	0xbddf38d9	-0.10899515
233	0x3cd79b6c	0.026319228
234	0xbd1835aa	-0.037160553
235	0x3e34b8ea	0.17648664
236	0x3d6852b3	0.056719493
237	0xbdacea1a	-0.08443089
238	0x3d3e4985	0.046456832
239	0x3e15a99e	0.14615485
240	0xbdf61341	-0.12015391
241	0xbdd64b5e	-0.10463594
242	0xbc1c5d92	-0.009543793
243	0x3e4d33d0	0.20039296
244	0xbdbf6d26	-0.0934699
245	0x3dc2259b	0.09479829
246	0xbd1bdeab	-0.03805415
247	0xbdc45cce	-0.095880136
248	0x3d8ca9e9	0.06868345
249	0xbcf4070a	-0.029788513
250	0xbd6499bc	-0.055810675
251	0xbe12a74f	-0.14321636
252	0xbddc550e	-0.107584104
253	0xbd4b8d01	-0.04969502
254	0xbdaa6859	-0.08320684
255	0xbda0c693	-0.07850375

fc4.bias f4 [27]
0	0x3bf7fa3f	0.0075676735
1	0x3d46b33b	0.04851077
2	0xbe03251a	-0.12807122
3	0xbdcf47dd	-0.10121129
4	0xbcd3f774	-0.02587483
5	0x3c7a1165	0.015262936
6	0xbd70e6b5	-0.05881377
7	0x3d9a816b	0.07544216
8	0xbd850e3e	-0.06496857
9	0x3d0d28a2	0.03446258
10	0x3dae22f6	0.08502762
11	0xbc19479e	-0.009355454
12	0xbce5eaf5	-0.028066138
13	0xbd7f6b39	-0.062358115
14	0xbce288e0	-0.027653158
15	0xbd66b431	-0.056324188
16	0xbd0bfb8a	-0.034175433
17	0x3dca6c15	0.09883896
18	0x3d81443f	0.06311845
19	0xbcd926d6	-0.026507776
20	0x3db481eb	0.088138424
21	0x3db52d41	0.08846522
22	0x3d709b9d	0.058742154
23	0xbd81115c	-0.06302139
24	0x3e07c04c	0.13256949
25	0x3e01e1d9	0.1268381
26	0xbd96a1cc	-0.07355079
