src/trained_models/model_20_144.pt (torch_old, 78702 bytes, 8 tensors)

fc1.weight f4 [64, 144]
0.07647063 -0.08166896 -0.086672336 0.06638501 -0.07721113 0.0054293224 0.026476331 -0.020676138
-0.025343968 -0.0015496153 -0.07246451 -0.048879944 -8.590422e-05 -0.06058485 -0.0069393115 -0.02963957
-0.023935076 0.034485936 -0.004254754 0.030385662 -0.015441306 0.022748075 -0.08357353 -0.0029547163
-0.035775863 -0.04385131 0.051155265 -0.0056699812 0.07333241 -0.08595551 -0.0089104 -0.077371985
-0.05190514 0.06465738 0.040983092 -0.05495992 0.02010203 -0.050629485 0.017291576 0.015851988
-0.012005239 -0.0051368405 0.06306358 0.06359155 0.02504631 0.032116245 -0.05537307 -0.04178086
-0.009474482 -0.039603356 0.070287034 -0.06910355 -0.040013175 0.059046514 -0.051407754 0.050006416
0.031683914 0.058527067 -0.077891745 0.059717525 -0.02796102 -0.0860292 -0.03741106 -0.06482977
-0.007024719 -0.010941447 0.06624687 0.081784025 0.072843224 0.05753491 -0.08252953 -0.019101283
0.061243664 0.039477766 -0.025941005 -0.01961635 -0.03552449 -0.044649534 -0.01323502 -0.033983573
0.008421932 -0.055895258 0.03000144 -0.0077520316 -0.022936085 0.049101565 -0.06891147 -0.057026375
0.013868618 -0.08107263 -0.016036605 -0.018120682 -0.024385665 0.07312314 0.07535116 -0.057688802
-0.075863436 0.053257115 -0.008693515 0.03409085 0.04854988 -0.056732465 -0.010136998 -0.031604912
0.05865322 0.034817867 0.06146616 -0.037560523 -0.0595525 -0.08498817 -0.00817605 0.061222017
0.025859864 -0.047016464 -0.020530252 0.053788558 -0.0150444275 0.03875591 -0.03055829 0.02180116
-0.027972408 0.041860364 -0.06407398 -0.07185653 0.035995923 0.08127199 0.03194401 -0.07022509
0.0652921 0.032588 -0.016334072 0.080747835 0.020293793 0.04562597 -0.07934927 0.047992196
0.017134551 -0.046274155 -0.01744518 -0.028556712 -0.032538235 0.057195228 -0.058634724 -0.024566598
-0.009829653 -0.015041953 -0.018894734 0.04984458 -0.04863948 0.027048377 0.066773504 0.0266
-0.035052314 -0.06987944 -0.062964536 -0.017680375 -0.011875326 0.0680986 0.01528338 -0.0064018555
0.084149785 0.018253546 0.08182869 0.0341032 -0.043849673 -0.047634333 -0.0036861456 -0.059541825
-0.1000757 0.0022684177 0.014073528 0.007887858 -0.02341937 -0.0039020672 -0.091241136 0.013425951
-0.105717234 -0.016999159 -0.04479243 -0.0073619448 -0.012058269 -0.016293703 0.04199717 0.035030782
0.07521258 0.00379695 -0.07362933 -0.08870599 -0.060086608 0.027052417 -0.07372269 0.049029212
0.016054422 -0.05037574 -0.054579407 0.07098708 0.014962922 -0.023146292 0.038085327 -0.0546202
0.06287595 0.052536003 -0.03790584 -0.057754964 0.031914268 -0.06617031 0.02346052 0.04090818
-0.052287593 -0.07833635 -0.026941927 -0.07794416 -0.07628658 -0.028217748 0.06128403 0.058660895
0.019293636 -0.04613057 0.019138915 0.06624564 0.10279287 -0.016417338 0.10321309 -0.038298324
0.026443671 -0.040066257 0.038981937 -0.062643856 0.016038835 0.015163649 -0.06829897 -0.04713882
0.04104467 0.08871689 -0.020293731 0.064099 0.07266258 0.024600845 0.0008825603 -0.04523262
-0.015245339 0.016983226 0.063200474 -0.05728086 -0.041995164 0.110827446 -0.048716206 0.043349694
0.048456077 0.08058862 0.054090016 0.02252609 -0.025984744 0.014926794 0.05340018 0.013134322
00000000: a29c 9c3d 0e42 a7bd 4481 b1bd ddf4 873d
00000010: de20 9ebd 75e8 b13b e4e4 d83c 0161 a9bc
00000020: 279e cfbc 761c cbba 4668 94bd 5636 48bd
00000030: 7a27 b4b8 d227 78bd 2a63 e3bb afce f2bc
00000040: 7e13 c4bc 2041 0d3d 776b 8bbb 5aeb f83c
00000050: 88fd 7cbc 2c5a ba3c 9928 abbd eaa3 41bb
00000060: b689 12bd 6e9d 33bd 2f88 513d 40cb b9bb
00000070: 4d2f 963d 7109 b0bd edfc 11bc 3475 9ebd
00000080: 7c9a 54bd 176b 843d e3dd 273d a71d 61bd
00000090: 03ad a43c dd60 4fbd 10a7 8d3c 07dc 813c
000000a0: 9fb1 44bc f152 a8bb 7a27 813d 493c 823d
000000b0: eb2d cd3c 538c 033d dfce 62bd 6822 2bbd
000000c0: dc3a 1bbc 2137 22bd a6f2 8f3d 2986 8dbd
000000d0: dbe4 23bd c2da 713d f090 52bd 87d3 4c3d
000000e0: fec6 013d 14ba 6f3d b585 9fbd 5d9a 743d
000000f0: 820e e5bc 1430 b0bd 573c 19bd 78c5 84bd
00000100: 9d2f e6bb c143 33bc 70ac 873d 627e a73d
00000110: d42e 953d baa9 6b3d 3e05 a9bd 4b7a 9cbc
00000120: a3da 7a3d 70b3 213d 3b82 d4bc 78b2 a0bc
00000130: 2182 11bd 6ee2 36bd b3d7 58bc 5c32 0bbd
00000140: 25fc 093c 6df2 64bd 94c5 f53c c104 febb
00000150: 75e4 bbbc b91e 493d 7521 8dbd 7d94 69bd
00000160: 3339 633c 6809 a6bd 335f 83bc d371 94bc
00000170: 72c4 c7bc 96c1 953d b551 9a3d 184b 6cbd
00000180: 4a5e 9bbd 2224 5a3d 3f6f 0ebc d9a2 0b3d
00000190: 3ddc 463d 4d60 68bd a715 26bc 2774 01bd
000001a0: 5c3e 703d 2e9d 0e3d f1c3 7b3d 10d9 19bd
000001b0: 52ed 73bd 470e aebd d7f4 05bc f0c3 7a3d
000001c0: 11d8 d33c 5694 40bd 0f2f a8bc 6451 5c3d
000001d0: e77c 76bc 84be 1e3d 6155 fabc 5998 b23c
000001e0: 6426 e5bc c675 2b3d 3839 83bd 8429 93bd
000001f0: 7670 133d ee71 a63d b9d7 023d 2cd2 8fbd
00000200: ddb7 853d ff7a 053d 08cf 85bc 1f5f a53d
00000210: 2b3f a63c 4ce2 3a3d df81 a2bd 7793 443d
00000220: c25d 8c3c f889 3dbd 32e9 8ebc c4ef e9bc
00000230: d046 05bd 8b45 6a3d f72a 70bd e43f c9bc
00000240: 8e0c 21bc 8672 76bc 21c9 9abc d529 4c3d
00000250: 313a 47bd 8f94 dd3c 8cc0 883d 3ee8 d93c
00000260: 0493 0fbd f41c 8fbd 8df3 80bd 6fd6 90bc
00000270: ba90 42bc 4777 8b3d 2467 7a3c a8c6 d1bb
00000280: b956 ac3d 7688 953c cd95 a73d ccaf 0b3d
00000290: b79b 33bd 381c 43bd 4393 71bb 21e2 73bd
000002a0: 7df4 ccbd bca9 143b a894 663c 133c 013c
000002b0: fbd9 bfbc d3b9 7fbb a2dc babd 85f8 5b3c
000002c0: 4782 d8bd d241 8bbc 4478 37bd 783c f1bb
000002d0: 0c90 45bc 5f7a 85bc 3905 2c3d 707c 0f3d
000002e0: 0e09 9a3d 40d6 783b f9ca 96bd 7cab b5bd
000002f0: 601d 76bd 089d dd3c ecfb 96bd dbd2 483d
00000300: 9084 833c cb56 4ebd a88e 5fbd ad61 913d
00000310: 0b27 753c 4b9d bdbc 5cff 1b3d 6eb9 5fbd
00000320: 1bc5 803d fe2f 573d 2743 1bbd 7890 6cbd
00000330: 89b8 023d 4d84 87bd 4730 c03c 568f 273d
00000340: 842b 56bd cf6e a0bd 51b5 dcbc 30a1 9fbd
00000350: 233c 9cbd e828 e7bc f704 7b3d 6846 703d
00000360: b00d 9e3c 69f3 3cbd 37c9 9c3c cbab 873d
00000370: 1185 d23d a77d 86bc 6261 d33d b4de 1cbd
00000380: 66a0 d83c 841c 24bd 86ab 1f3d 6c4b 80bd
00000390: e063 833c f470 783c 55e0 8bbd a314 41bd
000003a0: 751e 283d 33b1 b53d 0a3f a6bc 5646 833d
000003b0: 1ed0 943d b687 c93c 9f5b 673a d745 39bd
000003c0: 96c7 79bc 6820 8b3c 406f 813d 569f 6abd
000003d0: 1f03 2cbd 80f9 e23d a58a 47bd 738f 313d
000003e0: e179 463d a50b a53d 7e8d 5d3d a288 b83c
000003f0: f5dd d4bc 838f 743c 26ba 5a3d 5731 573c

fc1.bias f4 [64]
0.039838254 0.045217503 -0.06168661 0.023297487 -0.024220789 -0.029357651 0.044160694 -0.03339821
0.051137514 0.08057865 -0.08101889 0.052932523 -0.040944524 -0.055611186 0.01655114 -0.011151249
-0.043221742 -0.038544368 0.07708841 0.055957872 -0.011001713 -0.038178906 0.0824618 0.057904296
0.038045924 -0.06276176 0.01711118 -0.040425036 0.027997045 -0.07814562 -0.054152735 0.0040731886
-0.03014577 0.03158541 0.027741872 -0.013348067 0.032582015 0.06500893 -0.07828503 -0.038042095
-0.0684413 0.005209741 0.05555773 -0.07434292 -0.04982456 -0.066124566 0.07243904 0.0011313125
-0.007533164 0.0052922 -0.01013767 0.0636698 -0.044178903 0.015484752 0.04390635 0.018561015
0.039843183 -0.0067553874 0.012537986 0.068261005 0.07629941 -0.030325264 -0.04190572 0.036354307
00000000: 702d 233d fd35 393d 19ab 7cbd 5fda be3c
00000010: ad6a c6bc 757f f0bc d8e1 343d 90cc 08bd
00000020: 9275 513d 6b06 a53d 3bed a5bd c6cf 583d
00000030: 72b5 27bd 8ec8 63bd 4296 873c bab3 36bc
00000040: 4809 31bd b3e0 1dbd 87e0 9d3d 1534 653d
00000050: 8740 34bc 7c61 1cbd bbe1 a83d 0e2d 6d3d
00000060: 0bd6 1b3d 3d89 80bd bf2c 8c3c b994 25bd
00000070: 0f5a e53c d00a a0bd 42cf 5dbd 6278 853b
00000080: 43f4 f6bc b45f 013d ec42 e33c dab1 5abc
00000090: b874 053d 6723 853d e753 a0bd 07d2 1bbd
000000a0: f42a 8cbd 7ab6 aa3b 8190 633d 1a41 98bd
000000b0: d614 4cbd 516c 87bd eb5a 943d 8c48 943a
000000c0: c3d8 f6bb 316a ad3b 7818 26bc 5065 823d
000000d0: f0f4 34bd c2b3 7d3c 25d7 333d 450d 983c
000000e0: 9b32 233d 4c5c ddbb 206c 4d3c 6dcc 8b3d
000000f0: dd42 9c3d b06c f8bc 55a5 2bbd 41e8 143d

fc2.weight f4 [64, 64]
0.07449999 -0.054592025 -0.054335658 0.07267995 -0.08821134 -0.0668322 0.021424098 0.05345049
-0.027552929 0.09670751 -0.044648286 -0.071188614 -0.12351864 0.07697519 -0.03651297 0.103841275
0.013128629 0.07694999 0.07747445 0.06934501 0.0031645203 0.0886788 -0.13155219 0.072968796
0.10315696 0.09194801 -0.059166558 -0.052404374 -0.05721676 -0.025459219 0.10037119 -0.08217066
-0.1202165 0.0034207883 0.10007378 0.053933226 -0.09099442 -0.10326184 -0.034968115 0.116695575
-0.09355392 0.12079563 0.07880764 -0.014438754 0.063242026 -0.08939999 0.08064167 0.094723694
0.093576945 -0.045121357 0.0095484005 0.0052581234 -0.135973 0.025145162 -0.027642392 0.058268964
0.006364886 0.095656715 -0.11260487 0.1221499 -0.045156527 -0.053983618 -0.04554965 0.029095566
-0.12097067 -0.100180715 -0.09052869 0.09710116 0.08547561 0.08645245 -0.112840466 0.004329858
0.11426667 0.09243321 -0.09208098 0.08159521 0.068699546 0.10921688 0.061482407 0.07647912
0.09331384 0.035895776 -0.10071959 -0.046882935 -0.018864261 -0.113870695 -0.08728744 -0.007592079
-0.09564537 -0.07271747 0.005720272 0.11058786 0.07931097 -0.041325353 -0.12033748 -0.06630918
-0.075422645 0.05261143 0.005971165 -0.08338613 0.109870024 -0.03826769 -0.10257684 -0.04185252
-0.05630092 -0.008576118 -0.084824 0.049012374 -0.09567688 -0.09010448 0.09387306 -0.11503701
0.068189874 -0.025023058 0.041905813 0.0065063513 0.0072753755 0.060049962 -0.122332126 0.036482077
-0.013630223 0.0825563 0.1268758 0.008244654 0.083089426 0.041755915 -0.009818612 -0.082350336
0.035516053 0.036783 0.10273843 -0.09624865 0.010615062 0.12758707 -0.08450898 0.099981934
0.04928591 0.060878813 0.051427852 -0.04122319 0.00075568334 -0.059388418 -0.072623186 -0.029166901
-0.059414197 0.09733545 0.03396544 0.07321099 0.015762368 -0.10215019 -0.13321126 -0.043867122
-0.10851141 0.060419172 -0.0468825 0.13349845 -0.047062416 -0.022072257 -0.07034611 -0.09022911
0.1253328 -0.04093672 0.10990571 0.084693685 0.041232634 0.08662582 0.050873984 0.011821625
0.09334279 0.1373642 0.10241243 -0.071376346 -0.07173715 0.12437068 -0.039001767 -0.07747833
0.02145139 -0.09257185 0.022968657 -0.052287582 -0.0622693 0.073461615 -0.10624363 0.07505536
0.0065612756 0.117362484 -0.040233366 0.029340776 0.09500419 0.01595778 0.022953091 0.107054725
0.0668357 0.07405053 0.06656507 0.037351057 0.04668978 0.08844793 0.028253675 0.06727153
-0.065749556 0.05010709 0.07260479 -0.063265786 -0.017374769 0.08905044 0.045677558 -0.030816495
0.11403568 0.0020794272 -0.10578568 -0.07383491 0.10102397 -0.09395528 -0.014152363 -0.111151606
-0.11781077 -0.07509744 0.040057197 -0.02698271 -0.053032428 0.062891126 0.09270534 0.122284144
-0.11814669 -0.12271321 -0.038870037 0.024850398 -0.12247774 0.055928007 -0.05310376 -0.11852692
-0.082325205 -0.08905645 -0.04433787 -0.07999097 -0.04630381 -0.08601673 -0.06683923 -0.11200014
-0.105704844 0.09570597 -0.0029429644 0.005749464 -0.04922594 0.029051691 0.022589311 -0.044859886
0.00669533 -0.09251943 -0.07375397 -0.052725285 -0.041535005 0.076836154 0.01413542 -0.033157364
00000000: 7393 983d e39b 5fbd 118f 5ebd 3ad9 943d
00000010: 26a8 b4bd 52df 88bd 9781 af3c e7ee 5a3d
00000020: aeb6 e1bc 960e c63d 1fe1 36bd 56cb 91bd
00000030: 57f7 fcbd 2ba5 9d3d a08e 15bd bcaa d43d
00000040: 7619 573c f597 9d3d edaa 9e3d c204 8e3d
00000050: d763 4f3b 3b9d b53d 9eb5 06be aa70 953d
00000060: f543 d33d 3d4f bc3d a258 72bd f8a5 56bd
00000070: 1f5c 6abd da8f d0bc 698f cd3d 1749 a8bd
00000080: 1134 f6bd 4e2f 603b 7bf3 cc3d 16e9 5c3d
00000090: 485b babd f27a d3bd ba3a 0fbd 17fe ee3d
000000a0: 3399 bfbd b363 f73d e665 a13d 8690 6cbc
000000b0: 0985 813d 5817 b7bd 7627 a53d 7ffe c13d
000000c0: 45a5 bf3d 2cd1 38bd e570 1c3c 564c ac3b
000000d0: 823c 0bbe 3afd cd3c 4c72 e2bc 70ab 6e3d
000000e0: 8990 d03b abe7 c33d 629d e6bd ba29 fa3d
000000f0: 0df6 38bd ed1d 5dbd 4592 3abd d359 ee3c
00000100: 78bf f7bd 8c2b cdbd 1b67 b9bd f9dc c63d
00000110: d60d af3d fb0d b13d e718 e7bd 7be1 8d3b
00000120: a504 ea3d 9f4d bd3d f494 bcbd 641b a73d
00000130: 59b2 8c3d 19ad df3d fad4 7b3d 16a1 9c3d
00000140: 541b bf3d 7307 133d 1346 cebd 5208 40bd
00000150: 3989 9abc 0a35 e9bd c2c3 b2bd fac6 f8bb
00000160: b8e1 c3bd e6ec 94bd 1f71 bb3b e37b e23d
00000170: ca6d a23d c644 29bd 7f73 f6bd 1bcd 87bd
00000180: 3077 9abd 157f 573d c3a9 c33b 59c6 aabd
00000190: 8903 e13d 95be 1cbd ce13 d2bd 8c6d 2bbd
000001a0: cb9b 66bd d982 0cbc 35b8 adbd 33c1 483d
000001b0: 3df2 c3bd b388 b8bd 8540 c03d 8698 ebbd
000001c0: 22a7 8b3d 28fd ccbc 6ea5 2b3d 3b33 d53b
000001d0: 4666 ee3b f3f6 753d 4489 fabd 3b6e 153d
000001e0: 4d51 5fbc 4713 a93d bbeb 013e 9614 073c
000001f0: ca2a aa3d 4008 2b3d 3ede 20bc 4ba7 a8bd
00000200: 4879 113d c5a9 163d 8768 d23d 031e c5bd
00000210: ccea 2d3c 2fa6 023e 0b13 adbd 54c3 cc3d
00000220: 06e0 493d 105c 793d 03a6 523d a6d9 28bd
00000230: 0d19 463a 4541 73bd 77bb 94bd 6def eebc
00000240: 4d5c 73bd cf57 c73d 581f 0b3d a5ef 953d
00000250: 1520 813c 1e34 d1bd 8868 08be 03ae 33bd
00000260: 3b3b debd 187a 773d dd07 40bd d1b3 083e
00000270: 85c4 40bd e1d0 b4bc 9f11 90bd 0aca b8bd
00000280: 3e57 003e 43ad 27bd 3f16 e13d e273 ad3d
00000290: 8de3 283d e168 b13d 3d61 503d 7daf 413c
000002a0: 812a bf3d 33a9 0c3e 9cbd d13d c32d 92bd
000002b0: edea 92bd 0eb6 fe3d 51c0 1fbd f5ac 9ebd
000002c0: d3ba af3c 4f96 bdbd c428 bc3c 812b 56bd
000002d0: 180e 7fbd 0b73 963d 4396 d9bd a0b6 993d
000002e0: f8ff d63b be5b f03d becb 24bd 115c f03c
000002f0: 8f91 c23d e4b9 823c 1f08 bc3c 823f db3d
00000300: 28e1 883d cea7 973d 4453 883d 6cfd 183d
00000310: c83d 3f3d 3024 b53d 4074 e73c a8c5 893d
00000320: b4a7 86bd 183d 4d3d d2b1 943d 7e91 81bd
00000330: 8855 8ebc 1460 b63d 6418 3b3d e072 fcbc
00000340: 8a8b e93d 0047 083b 2aa6 d8bd c236 97bd
00000350: a8e5 ce3d a06b c0bd 50df 67bc 74a3 e3bd
00000360: c646 f1bd b0cc 99bd 0413 243d d80a ddbc
00000370: 8838 59bd 10cd 803d 4cdc bd3d 1c70 fa3d
00000380: e4f6 f1bd 1051 fbbd 3036 1fbd 1093 cb3c
00000390: 9cd5 fabd c414 653d 5483 59bd 3ebe f2bd
000003a0: 1e9a a8bd 3a63 b6bd a09b 35bd 4ed2 a3bd
000003b0: 10a9 3dbd 8a29 b0bd 02e3 88bd 5460 e5bd
000003c0: c87b d8bd 7e01 c43d c0de 40bb 0066 bc3b
000003d0: 24a1 49bd d0fd ed3c 380d b93c 00bf 37bd
000003e0: 8064 db3b d47a bdbd 520c 97bd 78f6 57bd
000003f0: 9c20 2abd 465c 9d3d 4098 673c 04d0 07bd

fc2.bias f4 [64]
-0.056140002 -0.124231234 0.04311218 0.023839861 0.03753609 -0.004893098 0.0020424004 0.0035346285
0.04745595 0.052406453 0.061648414 0.052513402 0.011951615 0.018851161 0.108987816 0.0421676
-0.12232897 -0.047257327 0.06308636 0.04837572 -0.003762104 -0.022841271 -0.096739575 0.117664635
0.033185277 -0.0841997 -0.122227296 -0.08219642 -0.011075306 0.09864694 -0.10133946 0.044904675
-0.05474164 -0.08679926 -0.0801271 0.08435659 0.11202844 0.07244006 -0.080461666 0.08495881
-0.10206126 0.032209862 -0.0797603 -0.08805298 -0.015844064 0.08634355 0.12442767 0.12480523
-0.0010946427 -0.051758997 -0.032460902 -0.014060319 -0.07630025 -0.03007921 0.12288381 0.0863981
-0.057218406 0.06261885 -0.07756421 0.04893611 -0.08510099 -0.1170254 0.018034847 0.08175861
00000000: 0ff3 65bd f26c febd 6696 303d d04b c33c
00000010: 71bf 193d 4856 a0bb cbd9 053b 3aa5 673b
00000020: 2c61 423d 26a8 563d 0c83 7c3d 4b18 573d
00000030: b5d0 433c c06d 9a3c 0135 df3d efb7 2c3d
00000040: 9c87 fabd e690 41bd 6c33 813d 9e25 463d
00000050: a28d 76bb 9e1d bbbc 661f c6bd 28fa f03d
00000060: 49ed 073d e470 acbd 4e52 fabd 9956 a8bd
00000070: 3375 35bc 6807 ca3d 108b cfbd f7ed 373d
00000080: c538 60bd cfc3 b1bd ad19 a4bd 26c3 ac3d
00000090: 2b6f e53d 745b 943d 16c9 a4bd e2fe ad3d
000000a0: 7e05 d1bd 7dee 033d 5e59 a3bd 1f55 b4bd
000000b0: 69cb 81bc e3d4 b03d efd3 fe3d e299 ff3d
000000c0: 1d7a 8fba 3e01 54bd b9f5 04bd 415d 66bc
000000d0: 4e43 9cbd ad68 f6bc 82aa fb3d 7df1 b03d
000000e0: d95d 6abd 503e 803d fcd9 9ebd 3b71 483d
000000f0: 6e49 aebd 03ab efbd d1bd 933c 0f71 a73d

fc3.weight f4 [64, 64]
0.11262115 -0.004303272 0.040022314 0.060136124 0.07799604 -0.047872107 -0.08179414 0.05873043
0.123984635 0.1063014 -0.032974586 -0.009438413 0.060959376 0.092134595 -0.07172769 -0.033014517
0.02226998 -0.044668514 0.12424076 -0.0777692 0.06826023 0.11268705 -0.085130766 -0.015338443
0.060400248 -0.11880824 0.115175605 -0.084542334 -0.04330001 0.008903603 -0.06520141 -0.041623995
-0.01944814 0.041834246 -0.03182576 0.06474702 0.0821033 -0.07718893 0.026130596 -0.037528474
0.0020588874 -0.06307886 0.08465499 -0.109192766 0.082670785 0.11253341 -0.09471241 0.00018752282
-0.073998906 -0.011243787 0.11514225 -0.0663898 0.04292483 0.0012884089 0.027969738 -0.081665486
0.09672625 0.067017816 -0.05508949 -0.02747153 0.052382268 0.017456096 -0.0956402 0.016118873
-0.08199355 0.022235427 -0.10713695 -0.030804023 -0.08846723 0.012689852 0.07269449 -0.10478903
0.025654554 0.04482761 -0.058008287 0.05462425 0.021937892 0.017660601 0.05920295 0.07093636
0.048851542 -0.03188546 0.013603387 0.101969995 0.07505253 -0.06328123 -0.016559055 0.11895048
0.120716035 -0.10307357 -0.0033368412 0.05185397 0.0731403 -0.10122544 -0.104454815 -0.07366383
-0.07218819 -0.07460432 -0.043630853 -0.094075836 0.016013123 -0.03398687 -0.06553458 0.04699412
-0.10247186 0.10895897 -0.055259164 -0.05543068 -0.1014205 0.069734946 0.002806753 0.07164787
0.108447075 -0.0950236 -0.074633196 0.124705195 -0.13371848 -0.11586217 -0.107132725 0.050242733
-0.13459446 0.06387961 0.056908824 0.019475361 0.0846176 0.06888781 -0.1407338 0.057501156
0.11505712 0.075274095 -0.015682679 0.014357075 0.09734658 -0.016174879 -0.026200857 -0.042738568
0.015354264 -0.06773692 -0.07140655 -0.070140734 0.10719752 0.059345048 0.084990025 0.041311435
-0.11603786 -0.010997747 -0.06760315 -0.12732829 -0.07640154 0.03645508 -0.047959857 0.040367793
-0.062523164 -0.043701876 0.047080312 0.035964895 0.0265343 0.10852747 0.050261397 0.12271547
0.12560138 -0.014455265 -0.0750974 0.029015103 -0.08162375 0.053493258 0.12593211 0.031379502
-0.06710838 0.015217003 -0.0300106 -0.053219788 0.018127147 0.068305254 -0.035205822 -0.11779283
0.07394825 0.05406316 -0.08201835 -0.06612216 -0.104132 -0.015927982 0.018567553 0.028831962
-0.026583094 0.08565324 -0.012733181 0.09733351 -0.12318225 -0.052170347 0.10871941 -0.064229995
0.06874395 -0.09444927 0.045071896 0.03552863 -0.06772389 0.05112201 0.00436394 -0.09590986
-0.026924357 -0.0132351965 -0.072590485 -0.060475163 0.0628871 -0.072818205 0.09661856 0.06870165
0.076659575 -0.118185915 -0.0016325486 -0.093184315 0.045231722 -0.05262752 -0.09129177 -0.06611414
0.0039502634 -0.13111842 -0.11622214 -0.009265321 -0.10910153 -0.006765637 -0.102029465 0.038331807
-0.11957434 0.06240122 0.0026090916 0.037850577 -0.10646168 -0.020451847 -0.0094766775 -0.047454
0.04965716 0.09536164 -0.061809193 -0.07660735 0.046900935 -0.03652457 -0.088356405 -0.048105348
0.11923008 -0.039960485 -0.025326418 0.04213248 0.03164606 -0.0040076566 0.087389514 -0.11386937
-0.018689781 -0.044187248 0.10166058 -0.08240743 0.0069386335 -0.02201186 -0.045790736 0.07863192
00000000: eba5 e63d 7602 8dbb 70ee 233d 4c51 763d
00000010: 63bc 9f3d 8b15 44bd b083 a7bd 528f 703d
00000020: a8eb fd3d 8cb4 d93d 5c10 07bd 93a3 1abc
00000030: 8ab0 793d 10b1 bc3d f8e5 92bd 3b3a 07bd
00000040: 886f b63c 55f6 36bd f171 fe3d 7545 9fbd
00000050: 05cc 8b3d 78c8 e63d 0a59 aebd 184e 7bbc
00000060: 4066 773d bc51 f3bd 30e1 eb3d 8824 adbd
00000070: 5a5b 31bd 6be0 113c 5188 85bd ec7d 2abd
00000080: b551 9fbc 635a 2b3d ba5b 02bd 169a 843d
00000090: c625 a83d 3b15 9ebd d50f d63c 75b7 19bd
000000a0: 66ee 063b 7d2f 81bd 985f ad3d 75a0 dfbd
000000b0: 4d4f a93d eb77 e63d 94f8 c1bd c6a1 4439
000000c0: bd8c 97bd dc37 38bc b3cf eb3d 60f7 87bd
000000d0: f2d1 2f3d d4df a83a cb20 e53c 3c40 a7bd
000000e0: 6a18 c63d a340 893d 84a5 61bd f90b e1bc
000000f0: ca8e 563d 1600 8f3c 02df c3bd ba0b 843c
00000100: 3cec a7bd 1227 b63c 9e6a dbbd b858 fcbc
00000110: 4f2e b5bd 19e9 4f3c d9e0 943d a29b d6bd
00000120: 8029 d23c 289d 373d 199a 6dbd adbd 5f3d
00000130: 18b7 b33c f7ac 903c cb7e 723d 1547 913d
00000140: 8e18 483d 549a 02bd bee0 5e3c a5d5 d03d
00000150: 24b5 993d 9799 81bd dba6 87bc 4f9c f33d
00000160: f839 f73d 3c18 d3bd e8ae 5abb d464 543d
00000170: 95ca 953d 494f cfbd 68ec d5bd 10dd 96bd
00000180: 67d7 93bd 26ca 98bd 44b6 32bd d5aa c0bd
00000190: f42d 833c d135 0bbd fe36 86bd e87c 403d
000001a0: c4dc d1bd e125 df3d 6f57 62bd 480b 63bd
000001b0: 8db5 cfbd 32d1 8e3d 80f1 373b 1ebc 923d
000001c0: 8019 de3d bc9b c2bd 4ad9 98bd 7065 ff3d
000001d0: 7fed 08be 2549 edbd 6768 dbbd 53cb 4d3d
000001e0: 21d3 09be 50d3 823d 3a19 693d cb8a 9f3c
000001f0: fe4b ad3d 0d15 8d3d 851c 10be 5586 6b3d
00000200: 11a3 eb3d 4e29 9a3d f678 80bc f039 6b3c
00000210: a55d c73d 2e81 84bc 2ea3 d6bc a30e 2fbd
00000220: 7390 7b3c a8b9 8abd 993d 92bd f2a5 8fbd
00000230: 608a db3d cb13 733d 400f ae3d 2e36 293d
00000240: 42a5 edbd e52f 34bc 8573 8abd 5962 02be
00000250: 6978 9cbd ec51 153d 8e71 44bd b358 253d
00000260: 250c 80bd bd00 33bd 49d7 403d ed4f 133d
00000270: 765e d93c a643 de3d e5de 4d3d 4052 fb3d
00000280: a69d 003e c7d5 6cbc aacc 99bd 15b1 ed3c
00000290: 5a2a a7bd bf1b 5b3d 59f4 003e cb87 003d
000002a0: 1e70 89bd bd50 793c cad8 f5bc fefc 59bd
000002b0: 627f 943c a0e3 8b3d fb33 10bd 5e3d f1bd
000002c0: 2e72 973d 5571 5d3d 3df9 a7bd 0e6b 87bd
000002d0: 2843 d5bd 667b 82bc fb1a 983c 0231 ec3c
000002e0: cac4 d9bc f76a af3d d59e 50bc cb56 c73d
000002f0: fa46 fcbd 93b0 55bd 48a8 de3d 048b 83bd
00000300: a1c9 8c3d 9e6e c1bd 4f9d 383d 7886 113d
00000310: d3b2 8abd 5065 513d 62ff 8e3b 646c c4bd
00000320: 7890 dcbc 70d8 58bc 52aa 94bd ceb4 77bd
00000330: f4ca 803d b621 95bd f4df c53d 73b3 8c3d
00000340: b2ff 9c3d 750b f2bd 3efb d5ba 6bd7 bebd
00000350: e644 393d f48f 57bd 2ef7 babd da66 87bd
00000360: 3671 813b e843 06be e005 eebd 93cd 17bc
00000370: 9f70 dfbd 47b2 ddbb d3f4 d0bd d001 1d3d
00000380: 64e3 f4bd 6c98 7f3d 4bfd 2a3b 3509 1b3d
00000390: 9508 dabd a28a a7bc 1144 1bbc 205f 42bd
000003a0: 4e65 4b3d f74c c33d a32b 7dbd 50e4 9cbd
000003b0: 321b 403d ca9a 15bd 34f4 b4bd 1d0a 45bd
000003c0: e62e f43d 9bad 23bd 5979 cfbc 1b93 2c3d
000003d0: 4d9f 013d a952 83bb 46f9 b23d 5834 e9bd
000003e0: 501b 99bc b0fd 34bd 6c33 d03d 3ac5 a8bd
000003f0: 7a5d e33b 3752 b4bc 118f 3bbd c609 a13d

fc3.bias f4 [64]
-0.09026007 0.053985905 -0.04664447 -0.02541019 -0.03594435 0.009747158 -0.031444088 -0.11318728
0.11017785 -0.10796283 -0.052242696 -0.032740355 -0.031354044 -0.11953984 -0.010887209 0.07692214
-0.030434808 -0.044797063 0.01330442 -0.090412505 0.05255116 0.0339442 -0.090136014 -0.077409185
-0.07149122 0.034924492 -0.05784814 0.103668176 0.045893535 -0.016670939 -0.12235147 -0.09195687
0.09122708 0.09820274 -0.03513512 -0.094688915 -0.031331036 0.0027270955 -0.0028517959 -0.11685779
-0.058385365 -0.023147224 -0.10291976 -0.061878424 -0.019155307 0.031630967 0.030456325 -0.06480422
0.058900516 -0.060221065 0.003621 0.065028094 -0.10048265 0.10904496 0.0753392 -0.09894432
-0.108312786 0.11082672 -0.10410902 0.060888343 -0.052076705 0.09648005 0.07417892 -0.024427267
00000000: 46da b8bd 5320 5d3d 460e 3fbd 0829 d0bc
00000010: 623a 13bd 8bb2 1f3c 84cb 00bd bcce e7bd
00000020: eda4 e13d 9e1b ddbd 70fc 55bd c01a 06bd
00000030: 196d 00bd 4ed1 f4bd 4460 32bc 5b89 9d3d
00000040: 6b52 f9bc 207d 37bd c8fa 593c 312a b9bd
00000050: e33f 573d 1309 0b3d 3b99 b8bd b588 9ebd
00000060: fd69 92bd fc0c 0f3d 2cf2 6cbd fb4f d43d
00000070: dcfa 3b3d 7e91 88bc 6893 fabd e253 bcbd
00000080: 43d5 ba3d 851e c93d d8e9 0fbd 43ec c1bd
00000090: f954 00bd 12b9 323b 32e5 3abb 2353 efbd
000000a0: 7e25 6fbd 3f9f bdbc 98c7 d2bd 3b74 7dbd
000000b0: 97eb 9cbc 798f 013d 8b7f f93c 13b8 84bd
000000c0: ab41 713d 5daa 76bd 4d4e 6d3b 732d 853d
000000d0: d9c9 cdbd f752 df3d 704b 9a3d 52a3 cabd
000000e0: 18d3 ddbd 1ff9 e23d 1c37 d5bd 0e66 793d
000000f0: 624e 55bd 5597 c53d 1eeb 973d b11b c8bc

fc4.weight f4 [27, 64]
0.16850324 0.03667518 -0.009603365 0.03303649 -0.1212589 0.10095681 -0.12669739 -0.009501901
0.09088512 0.006404478 -0.1224844 0.0020751534 -0.118747406 0.07700173 -0.035656665 0.107262805
0.032620158 0.13506007 -0.06272322 -0.05455696 -0.059283257 -0.029008543 0.0034568813 -0.05937034
-0.0915391 -0.041847654 -0.09250888 0.12646703 0.12339182 -0.066090345 0.0348473 0.04657407
-0.099292085 -0.09306329 -0.11068988 0.016215527 0.075218864 0.107000135 -0.080378905 -0.0923343
0.016122993 0.013167678 -0.0117410235 -0.0097708525 0.08295245 0.06713994 0.025767518 -0.056654405
0.08384861 0.007430872 0.083757736 0.019372564 -0.06108823 0.018064685 -0.092080116 -0.0038737983
0.0458401 -0.0495362 0.09498045 -0.050975267 0.038735773 -0.076329224 0.051208697 -0.02303329
0.040555593 -0.04702758 0.11338948 0.08796724 0.05676826 -0.10471343 -0.1382425 -0.1343933
-0.051978666 -0.07761324 -0.08918572 -0.08390769 0.08542156 0.06701109 -0.14223188 0.035707094
0.09575452 -0.06388004 0.041373644 -0.12541847 0.07288181 0.074669935 -0.10245218 0.07030579
-0.011924282 0.07292274 -0.086403474 -0.039315484 0.07918513 0.0066747456 -0.048565093 0.12380024
0.04046164 -0.030858872 -0.003635552 -0.13024405 -0.035227414 0.009934814 -0.051887583 0.0030985351
0.111577876 -0.10251185 -0.014504597 0.110721596 -0.10339062 -0.045619223 0.091831155 0.110428706
0.107864164 0.057664912 -0.1311656 -0.018106913 -0.013716526 0.10791927 0.07883443 0.11304769
-0.041508857 -0.037519556 0.098238535 -0.04220466 0.044357773 0.027418932 0.031014951 0.004662862
0.010974576 -0.075932644 -0.046081383 0.036997054 -0.034445632 0.12678483 -0.06025247 0.031321667
0.11347686 -0.1089385 -0.024568534 0.13977793 0.05031644 -0.015783738 -0.0970319 -0.12765573
0.04639031 -0.049262296 0.09221498 0.108025864 -0.09451356 0.11276379 -0.05997746 -0.056394853
0.098195 0.086169876 -0.010698187 0.12256228 0.08288686 -0.05587095 0.022665674 0.06090133
-0.058551323 0.06333363 -0.037383154 0.06523697 0.016692007 -0.010951792 -0.0569152 -0.16581798
-0.080446556 -0.085663155 0.11702259 0.09078633 -0.08604579 -0.11363999 0.01670124 -0.069440946
-0.10638857 0.016066976 -0.033186484 0.07053249 0.060845386 0.14485332 -0.029736303 -0.0033619653
-0.024793189 -0.015607799 0.0662756 0.0025425658 0.11116865 0.20040964 -0.03922609 -0.09015848
-0.16402589 0.089175984 -0.0098528415 -0.016853595 0.098787285 0.1172028 0.11210863 -0.08557498
0.111158304 0.1052277 0.063820675 0.017618096 0.06141629 -0.045239374 -0.061836075 -0.02961572
0.00058977236 0.007219328 -0.12735617 0.022821669 -0.00016780387 0.12257386 0.066280164 -0.08149906
0.1018153 0.028962035 -0.03100641 -0.013563863 0.09643629 0.027291685 -0.0719807 -0.0046447534
0.095193766 0.072788425 -0.05621919 -0.098179035 -0.07637787 0.1258124 -0.10967503 0.07800241
0.14076407 -0.116334826 -0.066563554 -0.13384049 0.14236619 0.0775126 -0.12774569 -0.062492345
0.027893668 0.049762808 -0.03907629 -0.119273916 -0.07628118 0.093189485 0.02503422 -0.06738492
0.008052724 0.012262517 0.05125432 -0.05853966 0.08850698 -0.057908796 -0.08683142 -0.10957057
00000000: 1d8c 2c3e b738 163d 6f57 1dbc 4551 073d
00000010: 9656 f8bd 72c2 ce3d f6bc 01be ddad 1bbc
00000020: fa21 ba3d a8dc d13b 1ad9 fabd 4cff 073b
00000030: d731 f3bd 15b3 9d3d b90c 12bd 9aac db3d
00000040: b79c 053d 304d 0a3e 0875 80bd 1e77 5fbd
00000050: 00d3 72bd 53a3 edbc d88c 623b 502e 73bd
00000060: da78 bbbd 7268 2bbd 4c75 bdbd 9380 013e
00000070: dab4 fc3d 605a 87bd 0bbc 0e3d 74c4 3e3d
00000080: a659 cbbd f797 bebd 60b1 e2bd 6dd6 843c
00000090: 590c 9a3d e322 db3d b29d a4bd c419 bdbd
000000a0: 5e14 843c 3fbd 573c 6c5d 40bc ed15 20bc
000000b0: f9e2 a93d aa80 893d 6716 d33c 730e 68bd
000000c0: d2b8 ab3d ac7e f33b 2d89 ab3d 36b3 9e3c
000000d0: a737 7abd 64fc 933c 8094 bcbd 8ddf 7dbb
000000e0: d4c2 3b3d 78e6 4abd 1c85 c23d 71cb 50bd
000000f0: 67a9 1e3d 7f52 9cbd 36c0 513d 4fb0 bcbc
00000100: 9f1d 263d fe9f 40bd be38 e83d 2b28 b43d
00000110: d685 683d ff73 d6bd 718f 0dbe 669e 09be
00000120: 95e7 54bd b1f3 9ebd 01a7 b6bd ccd7 abbd
00000130: 80f1 ae3d 1c3d 893d 3ca5 11be 9a41 123d
00000140: f21a c43d 8ad3 82bd 6977 293d b36d 00be
00000150: 0f43 953d 8dec 983d 73d2 d1bd 7bfc 8f3d
00000160: 105e 43bc 8458 953d 4ef4 b0bd 4609 21bd
00000170: d02b a23d d3b7 da3b 31ec 46bd fb8a fd3d
00000180: 1bbb 253d bfcb fcbc 7142 6ebb b25e 05be
00000190: 9f4a 10bd a1c5 223c 1388 54bd cb10 4b3b
000001a0: f182 e43d bcf1 d1bd b0a4 6dbc 01c2 e23d
000001b0: 76be d3bd 39db 3abd f911 bc3d 7228 e23d
000001c0: e3e7 dc3d 0b32 6c3d 4650 06be f354 94bc
000001d0: 48bb 60bc c704 dd3d f273 a13d 8c85 e73d
000001e0: 3105 2abd 1bae 19bd 4931 c93d cbde 2cbd
000001f0: 7fb0 353d ab9d e03c 1113 fe3c ecca 983b
00000200: b5ce 333c 9382 9bbd d5bf 3cbd 398a 173d
00000210: dd16 0dbd e2d3 013e 4bcb 76bd 264b 003d
00000220: 8e66 e83d 261b dfbd f343 c9bc f221 0f3e
00000230: 9d18 4e3d e64c 81bc a9b8 c6bd 2fb8 02be
00000240: c403 3e3d 43c7 49bd 35db bc3d aa3c dd3d
00000250: 5390 c1bd b4f0 e63d edaa 75bd 4afe 66bd
00000260: 761a c93d d579 b03d 7347 2fbc ef01 fb3d
00000270: 96c0 a93d f0d8 64bd 5dad b93c ac73 793d
00000280: 83d3 6fbd 10b5 813d 141f 19bd f69a 853d
00000290: adbd 883c 256f 33bc ea1f 69bd 30cc 29be
000002a0: 2ac1 a4bd 2a70 afbd 8aa9 ef3d 2fee b93d
000002b0: c638 b0bd 15bc e8bd 0ad1 883c 0e37 8ebd
000002c0: 40e2 d9bd e49e 833c 8dee 07bd 5773 903d
000002d0: 0339 793d 6e54 143e 8c99 f3bc 6b54 5cbb
000002e0: 161b cbbc dbb7 7fbc 80bb 873d 2da1 263b
000002f0: 64ac e33d 2f38 4d3e 89ab 20bd 02a5 b8bd
00000300: 67f6 27be e6a1 b63d d06d 21bc 8d10 8abc
00000310: fd50 ca3d 0608 f03d 3699 e53d ef41 afbd
00000320: f7a6 e33d 9f81 d73d 6ab4 823d d353 903c
00000330: a68f 7b3d ec4c 39bd d347 7dbd ab9c f2bc
00000340: f49a 1a3a 1d90 ec3b a869 02be 82f4 ba3c
00000350: 82f4 2fb9 0108 fb3d e5bd 873d fbe8 a6bd
00000360: 8a84 d03d ca41 ed3c 2801 febc f73a 5ebc
00000370: 6480 c53d d092 df3c 9e6a 93bd 0433 98bb
00000380: f3f4 c23d 1912 953d 1846 66bd 1712 c9bd
00000390: 006c 9cbd f7d4 003e 4d9d e0bd babf 9f3d
000003a0: 7524 103e f440 eebd 7952 88bd 7b0d 09be
000003b0: 71c8 113e edbe 9e3d c4cf 02be f9f7 7fbd
000003c0: 4381 e43c 16d4 4b3d 760e 20bd e245 f4bd
000003d0: 4f39 9cbd 21da be3d 9114 cd3c 1b01 8abd
000003e0: 93ef 033c b9e8 483c 0df0 513d 48c7 6fbd
000003f0: 2643 b53d c631 6dbd acd4 b1bd 8966 e0bd

fc4.bias f4 [27]
-0.08590918 0.08976564 -0.07442456 -0.07335322 -0.0789967 0.06995846 0.11519771 -0.101133496
0.038557224 -0.08144281 0.051889807 -0.09681927 -0.031929437 0.03750368 -0.041575152 0.10831269
-0.044177283 -0.077492826 0.018342294 0.043719266 -0.004861602 0.06142957 -0.12240115 -0.0010270602
0.017022053 0.08434936 -0.06338414
00000000: 27f1 afbd 0cd7 b73d e76b 98bd 373a 96bd
00000010: 06c9 a1bd 6246 8f3d c7ec eb3d 141f cfbd
00000020: 2eee 1d3d 7dcb a6bd 688a 543d 2e49 c6bd
00000030: 71c8 02bd 759d 193d b54a 2abd 0bd3 dd3d
00000040: 3df3 34bd 8fb4 9ebd 9442 963c f912 333d
00000050: 134e 9fbb 939d 7b3d 74ad fabd 6c9e 86ba
00000060: d571 8b3c 5bbf ac3d 8bcf 81bd
