src/cached_data/trained_models/model_20_30.pt (torch_old, 78702 bytes, 8 tensors)

fc1.weight f4 [64, 144]
0	0x3d2ff0be	0.0429542
1	0xbca091bb	-0.01960074
2	0x3da721fd	0.081607796
3	0x3d1de3a5	0.038547177
4	0x3d56d38b	0.052447837
5	0x3d92b6fc	0.07163808
6	0x3c71ce3c	0.014758643
7	0x3d211b0c	0.039332435
8	0xbdc7a880	-0.09748936
9	0x3c81b91d	0.01583534
10	0xbdfcb3ac	-0.12338957
11	0xbd2addae	-0.041715316
12	0x3a95bce4	0.0011424092
13	0xbd3c61c2	-0.045991667
14	0x3c5e969e	0.013585715
15	0x3c26b882	0.010175826
16	0xbc91751f	-0.017756043
17	0x3cda84f9	0.026674734
18	0x3d5421d5	0.051790077
19	0xbbe40777	-0.0069588977
20	0xbbc58130	-0.0060273632
21	0xbd8f0d29	-0.06984932
22	0xbdca0917	-0.09865015
23	0x3c9d0a11	0.01916984
24	0x3cb81916	0.0224729
25	0xbd130f12	-0.035903044
26	0x3b934a61	0.0044949506
27	0x3c472445	0.012154643
28	0x3cc24b42	0.023717526
29	0xbd91c31d	-0.07117293
30	0x3d198a58	0.03748545
31	0xbcb5ff52	-0.022216473
32	0xbd6b430a	-0.05743698
33	0xbdb63a95	-0.088978924
34	0xbba41a89	-0.005008046
35	0xbd19eed5	-0.037581284
36	0xbd07bdf0	-0.033140123
37	0x3db666ed	0.0890635
38	0xbbc564a6	-0.006023961
39	0x3d866f5c	0.06564209
40	0x3d2c8c57	0.042126026
41	0x3d3713b5	0.04469653
42	0x3cab0bce	0.020879652
43	0x3d413602	0.047170646
44	0x3bd11a9f	0.0063813473
45	0xbd8471fc	-0.06467053
46	0xbd2c963f	-0.042135473
47	0xbd52bc71	-0.051449243
48	0xbd86f9cf	-0.06590616
49	0x3d9d760f	0.076885335
50	0xbbb454f5	-0.0055032917
51	0xbd567cdf	-0.05236518
52	0xbd3ca428	-0.04605499
53	0x3cfbad29	0.030722218
54	0xbd34fbb1	-0.044185344
55	0x3bc4d475	0.006006772
56	0xbc856564	-0.016283698
57	0xbc6300dd	-0.013855186
58	0xbdb0a313	-0.08624854
59	0xbe0e0c1f	-0.13871811
60	0xbc6370f2	-0.013881909
61	0x3d056b76	0.032573186
62	0xbd7d96b9	-0.06191132
63	0x3c1dd3b5	0.009632994
64	0xbc7bef25	-0.015376841
65	0xbd467436	-0.04845067
66	0xbd97a91e	-0.074053034
67	0x3d49c865	0.049263377
68	0xbd42fdf0	-0.047605455
69	0x3d810a97	0.06300848
70	0xbd4e68ab	-0.050392788
71	0xbd6cd9bf	-0.057824846
72	0xbcd69010	-0.026191741
73	0x3d07b605	0.03313257
74	0xbd498f7a	-0.049209096
75	0x3d523ea8	0.051329285
76	0x3b04c8e5	0.0020261344
77	0xbd413b2f	-0.047175582
78	0xbd0b5eb1	-0.03402585
79	0x3c23359b	0.009961511
80	0x3d62d81e	0.055381887
81	0x3dcb851d	0.09937499
82	0xbcdfc9ef	-0.02731797
83	0x3d28c1f2	0.041200586
84	0x3c048cfc	0.008090254
85	0x3d9fe81e	0.07807945
86	0x3d512f05	0.051070232
87	0xbb0d7a38	-0.002158774
88	0x3db66e01	0.089077
89	0x3d81ffb3	0.06347599
90	0xbd2fc52c	-0.042912647
91	0x3d3182fe	0.043337815
92	0x3db7bca4	0.08971527
93	0xbd3d6580	-0.046239376
94	0xbd554bee	-0.052074365
95	0x3d9f6504	0.07782939
96	0x3cf74e9a	0.030188847
97	0xbda0eb8d	-0.07857428
98	0xbdcf4749	-0.101210184
99	0x3d165c27	0.036708977
100	0xbdbb520d	-0.09146509
101	0xbbd61f8e	-0.0065345233
102	0x3c837f2e	0.016051855
103	0xbd536049	-0.051605497
104	0x3a800424	0.0009766859
105	0x3ce5e456	0.02806298
106	0x3df4aed0	0.11947405
107	0x3e036263	0.128305
108	0x3ad65519	0.0016352265
109	0x3d85df5b	0.06536742
110	0x3a5e9cdb	0.0008492001
111	0x3d3a6637	0.045507636
112	0x3dced7f2	0.10099782
113	0x3db42b47	0.08797317
114	0x3d325f8b	0.043548148
115	0x3dfbe98d	0.12300406
116	0x3ca4ce22	0.020117823
117	0x3dca12dd	0.09866879
118	0xbca74b00	-0.020421505
119	0xbd723550	-0.059132874
120	0x3cc6b36a	0.024255473
121	0x3d66e6bc	0.05637239
122	0xbd68a20f	-0.056795176
123	0x3d3dfcbd	0.046383608
124	0xbcec6453	-0.028856432
125	0xbcb4c6ce	-0.022067454
126	0xbc050ef3	-0.00812124
127	0x39d77dcb	0.0004110172
128	0x3ce761fb	0.028244963
129	0x3dd1ad65	0.102381505
130	0x3dcf58a4	0.10124329
131	0x3d95009c	0.07275507
132	0xbd770ff0	-0.060317934
133	0xbd548e8c	-0.051893756
134	0x3dbd07f8	0.092300355
135	0x3d57f7d5	0.052726585
136	0xbd4f64bb	-0.050633173
137	0x3d590ef6	0.052992783
138	0x3d27725f	0.040880557
139	0x3d82f2dd	0.06393979
140	0xbb2bea87	-0.0026232318
141	0xbccd1fa3	-0.0250395
142	0xbd655d00	-0.055996895
143	0xbd3c7400	-0.046009064
144	0xbd6c60ae	-0.05770939
145	0x3cc9da8c	0.024640344
146	0xbd9ae7e9	-0.075637646
147	0x3ca0379b	0.019557765
148	0x3c5602c1	0.01306218
149	0x3d4dbfdd	0.050231803
150	0x3cea2713	0.028583085
151	0xbcf12978	-0.02943872
152	0x3d00ab4b	0.031413358
153	0xbd84296d	-0.06453214
154	0x3d8a7598	0.067607105
155	0x3da66c6c	0.081261486
156	0xbc384cf6	-0.011248818
157	0xbd9a4f10	-0.07534611
158	0xbd9ef6ce	-0.07761918
159	0x3d9bd4cb	0.076089464
160	0xbbb1f3e5	-0.005430686
161	0xbd03327d	-0.03203057
162	0x3d0192e6	0.031634234
163	0x3cfac9ab	0.03061374
164	0x3c9ee83b	0.019397845
165	0x3d8709c5	0.0659366
166	0xbbd733f5	-0.006567473
167	0x3c1f0359	0.009705388
168	0x3cdb9cba	0.026808131
169	0xbcdcc4b4	-0.026949264
170	0x3d801484	0.06253913
171	0x3d3369ad	0.043801952
172	0xbd8f7468	-0.070046246
173	0x3b88ad45	0.004171046
174	0xbd3626b0	-0.04447049
175	0xbd781ac2	-0.060572393
176	0x3ba4948c	0.005022591
177	0x3c718ce4	0.014743064
178	0xbb638847	-0.0034718679
179	0x3aef1f89	0.0018243651
180	0xbd0c1598	-0.03420028
181	0x3d8aee88	0.067837775
182	0xbc15c4db	-0.009141172
183	0x3b058458	0.0020373072
184	0x3e085c72	0.13316515
185	0x3e011185	0.1260434
186	0x3d131a56	0.035913788
187	0x3c202330	0.009774014
188	0x3d38ab42	0.0450852
189	0xbd58c946	-0.052926324
190	0xbc6f8387	-0.014618761
191	0x3cd87ea8	0.026427582
192	0x3d9a08d6	0.075212166
193	0xbc336457	-0.010949216
194	0xbd1f0a46	-0.038828157
195	0xbb9975a5	-0.004683214
196	0xbce12546	-0.027483594
197	0xbcdeef12	-0.027213607
198	0x3ce00db6	0.027350288
199	0x3caaa82d	0.020832146
200	0xbdd391f0	-0.1033057
201	0xbd674f37	-0.05647203
202	0xbc004951	-0.00782998
203	0x3d7064dc	0.058689937
204	0x3d305c3a	0.043056704
205	0xbc8359f8	-0.016034111
206	0x3d1d14af	0.038349804
207	0xbd2bb4c5	-0.041920442
208	0x3d687123	0.05674852
209	0x3d9854c7	0.07438045
210	0x3da78316	0.081792995
211	0x3cb5d64b	0.02219691
212	0x3cd1b976	0.02560113
213	0xbdbf404f	-0.09338438
214	0x3d239456	0.039936386
215	0xbd7668c5	-0.06015851
216	0x3d23a315	0.03995045
217	0x3d26ffd5	0.040771324
218	0x3c3e4917	0.011614106
219	0x3cdbac28	0.026815489
220	0xbda01808	-0.078170836
221	0xbda86963	-0.08223226
222	0x3d19190a	0.037377395
223	0xbd844181	-0.064578064
224	0xbdb1d259	-0.08682699
225	0xbdd2618b	-0.10272511
226	0xbdce7dc0	-0.10082579
227	0xbd6de439	-0.05807898
228	0x3d9ef1b1	0.07760943
229	0xbd9aa9c6	-0.07551913
230	0x3c52989f	0.0128537705
231	0x3c86773e	0.016414281
232	0xbd4b12b5	-0.049578387
233	0x3d20892c	0.039193317
234	0xbc950537	-0.018190963
235	0xbd9e9d33	-0.07744827
236	0x3d85e9d8	0.06538743
237	0x3d2237f0	0.039604127
238	0xbd75ef62	-0.060042746
239	0xbd6916ee	-0.056906633
240	0x3b8075a5	0.0039202743
241	0x3d69646c	0.056980535
242	0x3d99ddde	0.07513021
243	0x3d81fd6d	0.06347165
244	0xbd355594	-0.044271067
245	0x3ca9f6b0	0.020747513
246	0xb9ff8007	-0.00048732778
247	0xbc9c5c95	-0.019087115
248	0xbd48606a	-0.048920073
249	0x3ca156a3	0.019694632
250	0x3dc78a9c	0.097432345
251	0x3dfc55de	0.12321065
252	0x3cf0e44d	0.029405737
253	0x3d73530e	0.05940538
254	0x3de8c890	0.11366379
255	0xbcc48f8a	-0.023994226

fc1.bias f4 [64]
0	0xbcb9ec70	-0.02269575
1	0x3cd208ac	0.0256389
2	0xbcdd1f83	-0.026992565
3	0xba907480	-0.0011021048
4	0xbd616e2d	-0.055036712
5	0x3da1bcbb	0.078973256
6	0x3d426629	0.04746071
7	0xbd1dad25	-0.0384952
8	0xbd311d65	-0.043240923
9	0xbd652aa7	-0.05594888
10	0x3c0325b7	0.008004597
11	0x3c21e39a	0.009880925
12	0xbda7b974	-0.08189669
13	0x3d94ea49	0.07271249
14	0xbd4920ee	-0.04910367
15	0xbd866129	-0.065615006
16	0x3d9b4e31	0.07583273
17	0x3daa20bc	0.08307025
18	0x3d8e1e20	0.0693934
19	0xbd20aebf	-0.03922915
20	0xbd7b7ccb	-0.06139831
21	0xbd8ddda5	-0.06927041
22	0x3d1e9524	0.03871645
23	0xbd98f51d	-0.07468627
24	0x38941077	7.060257e-05
25	0xbd761be2	-0.060085185
26	0xbd5566e6	-0.052100085
27	0xbc6c4858	-0.014421545
28	0xb9ee0d46	-0.00045404787
29	0xbcaaaa97	-0.020833297
30	0xbda3b3ac	-0.07993254
31	0xbc769103	-0.015049222
32	0xbd9b8ad1	-0.075948365
33	0xbd1a573a	-0.037680842
34	0x3d80d658	0.06290883
35	0xbc7a4c8f	-0.015277042
36	0xbd9a8337	-0.075445585
37	0xbd96fffb	-0.07373043
38	0x3da69ad2	0.081349984
39	0xbc2a62de	-0.010399548
40	0x3d94d078	0.07266325
41	0xbd8f8cef	-0.07009303
42	0x3c0ae667	0.008477784
43	0xbd8a106f	-0.06741416
44	0x3d358d8c	0.044324443
45	0xbda0ad0c	-0.07845506
46	0x3da77460	0.08176494
47	0xbda00c74	-0.07814875
48	0x3d1f0972	0.038827367
49	0x3d27de2b	0.04098336
50	0xbd723eab	-0.059141796
51	0x3d6b979e	0.05751764
52	0xbd98c279	-0.07458968
53	0xbc57b199	-0.013164901
54	0xbda16dee	-0.078822955
55	0x3cd7b263	0.026330179
56	0xbd57695e	-0.05259072
57	0x3d4bb469	0.0497326
58	0xbd4517f2	-0.04811854
59	0xbd834b8d	-0.064108945
60	0x3caef400	0.021356583
61	0xbda7d6eb	-0.08195289
62	0x3d9d653b	0.07685324
63	0x3d889c05	0.06670383

fc2.weight f4 [64, 64]
0	0xbd030c45	-0.031994123
1	0xbdb80a00	-0.08986282
2	0xbd9d3b98	-0.07677382
3	0xbb8aadd6	-0.0042321486
4	0xba9116ec	-0.0011069453
5	0xbd6b7ba1	-0.05749095
6	0xbcdd06b2	-0.026980732
7	0xbd48abf6	-0.04899212
8	0xbddda506	-0.10822491
9	0xbd8b075b	-0.06788512
10	0x3c9f2297	0.019425673
11	0xbdefe192	-0.11712946
12	0xbd46a962	-0.04850138
13	0xbc6cefd1	-0.014461474
14	0x3de9e970	0.11421478
15	0x3d6b5e38	0.0574629
16	0xbc185c05	-0.009299283
17	0x3cb1a4fb	0.021685114
18	0x3c312c51	0.0108137885
19	0x3dd378f5	0.10325805
20	0x3dda4f0a	0.10659607
21	0x3d968c58	0.07350987
22	0x3bb6d50f	0.005579598
23	0xbdcbc868	-0.09950334
24	0x3dc34c2f	0.09536015
25	0x3d4efe49	0.050535474
26	0x3d5ba96d	0.053628374
27	0x3da21607	0.07914358
28	0xbc49684a	-0.012292931
29	0xbdb5d1ec	-0.0887793
30	0x3d2bbab5	0.041926105
31	0x3de06120	0.10956025
32	0x3d962967	0.073321156
33	0x3bcf99c9	0.0063354713
34	0xbdba1ebf	-0.090878956
35	0xbd24065b	-0.040045124
36	0xbd6649a9	-0.05622259
37	0x3dae829e	0.08521007
38	0x3c206e89	0.009791979
39	0xbdd70131	-0.10498274
40	0xbddc3424	-0.107521325
41	0x3e2063a1	0.15663005
42	0xbc88e04a	-0.016708512
43	0xbd8b07a3	-0.06788566
44	0x3e023233	0.12714462
45	0x3ce61536	0.028086286
46	0xbce05895	-0.02738599
47	0xbd020e0a	-0.03175167
48	0x3b5f81e4	0.003410452
49	0xbd988295	-0.074467815
50	0x3cc3af94	0.023887433
51	0xbd8e2e71	-0.06942452
52	0x3d0f79f5	0.035028417
53	0x3dfb70d3	0.12277379
54	0x3d38381e	0.044975393
55	0xbdf47bd9	-0.119376846
56	0xbda52610	-0.080639005
57	0x3d80c81c	0.06288168
58	0x3d01b119	0.031663034
59	0xbd58b14d	-0.052903462
60	0x3dc29f0f	0.09502994
61	0xbb561f0e	-0.0032672319
62	0xbdea9856	-0.11454837
63	0x3e04be67	0.12963258
64	0x3dffc81c	0.1248934
65	0x3d496d8c	0.049176738
66	0x3bf87f0a	0.0075835036
67	0xbd8b556c	-0.06803402
68	0x3d1b77b7	0.037955966
69	0xbdcf6ad9	-0.101278014
70	0x3db484d6	0.08814399
71	0x3df45166	0.11929588
72	0x3c6d7ade	0.014494626
73	0xbde456cb	-0.11149367
74	0x3de2786e	0.110581264
75	0xbdf716a3	-0.120648645
76	0x3b200f38	0.0024423134
77	0x3c699a07	0.014257914
78	0x3d981b27	0.07427054
79	0x3e027292	0.12739018
80	0xbd9cc84d	-0.07655392
81	0x3dfd6c32	0.12374152
82	0x3cde4acf	0.02713528
83	0xbc6e114d	-0.014530492
84	0xbd70cdf3	-0.05879016
85	0xbdfbcf68	-0.12295419
86	0xbdceb54f	-0.100931756
87	0x3d55b3dc	0.05217348
88	0x3c1b00c6	0.009460634
89	0x3d9253be	0.07144879
90	0xbdbfe476	-0.09369747
91	0xbdddef47	-0.10836654
92	0x3d0410a7	0.032242443
93	0x3c8d1c99	0.01722555
94	0xbd868ab0	-0.06569421
95	0xbdc2d155	-0.09512583
96	0x3daaaead	0.08334098
97	0x3dbe4ebb	0.092923604
98	0x3d9384a3	0.07203033
99	0xbdda4ca0	-0.10659146
100	0xbd579751	-0.05263454
101	0x3d6683f7	0.056278195
102	0xbd8a2b14	-0.06746498
103	0x3dbd15bb	0.092326604
104	0x3daf94c3	0.08573296
105	0xbdaf73a5	-0.08566979
106	0xbdc70b16	-0.09718911
107	0x3b57758c	0.003287646
108	0x3cb52a31	0.022114845
109	0x3e288009	0.16455092
110	0x3dce93ac	0.1008676
111	0x3d031b1f	0.032008287
112	0xbcc70af0	-0.024297208
113	0x3de53c2e	0.11193119
114	0xbd4e8089	-0.05041555
115	0x3d11e9bb	0.035623293
116	0xbbdb09f3	-0.0066845356
117	0x3ddaab3e	0.10677193
118	0xbe311c98	-0.17296064
119	0xbdb58a16	-0.088642284
120	0xbc27c25d	-0.010239211
121	0xbd4f5fa0	-0.050628304
122	0x3d4e3b92	0.05034978
123	0x3e0f2913	0.13980512
124	0xbe170a58	-0.1475004
125	0xbd9cd189	-0.07657153
126	0x3da6bc7a	0.08141418
127	0xbae0046b	-0.001709116
128	0xbd5dcf8c	-0.05415301
129	0x3cb7681c	0.02238851
130	0xbdae30b7	-0.08505385
131	0xbdd6264a	-0.10456522
132	0x3d0417ce	0.032249264
133	0x3d3df947	0.046380308
134	0x3dc8368a	0.097760275
135	0x3bd629ca	0.0065357434
136	0x3dd889cf	0.1057316
137	0xbd043134	-0.032273486
138	0x3deffe0c	0.117183775
139	0xbcc20499	-0.023683833
140	0x3d9af873	0.07566919
141	0x3d97d517	0.074136905
142	0x3dd94a0d	0.10609827
143	0x3e0bcc51	0.1365216
144	0xbd8257c5	-0.06364397
145	0xbceb6d88	-0.028738752
146	0xbd88c968	-0.0667904
147	0x3d0d9c7e	0.03457307
148	0x3d572400	0.052524567
149	0x3d1a19c4	0.03762223
150	0x3d86b3bb	0.065772496
151	0x3cd84457	0.026399774
152	0xbc5ab13d	-0.013347921
153	0xbdbd6a8e	-0.09248839
154	0x3de751aa	0.11294873
155	0xbd8e6484	-0.069527656
156	0xbd4efbf2	-0.050533243
157	0xbe070cb8	-0.13188446
158	0x3ce79397	0.028268619
159	0xbd9efcc0	-0.07763052
160	0xbe05a804	-0.13052374
161	0xbcd9815c	-0.026550941
162	0x3db55bbf	0.0885539
163	0x3d577041	0.052597288
164	0xbd4505d6	-0.04810127
165	0xbda1827d	-0.07886217
166	0x3c9c9718	0.019115016
167	0xbd9ba84e	-0.07600461
168	0x3dce113c	0.10061881
169	0xbdb66a92	-0.089070454
170	0x3c663824	0.014051471
171	0x3db51828	0.08842498
172	0xbb86ee02	-0.004117728
173	0xbda5aaef	-0.080892436
174	0x3deae44b	0.11469325
175	0xbd3a5393	-0.04548986
176	0xbd6093fe	-0.054828636
177	0xbd9a2582	-0.07526685
178	0xbcc57aa6	-0.024106335
179	0xbd15e02e	-0.036590748
180	0xbdd34b04	-0.103170425
181	0x3e047f3c	0.12939161
182	0xbda9e6c3	-0.082959674
183	0x3ce0562f	0.027384846
184	0xbbe73d52	-0.0070568705
185	0xbde80f38	-0.11331028
186	0x3cf34199	0.029694365
187	0x3dfda772	0.12385453
188	0xbd7ad69c	-0.061239824
189	0x3de3616c	0.11102566
190	0xbd2a8411	-0.041629855
191	0x3df195c3	0.11796143
192	0x3da814a4	0.08207062
193	0xbd90a582	-0.07062818
194	0xbdc17830	-0.09446752
195	0xbd2e9898	-0.042625993
196	0xbe0486cb	-0.12942044
197	0x3cf96704	0.03044463
198	0xbd859bf0	-0.06523883
199	0xbd821b7d	-0.06352899
200	0xbc6af18e	-0.014339818
201	0x3cbdff69	0.023193078
202	0xbc0c8fd4	-0.008579213
203	0x3d2fe95b	0.042947154
204	0xbdb0d99f	-0.08635258
205	0xbddaf7d1	-0.106917985
206	0xbceb0c40	-0.028692365
207	0xbd184f72	-0.03718514
208	0xbc0beb3b	-0.00853997
209	0x3d873227	0.06601363
210	0xbe00c286	-0.12574205
211	0x3decb2e6	0.1155756
212	0xbb864acb	-0.0040982715
213	0xbdfd2ce4	-0.12362078
214	0xbde3d1ef	-0.11124026
215	0xbd8f7eac	-0.070065826
216	0x3c9148c1	0.017734887
217	0x3d1db197	0.03849944
218	0x3dda22a8	0.106511414
219	0xbdaf55fc	-0.08561322
220	0x3bbb4ccf	0.0057159434
221	0xbcca0a00	-0.024662971
222	0x3cb7816b	0.022400578
223	0x3d010064	0.031494513
224	0xbd775612	-0.060384817
225	0x3d620759	0.05518279
226	0x3d99f4a3	0.07517364
227	0x3d98e3a0	0.07465291
228	0xbe1379f1	-0.14401986
229	0x3cbb0a22	0.02283198
230	0xbdce466b	-0.10072025
231	0x3d4af419	0.049549196
232	0x3dc3260b	0.095287405
233	0x3c853dd0	0.016264826
234	0x3cddf849	0.02709593
235	0x3d3f8667	0.046759035
236	0x3d7f7395	0.062366087
237	0xbd1f45da	-0.038884975
238	0x3c576e2b	0.013148825
239	0xbc3c5fee	-0.011497481
240	0x3deb0a7c	0.11476609
241	0xbcdae606	-0.026721012
242	0x3dd26783	0.102736495
243	0xbd0535f6	-0.032522164
244	0xbc535d4c	-0.012900662
245	0x3cc247e2	0.023715917
246	0x3db51565	0.08841971
247	0x3dc02b68	0.09383279
248	0xbd09007e	-0.033447735
249	0x3dc20134	0.09472886
250	0xbd63f764	-0.055655852
251	0x3ceba60f	0.028765706
252	0x3ce9e1c6	0.02855004
253	0x3da0b1b5	0.07846395
254	0xbd99cbed	-0.07509599
255	0xbde2df50	-0.1107775

fc2.bias f4 [64]
0	0x3c91ae58	0.017783329
1	0xbc978007	-0.018493665
2	0xbdbcea9e	-0.09224437
3	0x3d8fa7f8	0.07014459
4	0x3dc3428d	0.09534178
5	0x3d145128	0.03621021
6	0xbd8c6d17	-0.06856745
7	0xbda18e9b	-0.07888528
8	0x3c04c264	0.008102987
9	0x3dc3534e	0.095373735
10	0x3d804807	0.06263738
11	0x3ce53d79	0.027983414
12	0xbd82453e	-0.06360863
13	0xbdb6ff3a	-0.08935399
14	0xbdd66d44	-0.104700595
15	0x3ccde634	0.025134183
16	0x3d6a97ab	0.057273548
17	0x3df6a635	0.1204342
18	0xbc67cdc5	-0.01414818
19	0xbbb46c36	-0.005506064
20	0xbd9d6fdb	-0.0768735
21	0x3d8255d5	0.063640274
22	0x3cd9c41b	0.026582768
23	0xbdfc9869	-0.123337574
24	0xbd1d9736	-0.038474284
25	0xbde7c55b	-0.113169394
26	0xbc88ae24	-0.0166846
27	0xbbd2c9f6	-0.006432767
28	0xbdb237ba	-0.08702035
29	0x3d3d827d	0.04626702
30	0x3d9220eb	0.07135185
31	0xbdd4dd9f	-0.10393833
32	0x3de130e6	0.10995655
33	0x3dd7c97c	0.10536477
34	0xbcc66c73	-0.024221634
35	0xbdd2d56f	-0.102946155
36	0xbb9ad7d4	-0.0047254357
37	0xbd8d47af	-0.06898438
38	0xbde9243a	-0.11383863
39	0xbd3016f9	-0.04299066
40	0xbd82f60e	-0.063945875
41	0xbd0bceb3	-0.03413267
42	0x3d60a066	0.054840468
43	0xbd0abb7c	-0.033870205
44	0xbd2477e2	-0.04015339
45	0x3bf95945	0.0076095187
46	0x3deed7aa	0.116622284
47	0x3b87e330	0.004146956
48	0xbdec081a	-0.11524983
49	0xbd20942d	-0.03920381
50	0xbdcdf2e9	-0.10056097
51	0xbdb07503	-0.08616068
52	0x3d5c62f7	0.053805318
53	0xbd5d18e6	-0.053978823
54	0x3defa491	0.117013104
55	0x3dc8e089	0.09808452
56	0x3a72ca91	0.0009261752
57	0xbd851d5e	-0.06499742
58	0xbdda6e4d	-0.106655695
59	0x3c279cf0	0.010230288
60	0xbdc96317	-0.09833353
61	0x3c9b03de	0.018922742
62	0xbca227b0	-0.019794315
63	0x3d493621	0.049123887

fc3.weight f4 [64, 64]
0	0x3e029aab	0.12754314
1	0x3dc89b4b	0.09795245
2	0xbdb038f9	-0.08604617
3	0xbbd73a40	-0.0065682232
4	0x3d59a52a	0.05313603
5	0xbdb03ee6	-0.08605747
6	0x3d33f90d	0.043938685
7	0xbc96c508	-0.018404499
8	0xbdda4ff0	-0.10659778
9	0x3d38a513	0.045079302
10	0xbd2ea85f	-0.04264104
11	0xbdba5029	-0.090973206
12	0x3ddc7e5e	0.1076629
13	0x3e0a2547	0.13490783
14	0x3c31c186	0.010849362
15	0xbdc5e314	-0.09662452
16	0x3dad87a4	0.08473137
17	0x3c58c09f	0.013229518
18	0x3dad3187	0.08456712
19	0xbd542f3b	-0.051802855
20	0x3d3693b3	0.04457445
21	0x3dc07a2a	0.09398301
22	0x3dd53938	0.10411304
23	0x3d93855c	0.07203171
24	0x3d83ca25	0.064350404
25	0xbe018622	-0.12648824
26	0x3dfce317	0.123480015
27	0xbdd5e034	-0.10443154
28	0x3df94c83	0.121727966
29	0xbd5837d1	-0.052787606
30	0x3d9bcaa1	0.07607008
31	0x3dce53da	0.10074587
32	0xbd7d58d7	-0.061852302
33	0xbd5c80e3	-0.053833853
34	0xbd0d7b02	-0.034541138
35	0xbcd4a8bb	-0.025959363
36	0xbd3b2411	-0.045688692
37	0xbd225fb1	-0.03964204
38	0xbbb8ae17	-0.0056359875
39	0x3d2be962	0.041970618
40	0xbdd88a0e	-0.10573207
41	0xbdb58ea6	-0.08865099
42	0xbd7ca662	-0.061682113
43	0xbda00515	-0.07813469
44	0x3e06e936	0.131749
45	0xbde35486	-0.11100106
46	0x3dd2cce7	0.10292988
47	0xbc9a35d2	-0.018824492
48	0xbbd24fbb	-0.006418196
49	0xbd881d51	-0.06646217
50	0x3d637f57	0.055541363
51	0xbcf216ea	-0.029551942
52	0xbdf7bb1f	-0.120962374
53	0x3d55fa69	0.052240763
54	0x3de174f8	0.11008638
55	0x3dcbcd74	0.099512964
56	0x3ce69d18	0.02815108
57	0x3d93cdcd	0.07216988
58	0x3d08639f	0.03329813
59	0xbd51f502	-0.05125905
60	0x3d827a50	0.063709855
61	0xbdf06f71	-0.11740006
62	0xbdbb1d64	-0.09136465
63	0xbde7f529	-0.113260575
64	0xbdb1618c	-0.08661184
65	0x3e13ad3a	0.1442155
66	0x3dad3e20	0.08459115
67	0x3ccb8a7b	0.024846306
68	0xbcc18129	-0.023621159
69	0x3c00e411	0.007866875
70	0x3c4faa09	0.012674817
71	0x3d921703	0.071332954
72	0x3d6f534e	0.058429055
73	0x3d4b88a8	0.049690872
74	0x3c854f81	0.016273262
75	0xbc7cd071	-0.015430556
76	0x3dd44912	0.103654996
77	0xbdf4b6a3	-0.11948898
78	0x3d83e16f	0.064394824
79	0xbca5d769	-0.020244317
80	0x3d94edbd	0.072719075
81	0x3c1ba612	0.0095000435
82	0x3d4aaa8b	0.04947905
83	0x3d88b1b7	0.066745214
84	0xbd80fbfe	-0.06298064
85	0x3a30bd22	0.000674205
86	0x3dcff6cd	0.101544954
87	0xbd1789d4	-0.036996678
88	0x3bacc363	0.0052723153
89	0xbdc29a83	-0.09502127
90	0x3d4d821e	0.050172918
91	0x3d90afb1	0.070647605
92	0x3de83ebb	0.1134009
93	0xbd539a8b	-0.051661056
94	0x3cc27938	0.023739442
95	0x3da6946c	0.08133778
96	0x3e0e86da	0.1391863
97	0xbcfe02dd	-0.031007225
98	0xbdabb5e0	-0.08384299
99	0xbcd8de47	-0.026473178
100	0xbe0b7e10	-0.13622308
101	0xbd851b79	-0.064993806
102	0xbdbde185	-0.0927153
103	0x3da66e7e	0.081265435
104	0xbde487d1	-0.111587174
105	0x3db550f7	0.088533334
106	0xbe1e2f44	-0.15447718
107	0xbd8bb9db	-0.068225585
108	0xbe1553aa	-0.14582697
109	0x3dc51182	0.0962248
110	0x3d4da092	0.05020196
111	0x3da603f6	0.08106224
112	0x3db02c1a	0.08602162
113	0x3d39c565	0.045354266
114	0xbd6c7e7c	-0.057737812
115	0x3d7ca397	0.06167945
116	0x3d3a16a3	0.045431744
117	0xbe031911	-0.12802531
118	0xbd1f3479	-0.0388684
119	0x3cd1f315	0.025628606
120	0xbce62504	-0.028093822
121	0x3d0c06f2	0.03418631
122	0x3e06166e	0.13094494
123	0xbd3c0126	-0.045899533
124	0x3d863b13	0.06554236
125	0x3e0d9ca6	0.13829288
126	0xbd328ab6	-0.043589316
127	0x3e109647	0.14119826
128	0xbd284385	-0.041080017
129	0xbc16b3c0	-0.009198129
130	0xbd649439	-0.05580542
131	0x3d0deb6f	0.034648355
132	0xbd26301d	-0.04057323
133	0x3d71aa7f	0.05900049
134	0xbdd648f4	-0.104631335
135	0xbd4e4c21	-0.05036557
136	0xbd785161	-0.060624484
137	0x3d88ed4f	0.06685888
138	0xbc9b82f6	-0.018983345
139	0x3dd4b385	0.10385803
140	0x3cced2a5	0.025246928
141	0xbde9248a	-0.113839224
142	0xbd808183	-0.062747024
143	0x3d2a04bc	0.04150842
144	0xbd9eeb32	-0.07759704
145	0x3dfbabdb	0.12288638
146	0xbd76b10d	-0.060227443
147	0x3c7cd77c	0.015432235
148	0xbd185905	-0.03719427
149	0x3dd9b8d4	0.10630956
150	0x3dee15a6	0.11625223
151	0xbd11ab66	-0.03556385
152	0x3df82170	0.12115753
153	0xbdce6b0a	-0.1007901
154	0xbd51e188	-0.051240474
155	0xbda23726	-0.07920675
156	0x3d06f470	0.032947958
157	0xbe2c19ea	-0.1680676
158	0x3de5af60	0.11215091
159	0x3dd5ee1e	0.10445808
160	0xbdf535e6	-0.11973171
161	0x3d805889	0.06266887
162	0x3d9b6d31	0.07589186
163	0x3e07c300	0.1325798
164	0x3de16478	0.11005491
165	0xbe0a57e0	-0.13510084
166	0x3b1fda5f	0.0024391634
167	0xbd26480f	-0.040596064
168	0xbd3d333c	-0.04619144
169	0xbcfe325d	-0.031029874
170	0xbd31db46	-0.043422006
171	0xbc388dde	-0.0112642925
172	0x3e0730e3	0.13202243
173	0xbdd26b64	-0.102743894
174	0x3b11e6e9	0.0022262877
175	0x3d15e5bf	0.036596056
176	0xbdc28d0e	-0.0949956
177	0xbd9d4c0a	-0.07680519
178	0xbd985e0c	-0.07439813
179	0xbd23b5fa	-0.03996847
180	0xbdd14a0c	-0.102192014
181	0xbd3b881a	-0.045784093
182	0xbd9f0019	-0.077636905
183	0xbd6943e2	-0.056949504
184	0x3c3b996d	0.011450154
185	0x3d042689	0.032263312
186	0x3da575f4	0.080791384
187	0x3de0b3bc	0.109717816
188	0x3c2b20ae	0.010444803
189	0x3d496ea4	0.04917778
190	0x3d57ba2c	0.05266778
191	0x3d2e4a3c	0.042551264
192	0x3d7a52ca	0.06111411
193	0x3cb51f5b	0.022109678
194	0x3c659ab2	0.014013933
195	0xbd8fef42	-0.07028057
196	0x3b750459	0.0037386625
197	0x3e0d4456	0.137956
198	0xbd035104	-0.032059684
199	0x3c873201	0.016503336
200	0x3e0169af	0.12637971
201	0xbdc9ac8b	-0.09847363
202	0xbdd12ec9	-0.10214002
203	0x3d802f02	0.06258966
204	0xbc67bf77	-0.01414477
205	0xbd28fa89	-0.041254554
206	0xbc709e3e	-0.014686165
207	0x3cd971a4	0.026543446
208	0xbdb6feec	-0.08935341
209	0xbdf88ea5	-0.12136582
210	0x3d7e3628	0.062063366
211	0x3d3f7be7	0.04674902
212	0xbd8c1923	-0.06840732
213	0x3b9b97ba	0.004748312
214	0x3d769c54	0.06020768
215	0xbdb628bc	-0.08894488
216	0xbd9d3472	-0.07676019
217	0x3cc7991c	0.024365
218	0x3dedb3da	0.116065696
219	0xba7b91a5	-0.0009596593
220	0x3e1089ec	0.14115113
221	0xbcd2bcb8	-0.025724754
222	0x3a03fae0	0.00050346367
223	0xbdb579f2	-0.0886115
224	0xbd826b52	-0.06368126
225	0xbd7336ce	-0.059378438
226	0x3cee96bb	0.029124608
227	0x3c7aed71	0.0153153995
228	0x3dd681fe	0.10474013
229	0x3dd9d20f	0.106357686
230	0xbd88d8f2	-0.06682004
231	0x3d802b0e	0.06258212
232	0x3d9a6fef	0.07540881
233	0x3d0c6a50	0.034281075
234	0x3e02ed0b	0.12785737
235	0x3df8ef78	0.1215505
236	0x3e04691b	0.1293072
237	0xbd77a40b	-0.060459178
238	0xbdc35868	-0.095383465
239	0x3db29e12	0.08721556
240	0xbba3a555	-0.0049940743
241	0xbd1ffce9	-0.039059553
242	0x3dfa3f83	0.12219145
243	0x3dbefd7e	0.093256935
244	0xbddc3044	-0.107513934
245	0xbdab7f56	-0.08373897
246	0x3dafdbd0	0.08586848
247	0x3d2d4a64	0.042307273
248	0x3d4042d3	0.04693873
249	0x3de2279a	0.1104271
250	0x3b8299ce	0.00398562
251	0x3df7bc27	0.12096434
252	0xbc939e17	-0.018019719
253	0x3d6a2f98	0.057174295
254	0xbc90124b	-0.017586848
255	0x3d92871c	0.07154676

fc3.bias f4 [64]
0	0x3dcdefbe	0.10055493
1	0xbddc22fa	-0.10748859
2	0xbdce9ab5	-0.10088102
3	0xbc2031b6	-0.009777477
4	0x3dea931d	0.11453841
5	0xbd93c82a	-0.07215913
6	0xbc7cf539	-0.015439325
7	0x3dd6d8d1	0.10490573
8	0x3c2ed265	0.010670279
9	0xbdaaf2e4	-0.08347109
10	0x3c7f639a	0.015587712
11	0x3df8871b	0.12135144
12	0xbd9c4739	-0.07630772
13	0xbdb3abee	-0.08773027
14	0xbd595471	-0.053059045
15	0x3de8b551	0.11362708
16	0xbde3ffcd	-0.111327745
17	0x3dda4467	0.10657578
18	0x3d4314ed	0.04762738
19	0x3da8f1af	0.082492225
20	0x3da9276b	0.082594715
21	0xbd7b1725	-0.06130137
22	0xbdbd4f10	-0.092435956
23	0x3c58b8da	0.013227666
24	0x3d0cd080	0.03437853
25	0xbd6c6ddb	-0.057721954
26	0x3d6ca68f	0.05777603
27	0x3de24bbf	0.11049604
28	0xbdb0c297	-0.08630865
29	0xbd82f221	-0.06393839
30	0x3d98e8a9	0.074662514
31	0x3dc4e937	0.09614795
32	0x3dfc17df	0.123092405
33	0xbddf40e8	-0.10901052
34	0x3de4ad6d	0.11165891
35	0x3d9c32d0	0.07626879
36	0xbdf75fd4	-0.12078825
37	0xbd68f69c	-0.05687581
38	0x3d6d9809	0.05800632
39	0xbdbcc9b7	-0.092181616
40	0x3de6c8ff	0.11268806
41	0x3d34c91e	0.044137113
42	0xbdd2b995	-0.10289303
43	0xbdd1f439	-0.1025166
44	0xbd959bf9	-0.0730514
45	0xbdc22fe4	-0.09481791
46	0x3bca4810	0.0061731413
47	0x3d94eb42	0.07271434
48	0xbc9c3183	-0.019066578
49	0x3c773161	0.015087456
50	0x3d35ad0f	0.044354495
51	0x3d11c5b7	0.035588946
52	0x3b00b4d4	0.0019639032
53	0x3dc0cf73	0.09414568
54	0xbc07635a	-0.008263433
55	0x3d5bb4e5	0.05363931
56	0xbde9bd73	-0.11413088
57	0xbd93bf9c	-0.07214281
58	0x3e009db1	0.12560154
59	0xbd4961e3	-0.049165618
60	0x3d7e546e	0.062092237
61	0xbd397b17	-0.045283403
62	0xbd22fd42	-0.039792307
63	0x3d8095a2	0.0627854

fc4.weight f4 [27, 64]
0	0xbdb46d68	-0.0880993
1	0x3dfa82b1	0.12231959
2	0xbe0a80c1	-0.13525678
3	0xbd7037ae	-0.05864685
4	0xbda10001	-0.07861329
5	0x3cfc5cfe	0.03080606
6	0xbe0cf974	-0.13767034
7	0x3d689249	0.056780133
8	0xbcce84c4	-0.025209792
9	0xbb8f270d	-0.004368669
10	0x3dcc6a47	0.09981208
11	0xbc1b1cef	-0.0094673475
12	0xbdaab264	-0.083348066
13	0xbdb7c88b	-0.089737974
14	0xbd9074f1	-0.07053555
15	0x3d216197	0.03939971
16	0xbde9a890	-0.11409104
17	0xbd1c0c11	-0.038097445
18	0xbd930121	-0.0717795
19	0x3d269a53	0.04067452
20	0xbda841df	-0.08215689
21	0xbd83ba79	-0.06432051
22	0xbd7c6e7c	-0.061628804
23	0x3d5fb9af	0.05462044
24	0xbe09fd4a	-0.13475528
25	0x3de4fc6d	0.11180959
26	0xbdeafcb8	-0.114739835
27	0x3e00dcb4	0.12584192
28	0x3d2c865d	0.042120326
29	0x3dd78d66	0.105250165
30	0x3e076cac	0.13225049
31	0xbdd03fda	-0.10168429
32	0x3e1c2562	0.15248635
33	0x3c11b971	0.00889431
34	0xbdd3771d	-0.103254534
35	0xbd4d1d10	-0.050076544
36	0x3d55acea	0.052166857
37	0xbcbe8440	-0.023256421
38	0x3cfb83f6	0.030702572
39	0xbc22c1a8	-0.009933867
40	0x3d8d32e3	0.068944715
41	0x3d9a74b5	0.07541791
42	0xbd17c586	-0.037053607
43	0xbd0b44e7	-0.034001257
44	0xbdbe4265	-0.092900075
45	0x3daa5b1c	0.08318159
46	0x3c17be20	0.009261638
47	0x3d4f46b1	0.050604526
48	0x3d2956bb	0.04134248
49	0x3cd106ca	0.025515933
50	0x3d118e30	0.03553599
51	0xbcc55d0f	-0.024092225
52	0x3cc50ce1	0.024053993
53	0x3d03ef0e	0.032210402
54	0x3d1b9bc5	0.03799035
55	0xbd487dda	-0.048948146
56	0xbdc234d3	-0.09482732
57	0x3d8b19f5	0.0679206
58	0xbd84580a	-0.064621046
59	0x3d87ed62	0.06637074
60	0x3b9f15ff	0.004854917
61	0x3dbf732f	0.093481414
62	0x3e077ab7	0.13230406
63	0xbd5f7e14	-0.054563597
64	0xbda6bb5b	-0.08141204
65	0xbe02d30f	-0.12775825
66	0xbdafd567	-0.08585625
67	0x3d693350	0.0569337
68	0x3d7aaff9	0.061202977
69	0x3db97ff1	0.09057606
70	0xbdcbfa59	-0.099598594
71	0x3d8226f1	0.06355084
72	0xbd273b9a	-0.040828325
73	0x3c20b62a	0.009809056
74	0x3e00882d	0.12551947
75	0x3cc0be0b	0.02352812
76	0x3d98512a	0.07437356
77	0x3db144d1	0.08655704
78	0xbe37a2b7	-0.17933165
79	0xbd6e992e	-0.058251552
80	0xbe1a52e2	-0.1507068
81	0x3d8ea71d	0.06965468
82	0xbd7f662e	-0.062353306
83	0xbd347307	-0.04405501
84	0xbde424c7	-0.11139827
85	0x3d631e9f	0.055449124
86	0xbb7c2d78	-0.003847925
87	0x3dc2e04c	0.095154375
88	0x3e089215	0.13336976
89	0x3de9b266	0.1141098
90	0x3dac230c	0.08405122
91	0xbd086a9f	-0.033304807
92	0xbd957f80	-0.07299709
93	0xbdb7c567	-0.089731984
94	0x3c959bc4	0.018262751
95	0x3d1c9945	0.038232107
96	0x3db582bd	0.08862827
97	0xbd897533	-0.06711807
98	0x3dea4ac5	0.114400424
99	0x3d2d2ca5	0.042278904
100	0x3e0f0637	0.13967215
101	0x3e0804b4	0.13283044
102	0x3d4e359d	0.0503441
103	0x3de50263	0.11182096
104	0x3d61d665	0.055136103
105	0xbdf212b3	-0.11819973
106	0x3dd8a214	0.10577789
107	0x3cfe2791	0.031024726
108	0xba2e749c	-0.00066549494
109	0xbd9dc21d	-0.0770304
110	0xbbddf0b6	-0.0067730797
111	0xbd8f0275	-0.069828905
112	0xbd67a01b	-0.056549173
113	0x3d7c4073	0.0615849
114	0xbca2f2c5	-0.019891152
115	0xbda4062e	-0.08008991
116	0xbdd61b02	-0.1045437
117	0x3e0832f1	0.13300683
118	0xbe043f12	-0.12914684
119	0xbdbbaab0	-0.091634154
120	0xbc2bb3c3	-0.01047987
121	0xbd085432	-0.03328342
122	0xbdc8ecdc	-0.09810802
123	0xbe00464f	-0.1252682
124	0xbdd4a973	-0.103838824
125	0x3d92c88a	0.07167156
126	0x3dc689f1	0.09694279
127	0x3d7189bd	0.058969248
128	0x3db01a99	0.08598823
129	0x3d803c54	0.06261507
130	0xbc4db75c	-0.012555923
131	0xbd6ddec3	-0.05807377
132	0x3d9236ae	0.071393356
133	0xbb2c21ca	-0.0026265257
134	0x3de52299	0.111882396
135	0xbd0a9810	-0.033836424
136	0x3dd7c8b2	0.105363265
137	0xbd6b2edc	-0.057417735
138	0xbe394bbe	-0.180953
139	0x3d7e665b	0.062109333
140	0x3e01d04a	0.12677112
141	0xbe136635	-0.14394458
142	0x3d413f92	0.047179766
143	0x3dd133bf	0.10214948
144	0xbd8f5485	-0.06998543
145	0x3dec9827	0.11552458
146	0xbdf5ac31	-0.119957335
147	0x3b7ebd1b	0.003887004
148	0xbda62bc3	-0.08113816
149	0xbc6418e8	-0.013921954
150	0xbe3053bb	-0.1721944
151	0x3dbde8ae	0.09272896
152	0x3e0a248f	0.13490508
153	0xbcdb179b	-0.026744654
154	0xbb48eff3	-0.00306606
155	0xbd950c65	-0.07277755
156	0xbd8f308b	-0.06991681
157	0x3e004815	0.12527497
158	0x3d6fa92c	0.058510944
159	0xbc74c5d6	-0.014939746
160	0xbdd83655	-0.10557238
161	0x3b029cc5	0.0019929868
162	0xbc3c878b	-0.011506925
163	0x3de7aac6	0.11311869
164	0xbd9a1118	-0.075227916
165	0x3c6d438e	0.014481438
166	0x3dd3e4c1	0.10346366
167	0x3dc7885f	0.097428076
168	0xbbf3acef	-0.007436387
169	0x3d2b3728	0.041800648
170	0xbd88d349	-0.066809244
171	0xbd62f68f	-0.055410918
172	0xbd28e0ba	-0.04122994
173	0x3b8d5ef1	0.0043142964
174	0xbdb6bb1b	-0.08922406
175	0xbd33c76c	-0.043891355
176	0x3db741ac	0.08948073
177	0x3d3df08b	0.046371978
178	0x3dd059e7	0.101733975
179	0x3e1c3120	0.15253115
180	0x3cd77eb6	0.026305538
181	0x3d9c82c5	0.0764213
182	0x3d71f66c	0.059072897
183	0xbca5ac13	-0.020223653
184	0x3d82e614	0.0639154
185	0xbdac2bec	-0.08406815
186	0xbbaba403	-0.0052380576
187	0xbc95efdb	-0.018302849
188	0x3d65a3ec	0.05606453
189	0x3ba97f08	0.005172614
190	0xbdbac594	-0.09119716
191	0xbdb18547	-0.08667999
192	0x3c3b31c0	0.011425436
193	0xbdcdf4c0	-0.10056448
194	0x3d18c73d	0.037299383
195	0x3d854037	0.06506389
196	0x3d981823	0.07426479
197	0xbc3e93e2	-0.011631938
198	0x3df4316d	0.1192349
199	0xbdb74876	-0.08949368
200	0x3c95d86a	0.01829167
201	0x3d45322d	0.048143554
202	0x3e11358d	0.14180584
203	0xbdb0d8fe	-0.08635138
204	0xbd41f286	-0.04735043
205	0x3d06fa0d	0.03295331
206	0xbd5a8f81	-0.053359512
207	0xbdbbc31d	-0.09168074
208	0x3e05bd6b	0.13060538
209	0xbdb52672	-0.088452235
210	0xbb5e0228	-0.0033875797
211	0x3dbbc415	0.09168259
212	0x3aceb4aa	0.0015770395
213	0x3d192fa1	0.037398938
214	0x3d037517	0.032094087
215	0xbdc75753	-0.09733453
216	0xbdc1a7f2	-0.09455861
217	0xbd8c4080	-0.0684824
218	0x3da28308	0.079351485
219	0x3d87c132	0.06628646
220	0xbd67f203	-0.056627285
221	0x3bd27d72	0.0064236457
222	0x3dc93696	0.098248646
223	0x3c384b5b	0.011248435
224	0xbd09a618	-0.033605665
225	0x3da11932	0.07866134
226	0xbcc50b5f	-0.024053274
227	0xbd3c1485	-0.045918006
228	0xbc139b76	-0.009009233
229	0x3d0a5c84	0.033779636
230	0xbda1679e	-0.078810915
231	0x3d9bd342	0.076086536
232	0x3d46e0de	0.048554294
233	0x3dd03b55	0.10167567
234	0xbdddd89c	-0.108323306
235	0xbd7a1efb	-0.0610647
236	0x3db3b6ce	0.087751016
237	0x3c925d2d	0.017866695
238	0xbdd77289	-0.10519893
239	0xbcd726fb	-0.026263705
240	0xbcfb4678	-0.03067325
241	0xbdad9634	-0.084759146
242	0xbe011c27	-0.12608396
243	0xbcb3bba6	-0.021940064
244	0x3b7d9d80	0.0038698614
245	0xbdea6453	-0.114449166
246	0x3da9c2a9	0.082890816
247	0x3dcfef85	0.101531066
248	0xbd4aba95	-0.049494345
249	0x3c0088ff	0.007845162
250	0xbdda33f5	-0.10654441
251	0xbdc960ba	-0.09832902
252	0xbd10a62f	-0.035314735
253	0x3d42996a	0.04750959
254	0x3d26b0a6	0.04069581
255	0x3b9ba761	0.0047501777

fc4.bias f4 [27]
0	0x3dc070bd	0.09396503
1	0xbdba3005	-0.0909119
2	0xbd58e368	-0.052951247
3	0x3de711ab	0.11282667
4	0x3d3fe5e2	0.046850093
5	0x3d7b4042	0.061340578
6	0xbde6fcd4	-0.11278692
7	0x3de6526a	0.11246188
8	0x3d7adb14	0.061244085
9	0xbe025cf4	-0.12730771
10	0x3dd147b5	0.10218755
11	0xbd2cd9a2	-0.04219974
12	0xbcbd22c8	-0.023087874
13	0x3c8e86c4	0.017398246
14	0x3debe2ab	0.11517843
15	0xbd09f65c	-0.033682212
16	0x3d814d66	0.06313591
17	0xbbc950dd	-0.006143673
18	0xbdc0a0ae	-0.09405647
19	0x3e019761	0.12655403
20	0x3dc194b4	0.09452191
21	0x3df6948e	0.12040053
22	0x3c98d2e9	0.018655257
23	0x3dc6a131	0.096987136
24	0xbdb26dc5	-0.08712343
25	0x3ce33b9f	0.02773839
26	0x3e0743f5	0.13209517
