src/cached_data/trained_models/model_20_30.pt (torch_old, 78702 bytes, 8 tensors)

fc1.weight f4 [64, 144]
-0.052423213 -0.06550318 -0.028151767 0.058785103 -0.045029424 0.003069528 -0.03022476 -0.050615113
-0.06986724 0.05544968 -0.022674691 -0.06516425 -0.07889752 -0.060579497 -0.039457817 -0.07205171
-0.02315807 0.018706402 0.071707405 -0.07656148 -0.0021969648 -0.033133265 0.020530216 -0.021735996
-0.055947203 -0.027523406 0.02221881 -0.016765479 0.013409939 0.06223146 0.037811685 0.04386894
0.017112004 0.050059147 -0.07168193 -0.0751129 -0.041362032 -0.025370233 -0.02186417 0.02976359
0.076013796 -0.052903313 -0.065528944 -0.06894375 -0.012123622 -0.040304538 -0.043192554 0.027841274
0.07391009 0.024417203 0.012324218 -0.07657688 -0.0064116865 -0.051372997 -0.0010571489 -0.03725833
0.015879268 -0.017737342 0.062644586 0.00028762294 0.029751875 -0.0837079 0.003644252 0.057361487
0.00461925 0.077683836 -0.039912995 0.08393084 0.06122159 0.07464576 0.0010026266 0.03786975
-0.0380972 -0.022423944 0.034980208 0.084290266 -0.042664073 0.02752645 0.006802572 -0.017664056
0.027554832 -0.01525524 -0.06547976 0.080084324 -0.07938304 0.05305129 0.02007773 -0.0588551
0.013072225 0.07003374 -0.030466503 -0.07770124 -0.07671954 -0.048734788 0.04636825 0.057716686
-0.002249283 0.04663885 0.03002282 -0.047639765 -0.0013764007 -0.04084255 -0.044823743 0.08145576
0.031661067 0.044787087 -0.009977949 -0.07690929 0.027938403 -0.026959773 -0.07745989 -0.006813277
-0.044915933 0.05477984 -0.062166683 -0.06521766 -0.07186768 -0.020818423 0.021118896 -0.05121716
0.052974924 -0.034783993 0.044228185 0.0018043986 0.03552947 -0.047370758 0.059638567 0.07470659
-0.080216415 0.02715837 0.06461353 -0.044337843 -0.028125977 0.038837325 0.0037825212 -0.07317563
-0.00938246 0.046658754 0.026354281 0.041992135 0.06815564 -0.012559613 -0.054218367 -0.0059174285
0.013029912 0.019525446 0.053385984 -0.06224998 -0.030311491 -0.040974025 0.050531674 -0.043617364
-0.054973718 -0.010433418 -0.04807424 0.057584923 -0.041319985 -0.027128797 -0.032116726 -0.062266182
0.0047859238 0.014134489 0.07359095 0.022339601 0.07724908 0.03622906 -0.05949641 0.0166015
-0.016979711 0.016960142 -0.016681619 0.02818083 0.044167623 0.07925064 0.052606072 -0.02130319
0.031188317 -0.06758849 -0.06678989 -0.06469784 -0.10259962 0.022825053 0.04658778 -0.09535114
-0.08236924 -0.05351535 0.052039947 -0.08048236 0.07947704 0.008541803 0.022011634 0.0052091517
0.02729066 0.012544809 -0.020253384 -0.008861788 -0.019039406 0.083350606 0.047690578 0.0726749
-0.06566028 -0.034444857 -0.026705049 -0.004667908 -0.015435427 0.019890083 0.0063603064 0.10905089
0.06485601 -0.07705021 -0.03951131 0.010858963 0.034670204 0.05297342 -0.036730416 0.015382663
-0.036756802 -0.069577016 -0.07637385 0.00012226748 -0.054782066 -0.023340445 -0.07253 -0.07508334
-0.0787499 0.0038644837 -0.021638624 -0.07327344 -0.024414422 0.11285054 0.12340292 0.065867335
-0.07005103 0.053518344 -0.06963588 0.083071314 0.03297509 -0.010228212 -0.06027406 -0.08446262
-0.076461874 0.07036128 0.054730132 0.069917195 -0.043363806 0.024931222 -0.090385735 0.021960026
0.07394071 0.025737682 -0.03708234 -0.064304635 0.053586975 -0.023137107 -0.032256808 0.064483866
00000000: b9b9 56bd 8826 86bd 899e e6bc a6c8 703d
00000010: c670 38bd 222a 493b ea99 f7bc cb51 4fbd
00000020: 8e16 8fbd 341f 633d 46c0 b9bc d674 85bd
00000030: 0695 a1bd 3522 78bd 859e 21bd d98f 93bd
00000040: feb5 bdbc 2b3e 993c 55db 923d 44cc 9cbd
00000050: f4fa 0fbb bfb6 07bd fc2e a83c b00f b2bc
00000060: e528 65bd c478 e1bc 3904 b63c c257 89bc
00000070: 5cb5 5b3c 6ae6 7e3d 6de0 1a3d ebaf 333d
00000080: 792e 8c3c d20a 4d3d facd 92bd cbd4 99bd
00000090: 3c6b 29bd 3cd5 cfbc 7d1c b3bc c6d2 f33c
000000a0: 1fad 9b3d 25b1 58bd 0a34 86bd 6132 8dbd
000000b0: 28a2 46bc 5f16 25bd adea 30bd 6213 e43c
000000c0: 2c5e 973d 9606 c83c 84eb 493c 57d4 9cbd
000000d0: 2019 d2bb 7e6c 52bd 0890 8aba 319c 18bd
000000e0: 3d15 823c e74d 91bc ce4b 803d 19cc 9639
000000f0: 34ba f33c 0c6f abbd 67d4 6e3b e1f3 6a3d
00000100: 145d 973b b418 9f3d cf7b 23bd efe3 ab3d
00000110: 7dc3 7a3d e0df 983d 916a 833a 501d 1b3d
00000120: cf0b 1cbd 6bb2 b7bc 6847 0f3d 60a0 ac3d
00000130: 86c0 2ebd 267f e13c 1ce8 de3b 36b4 90bc
00000140: acba e13c 1df1 79bc 411a 86bd 4003 a43d
00000150: 9393 a2bd 4f4c 593d 0d7a a43c 0c12 71bd
00000160: e32c 563c d96d 8f3d e394 f9bc d421 9fbd
00000170: 221f 9dbd 219e 47bd a2ec 3d3d 5568 6c3d
00000180: b568 13bb 6108 3f3d 6bf2 f53c ea21 43bd
00000190: 5868 b4ba 854a 27bd 1a99 37bd 47d2 a63d
000001a0: 09af 013d aa72 373d 8d7a 23bc 9e82 9dbd
000001b0: 14df e43c beda dcbc 4aa3 9ebd e941 dfbb
000001c0: c5f9 37bd d360 603d 7ea2 7ebd d690 85bd
000001d0: 5d2f 93bd 668b aabc 8901 ad3c 16c9 51bd
000001e0: 3cfc 583d a979 0ebd 9d28 353d 9281 ec3a
000001f0: 5987 113d d707 42bd 9247 743d c5ff 983d
00000200: 8148 a4bd 3b7b de3c 1954 843d 999b 35bd
00000210: 7368 e6bc e313 1f3d 2de4 773b 1bdd 95bd
00000220: e4b8 19bc 401d 3f3d efe4 d73c f2ff 2b3d
00000230: 2f95 8b3d d6c6 4dbc 1414 5ebd fde6 c1bb
00000240: 697b 553c d4f3 9f3c 43ab 5a3d d6f9 7ebd
00000250: ce4f f8bc 61d4 27bd 4dfa 4e3d 1fa8 32bd
00000260: 1f2c 61bd edf0 2abc 7fe9 44bd 2bde 6b3d
00000270: 253f 29bd 363d debc d48c 03bd d30a 7fbd
00000280: 3dd3 9c3b 5894 673c dab6 963d 8a01 b73c
00000290: c434 9e3d ec64 143d 82b2 73bd deff 873c
000002a0: 0919 8bbc ffef 8a3c e4a7 88bc 7cdb e63c
000002b0: 1ce9 343d 294e a23d 7779 573d 0784 aebc
000002c0: a47e ff3c d66b 8abd 23c9 88bd 4d80 84bd
000002d0: c01f d2bd 9bfb ba3c d4d2 3e3d 7547 c3bd
000002e0: 34b1 a8bd e932 5bbd d727 553d f0d3 a4bd
000002f0: dcc4 a23d ebf2 0b3c be51 b43c 88b1 aa3b
00000300: aa90 df3c be88 4d3c 6dea a5bc 0831 11bc
00000310: 87f8 9bbc b9b3 aa3d 3257 433d 94d6 943d
00000320: e678 86bd 0d16 0dbd 8cc4 dabc 40f5 98bb
00000330: e0e4 7cbc 87f0 a23c 1e6a d03b 1356 df3d
00000340: 3ad3 843d 80cc 9dbd 9dd6 21bd cbe9 313c
00000350: 5802 0e3d a8fa 583d a272 16bd 9107 7c3c
00000360: 4d8e 16bd 657e 8ebd e569 9cbd ed34 0039
00000370: 2963 60bd 7634 bfbc 9c8a 94bd 4bc5 99bd
00000380: a147 a1bd 4743 7d3b 7c43 b1bc 6310 96bd
00000390: c100 c8bc 2f1e e73d acba fc3d 74e5 863d
000003a0: ea76 8fbd 0d36 5b3d 429d 8ebd 4b21 aa3d
000003b0: e310 073d 3b94 27bc efe1 76bd bdfa acbd
000003c0: 0b98 9cbd 9319 903d b42c 603d bf30 8f3d
000003d0: 3f9e 31bd 903c cc3c 281c b9bd 83e5 b33c
000003e0: 3a6e 973d d5d7 d23c a7e3 17bd 26b2 83bd
000003f0: 047e 5b3d 088a bdbc b71f 04bd 1e10 843d

fc1.bias f4 [64]
-0.03028334 0.00028741988 -0.004694222 0.061174847 0.0750595 0.050638985 -0.04126132 -0.026890822
0.043829184 -0.079488 0.06124718 0.056340095 0.073957324 0.043439306 0.016668662 0.062244914
-0.0023216587 0.056225177 0.013232599 0.043890696 -0.07372864 0.0797716 0.03537336 -0.0050088167
-0.02928574 0.03789793 0.0034604438 -0.04964862 0.047987238 0.06209853 0.0011270309 0.030392561
-0.07332459 -0.07886902 0.08143756 0.056253735 -0.05818866 0.008632362 -0.041680258 0.050768405
0.018166805 -0.0058315713 0.073738545 -0.042162586 -0.042128135 0.0066076606 0.05319534 -0.033747543
-0.010222047 -0.025999522 -0.06903168 -0.016475363 0.0057144347 0.048849598 0.04842913 0.040038563
-0.07320896 0.04083956 0.02617126 0.08275182 0.017776297 0.06016893 0.053936556 0.05518975
00000000: c414 f8bc d8b0 9639 fdd1 99bb 7a92 7a3d
00000010: ccb8 993d d36a 4f3d a101 29bd 244a dcbc
00000020: 3b86 333d 9bca a2bd 53de 7a3d dfc4 663d
00000030: f076 973d 6aed 313d b88c 883c 86f4 7e3d
00000040: f826 18bb 5f4c 663d 8bcd 583c bbc6 333d
00000050: 0bff 96bd 4b5f a33d a8e3 103d 0021 a4bb
00000060: a6e8 efbc dc3a 1b3d 9dc8 623b 5a5c 4bbd
00000070: 448e 443d 075b 7e3d e2b8 933a d2f9 f83c
00000080: 342b 96bd 1586 a1bd bcc8 a63d 516a 663d
00000090: 3b57 6ebd c06e 0d3c ebb8 2abd 88f2 4f3d
000000a0: 8dd2 943c c416 bfbb 3c04 973d adb2 2cbd
000000b0: 8d8e 2cbd 1385 d83b 5be3 593d dd3a 0abd
000000c0: 5f7a 27bc f3fc d4bc 7b60 8dbd 57f7 86bc
000000d0: 2740 bb3b 8416 483d a05d 463d 7aff 233d
000000e0: 94ee 95bd 6247 273d 1c65 d63c c979 a93d
000000f0: 999f 913c b273 763d 94ec 5c3d a60e 623d

fc2.weight f4 [64, 64]
-0.041661695 0.15106094 0.10606832 0.06419204 0.07781553 0.07053587 -0.07994219 0.06356085
-0.14749509 -0.044223793 -0.10451801 -0.06641205 0.019591613 -0.0424337 -0.03747203 -0.11887416
-0.06191638 0.08905764 0.10752505 0.013764233 -0.12033948 -0.06330567 -0.13701637 0.104933195
-0.009907482 0.013775827 -0.09288407 -0.0809628 -0.06319433 0.11586526 -0.12318607 -0.051435925
0.04302131 -0.09416099 0.06882369 0.032272518 0.08103369 -0.027467072 -0.026854362 0.05909308
-0.05782476 0.09961647 -0.118855156 0.09036905 -0.13201408 0.044594463 0.07829493 0.092028946
0.008143045 -0.10750046 0.11621884 -0.046923313 -0.10464928 0.061445225 -0.05867011 0.012978138
0.00085676473 -0.075092025 0.032358814 -0.034674395 0.13469508 0.102890484 -0.05661849 -0.14470357
-0.056408364 0.024982192 -0.1117281 0.025831595 -0.06695205 0.058230963 0.011012083 -0.053660735
0.013591411 -0.13846985 -0.1093844 0.02118395 -0.08556064 -0.031445432 0.00714496 -0.061995264
0.092782564 0.028985376 0.0046958304 -0.0985976 -0.09033534 -0.10100533 -0.006362434 0.015333257
0.023938067 -0.055498686 0.019838236 -0.13177003 -0.117296696 0.09706671 0.07749299 0.009795355
0.08932956 0.028521454 0.02870594 0.1148058 -0.08568413 0.00025207785 -0.019689232 -0.1132886
-0.08330783 0.08423329 0.11384836 0.14736164 -0.08655724 0.13432978 0.016342295 0.050188717
0.038841456 -0.047643468 -0.007326768 -0.14431073 0.037829217 0.01682189 -0.067278236 0.0799228
-0.03326491 0.020052819 0.053840045 0.14581743 0.13018836 0.0462638 0.01768661 0.020288158
-0.08760686 -0.104234464 -0.00883505 0.091591425 0.12666427 0.09264919 -0.0040964726 0.012944222
-0.074291125 0.08189256 0.055531356 -0.10178808 0.011928523 -0.042124446 0.027958922 -0.076530896
0.0051348996 -0.08529189 0.066910274 0.14655225 -0.05851475 0.054161366 0.000709052 -0.008013156
0.046373248 -0.032000784 -0.071521774 0.07294929 -0.012984071 -0.012438551 0.041410588 0.0073028402
-0.09968173 0.10234558 0.08440867 -0.12793776 -0.09430565 0.051727057 -0.046666235 0.12294706
-0.06331264 -0.09951158 0.12378823 0.049867276 0.051987704 -0.067693315 0.022134831 0.0167248
-0.0723428 0.03370859 -0.12873195 -0.15774743 -0.07396108 0.02310487 -0.071763836 0.115674585
-0.02275578 -0.051791266 0.06403982 0.029788943 0.03883657 0.0127423 -0.11261133 0.05284253
0.093652144 -0.11641154 -0.042760246 -0.09461883 0.08324737 0.049207073 0.071560904 0.07745574
-0.02866121 -0.10353334 -0.008476635 -0.0062964982 0.09936399 -0.08213333 0.05594999 -0.08089276
-0.06582215 0.11389149 -0.06845903 0.0030998837 -0.093376964 -0.07108199 0.011242266 -0.043979023
-0.07675928 -0.05438817 -0.016349196 -0.04915255 0.034501985 -0.09014689 -0.08972377 -0.11237412
0.088939786 0.023448605 -0.08142088 -0.09539106 0.066211075 0.09757518 0.06816635 -0.12629725
0.12513581 0.10481135 0.053247616 0.044201545 -0.016099004 -0.046703067 0.05787003 0.080879316
-0.02012084 -0.050611705 0.11922863 0.066552415 0.008349298 -0.037700277 0.12075207 -0.064949796
-0.058566913 -0.07378142 0.0031480042 0.05896654 -0.053320363 -0.068409756 -0.03734903 0.061480995
00000000: 74a5 2abd b8af 1a3e 593a d93d 1e77 833d
00000010: c05d 9f3d 1c75 903d bbb8 a3bd 312c 823d
00000020: f408 17be 0224 35bd 8a0d d6bd 0a03 88bd
00000030: 977e a03c f6ce 2dbd 457c 19bd 4c74 f3bd
00000040: 089c 7dbd da63 b63d 1836 dc3d 6183 613c
00000050: 8c74 f6bd 67a6 81bd 054e 0cbe 37e7 d63d
00000060: fe52 22bc 02b4 613c 013a bebd d3cf a5bd
00000070: 076c 81bd c44a ed3d fa48 fcbd 7aae 52bd
00000080: 1d37 303d 7ad7 c0bd 6ff3 8c3d 3030 043d
00000090: fef4 a53d a002 e1bc aefd dbbc 960b 723d
000000a0: a8d9 6cbd b803 cc3d 556a f3bd 6913 b93d
000000b0: b32e 07be afa8 363d 1859 a03d ac79 bc3d
000000c0: 686a 053c 3429 dcbd 2504 ee3d a932 40bd
000000d0: 5d52 d6bd fdad 7b3d 1250 70bd 42a2 543c
000000e0: 8298 603a d9c9 99bd ad8a 043d bd06 0ebd
000000f0: 82ed 093e 3fb8 d23d cae8 67bd 2c2d 14be
00000100: 750c 67bd 74a7 cc3c b4d1 e4bd c89c d33c
00000110: 281e 89bd 9783 6e3d 066c 343c 5ccb 5bbd
00000120: 82ae 5e3c 0acb 0dbe ee04 e0bd f789 ad3c
00000130: 6b3a afbd edcc 00bd 4520 ea3b bfee 7dbd
00000140: c904 be3d bd72 ed3c 7bdf 993b 8aed c9bd
00000150: bc01 b9bd e2db cebd f77b d0bb 5738 7b3c
00000160: c419 c43c 9752 63bd cc83 a23c b9ee 06be
00000170: 4039 f0bd e9ca c63d a5b4 9e3d b27c 203c
00000180: 6bf2 b63d d3a5 e93c b828 eb3c 4e1f eb3d
00000190: 297b afbd 5129 8439 504b a1bc db03 e8bd
000001a0: 4c9d aabd 8182 ac3d 5429 e93d f8e5 163e
000001b0: ec44 b1bd bf8d 093e 47e0 853c af92 4d3d
000001c0: 3818 1f3d cc25 43bd 6215 f0bb 31c6 13be
000001d0: cff2 1a3d 0fce 893c 2cc9 89bd 91ae a33d
000001e0: c940 08bd cf45 a43c 6187 5c3d 2a51 153e
000001f0: 1950 053e 1c7f 3d3d 82e3 903c 5a33 a63c
00000200: 3a6b b3bd e178 d5bd e3c0 10bc 4994 bb3d
00000210: 47b4 013e dcbe bd3d b43b 86bb 0114 543c
00000220: f225 98bd 49b7 a73d d974 633d 4576 d0bd
00000230: da6f 433c af8a 2cbd 1c0a e53c 3bbc 9cbd
00000240: a942 a83b 84ad aebd 4108 893d cb11 163e
00000250: 2aad 6fbd 4fd8 5d3d addf 393a 9d49 03bc
00000260: e0f1 3d3d 4113 03bd 027a 92bd 7066 953d
00000270: 24bb 54bc 10cb 4bbc 269e 293d aa4c ef3b
00000280: ef25 ccbd 8f9a d13d 74de ac3d 1e02 03be
00000290: 5223 c1bd c0df 533d 1825 3fbd abcb fb3d
000002a0: 0faa 81bd bacc cbbd af84 fd3d a141 4c3d
000002b0: 0ff1 543d cba2 8abd 1b54 b53c 7302 893c
000002c0: 7628 94bd 0512 0a3d 4fd2 03be 8b88 21be
000002d0: e878 97bd 6d46 bd3c ebf8 92bd cce6 ec3d
000002e0: 546a babc 1423 54bd 4f27 833d f107 f43c
000002f0: 1813 1f3d 14c5 503c c5a0 e6bd 6971 583d
00000300: b2cc bf3d 2c69 eebd 5e25 2fbd 84c7 c1bd
00000310: 997d aa3d 5b8d 493d 868e 923d 1da1 9e3d
00000320: eaca eabc 4a09 d4bd 96e1 0abc db52 cebb
00000330: 597f cb3d 8535 a8bd d12b 653d 1aab a5bd
00000340: c3cd 86bd f13f e93d 3f34 8cbd 6b27 4b3b
00000350: 6c3c bfbd 6f93 91bd 7b31 383c 5923 34bd
00000360: f833 9dbd 21c6 5ebd c0ee 85bc 2f54 49bd
00000370: f451 0d3d ef9e b8bd 19c1 b7bd 6724 e6bd
00000380: 1026 b63d 4a17 c03c febf a6bd 635c c3bd
00000390: ac99 873d 7fd5 c73d cd9a 8b3d 1154 01be
000003a0: 9a23 003e 55a7 d63d 2c1a 5a3d ae0c 353d
000003b0: 0fe2 83bc b74b 3fbd 2009 6d3d 0ea4 a53d
000003c0: 76d4 a4bc 384e 4fbd 242e f43d a24c 883d
000003d0: 7ecb 083c 9b6b 1abd dc4c f73d 6604 85bd
000003e0: dce3 6fbd b71a 97bd bf4e 4e3b e686 713d
000003f0: 7466 5abd 6a1a 8cbd 4cfb 18bd 7fd3 7b3d

fc2.bias f4 [64]
0.109238684 0.06650647 -0.042178117 -0.09584682 0.105084226 -0.07031948 -0.030253815 0.02547988
0.01579963 0.08495484 -0.026526598 0.09368003 0.10312592 -0.1098202 0.032495458 -0.0575088
-0.08464928 0.06865737 0.08274657 -0.061240785 -0.054002088 0.02860513 0.05668352 0.021727642
-0.04815013 -0.03368327 -0.121815115 -0.06752596 -0.102072746 0.019420112 -0.013340039 0.059224695
0.11068197 -0.042675596 0.10520866 0.008631474 0.07861055 -0.061608035 -0.0900186 -0.06084787
0.017912686 0.08035828 0.03400268 0.015049996 -0.002393842 -0.029281368 0.122758254 -0.0022493964
0.09658705 -0.0054558963 0.035762463 -0.039770897 -0.07037552 0.015499314 0.094471104 -0.10542141
-0.020380829 0.09003745 -0.12127479 -0.0776685 -0.037717856 0.10060307 0.029160343 0.07294675
00000000: 88b8 df3d 8b34 883d f6c2 2cbd 564b c4bd
00000010: 6636 d73d a903 90bd d9d6 f7bc 2ebb d03c
00000020: 3a6e 813c cefc ad3d 4f4e d9bc 51db bf3d
00000030: af33 d33d 6ae9 e0bd f519 053d 598e 6bbd
00000040: 9a5c adbd 3c9c 8c3d 0977 a93d 9ed7 7abd
00000050: 4b31 5dbd 4e55 ea3c fb2c 683d 2bfe b13c
00000060: 1239 45bd 78f7 09bd 347a f9bd 0d4b 8abd
00000070: 840b d1bd ed16 9f3c 2e90 5abc 9895 723d
00000080: 3bad e23d 9bcc 2ebd a377 d73d 076b 0d3c
00000090: 91fe a03d b558 7cbd ac5b b8bd 9e3b 79bd
000000a0: a0bd 923c e292 a43d 6546 0b3d 4294 763c
000000b0: 01e2 1cbb 7bdf efbc ae68 fb3d 9c6a 13bb
000000c0: 6ecf c53d 60c7 b2bb a97b 123d cfe6 22bd
000000d0: 0a21 90bd d6f0 7d3c 117a c13d 2ee7 d7bd
000000e0: b2f5 a6bc 8e65 b83d eb5e f8bd aa10 9fbd
000000f0: 0a7e 1abd fb08 ce3d ace1 ee3c 1b65 953d

fc3.weight f4 [64, 64]
-0.13599983 -0.081372544 -0.078398384 0.07672476 -0.0051157693 -0.1133557 -0.06734444 -0.042929623
0.029371 0.05374978 0.030128567 -0.082986236 -0.07011152 -0.022640893 -0.011844831 -0.107925475
-0.07577785 0.086710155 -0.044786666 0.10708536 -0.077953905 -0.111090474 -0.020603033 0.12749588
0.030953724 -0.004454393 0.072051495 0.021139279 -0.0272403 0.09922931 0.0860911 0.028282806
-0.026875814 0.027664667 -0.07070493 0.10943106 -0.0037073775 -0.094037816 0.065852635 -0.047675442
-0.10347379 -0.0557352 -0.003686948 0.04314454 0.11834494 -0.04687832 0.0042875116 0.09144045
0.037635885 -0.03762057 -0.12809525 0.08704048 -0.08938502 0.124768004 0.13423644 0.010246602
0.026990147 -0.08408606 0.07294922 -0.11673167 -0.08250987 0.03784252 -0.10025152 -0.12123864
0.09920817 0.10486932 0.019078009 0.019723644 -0.07311244 0.02498159 0.06400469 -0.11561055
0.11888412 0.014868495 -0.09192079 0.024803033 -0.09091662 0.11529314 -0.051778894 0.084541485
-0.06585808 -0.064979665 0.053423375 -0.11289724 -0.09432075 -0.122977935 -0.069976054 -0.055760246
0.04335598 0.028930781 0.030887766 -0.009827076 0.019236933 -0.12832011 0.08996825 -0.032110266
0.010278965 0.05423646 -0.12021822 -0.068656825 -0.032705266 -0.111727215 -0.044613868 0.071090125
-0.081917815 0.10692119 -0.035655897 0.07632722 -0.040756647 -0.08825676 0.03177685 0.0735895
-0.09517598 -0.049147613 0.0065025315 -0.08904809 -0.04620168 0.11763616 -0.042082395 -0.0030521925
-0.1165756 -0.01063177 0.058358893 0.025822451 -0.01879852 0.03207626 -0.09785108 -0.09884726
-0.05545997 0.03145352 0.09699279 0.0460509 -0.01338412 -0.049309958 0.102733284 -0.08294053
0.11197891 -0.08666071 0.09210284 0.01632972 0.05059666 0.04544291 0.0026531522 -0.00027480497
-0.093034826 0.0038958013 0.08300129 -0.036817763 0.07600538 -0.039374772 0.12530184 -0.0677395
0.03857607 -0.10186023 0.0053644245 0.09047283 -0.112799756 0.123346575 -0.100737676 -0.099579394
-0.11472079 -0.07737135 -0.088651784 0.07443842 -0.06976417 -0.013696389 -0.057708956 -0.024162577
-0.0032506257 0.087543 -0.09564384 0.058832567 0.04943334 0.122439854 0.13518679 -0.050807152
0.02339831 0.07492447 0.08982126 -0.10122696 -0.0055269697 -0.02395573 0.067910865 0.10628143
-0.08246318 -0.047479976 0.06049301 -0.03323203 -0.121835515 -0.07150492 0.08715616 0.061182566
-0.09582661 0.08778714 -0.07253375 0.07328565 0.08123127 0.027936935 -0.07062975 -0.15652968
0.050862715 0.017352778 0.087464355 -0.092146896 -0.024738755 0.09699953 -0.06315125 0.096424185
-0.10618676 -0.07631263 -0.044680003 -0.055831518 0.10669116 -0.09209496 -0.073893465 -0.09124018
-0.119018674 0.11781323 0.07470434 -0.122236036 0.034464244 -0.13139723 0.05846263 0.04753896
-0.087749004 -0.100324735 -0.0069379127 0.03004435 0.064831145 -0.041916214 -0.11557193 -0.011264361
0.01730339 -0.10077104 0.097036116 0.11194313 -0.05874361 0.11033397 -0.07303516 -0.116836675
-0.042468064 -0.04064651 -0.044641517 -0.00076832675 -0.08256973 -0.09488386 0.031998497 -0.12056197
0.023991857 -0.10354157 -0.038661912 -0.053770315 -0.024927268 0.11885112 0.08192261 -0.04258514
00000000: 8a43 0bbe a6a6 a6bd 558f a0bd df21 9d3d
00000010: 2fa2 a7bb 0927 e8bd e2eb 89bd f9d6 2fbd
00000020: 749b f03c bb28 5c3d 2fd0 f63c b0f4 a9bd
00000030: a196 8fbd 6579 b9bc d210 42bc 0808 ddbd
00000040: 6b31 9bbd 1895 b13d 3972 37bd 924f db3d
00000050: 4ca6 9fbd 6783 e3bd b1c7 a8bc 488e 023e
00000060: aa92 fd3c 28f6 91bb bc8f 933d 482c ad3c
00000070: 0d27 dfbc bd38 cb3d 8850 b03d 58b1 e73c
00000080: ab2a dcbc 03a1 e23c bfcd 90bd 641d e03d
00000090: 79f7 72bb e696 c0bd bfdd 863d 5347 43bd
000000a0: 11ea d3bd 984a 64bd b9a0 71bb 54b8 303d
000000b0: d55e f23d 7b03 40bd 417e 8c3b 2145 bb3d
000000c0: 1628 1a3d 0718 1abd 672b 03be 4742 b23d
000000d0: 7e0f b7bd 5e86 ff3d 4775 093e 5de1 273c
000000e0: 711a dd3c 5035 acbd 6766 953d 0411 efbd
000000f0: effa a8bd c200 1b3d ab50 cdbd f74b f8bd
00000100: a72d cb3d bac5 d63d 7c49 9c3c 7b93 a13c
00000110: fabb 95bd 31a6 cc3c e414 833d 39c5 ecbd
00000120: 8479 f33d fd9a 733c f840 bcbd bb2f cb3c
00000130: 7e32 babd cf1e ec3d 1b16 54bd 1624 ad3d
00000140: 9ae0 86bd 0f14 85bd 78d2 5a3d ab36 e7bd
00000150: 3d2b c1bd dbdb fbbd 9b4f 8fbd db64 64bd
00000160: 0a96 313d 3f00 ed3c 5708 fd3c bf01 21bc
00000170: c696 9d3c 5966 03be 4641 b83d 0e86 03bd
00000180: 1b69 283c 0d27 5e3d f834 f6bd f39b 8cbd
00000190: f5f5 05bd 3dd1 e4bd 08bd 36bd b397 913d
000001a0: 87c4 a7bd 7ff9 da3d eb0b 12bd 7251 9c3d
000001b0: 71f0 26bd f6bf b4bd 7128 023d 17b6 963d
000001c0: a0eb c2bd 024f 49bd 3013 d53b d85e b6bd
000001d0: f93d 3dbd 3aeb f03d 975e 2cbd 4b07 48bb
000001e0: 30bf eebd e030 2ebc bc09 6f3d 9b89 d33c
000001f0: 5bff 99bc 6562 033d 2666 c8bd 6f70 cabd
00000200: fe29 63bd 68d5 003d 28a4 c63d de9f 3c3d
00000210: 1149 5bbc 3df9 49bd d465 d23d b9dc a9bd
00000220: 3355 e53d 2c7b b1bd 6aa0 bc3d e8c5 853c
00000230: 713e 4f3d 5822 3a3d 82e0 2d3b b313 90b9
00000240: 0b89 bebd b350 7f3b 95fc a93d 39ce 16bd
00000250: b5a8 9b3d 7147 21bd 204f 003e 02bb 8abd
00000260: f101 1e3d 199c d0bd 0ec8 af3b d249 b93d
00000270: 8f03 e7bd 219d fc3d 8e4f cebd 48f0 cbbd
00000280: bcf2 eabd df74 9ebd 118f b5bd 2c73 983d
00000290: 84e0 8ebd d266 60bc 3a60 6cbd 99f0 c5bc
000002a0: 7308 55bb bf49 b33d ebe0 c3bd 6bfa 703d
000002b0: 9d7a 4a3d bfc1 fa3d 686e 0a3e 291b 50bd
000002c0: d0ad bf3c 0072 993d 35f4 b73d 1550 cfbd
000002d0: 951b b5bb cf3e c4bc da14 8b3d 14aa d93d
000002e0: 75e2 a8bd 5d7a 42bd 85c7 773d 4f1e 08bd
000002f0: e684 f9bd 2c71 92bd ee7e b23d 929a 7a3d
00000300: be40 c4bd bec9 b33d 938c 94bd c916 963d
00000310: 955c a63d 00dc e43c 55a6 90bd 5149 20be
00000320: 6c55 503d 6a27 8e3c 8320 b33d 83b7 bcbd
00000330: eea8 cabc b1a7 c63d 7155 81bd 0b7a c53d
00000340: 7278 d9bd cc49 9cbd 6102 37bd 97af 64bd
00000350: e580 da3d 489c bcbd 7555 97bd 22dc babd
00000360: 10c0 f3bd 1048 f13d 97fe 983d e356 fabd
00000370: 612a 0d3d ff8c 06be 8376 6f3d 36b8 423d
00000380: c0b5 b3bd 0e77 cdbd 6e57 e3bb 921f f63c
00000390: 31c6 843d 56b0 2bbd fab0 ecbd 288e 38bc
000003a0: d7bf 8d3c 0c61 cebd dfba c63d 7142 e53d
000003b0: 249d 70bd c7f6 e13d 7593 95bd 1148 efbd
000003c0: fef2 2dbd f47c 26bd 06da 36bd 8969 49ba
000003d0: 521a a9bd 7852 c2bd db10 033d 32e9 f6bd
000003e0: 928a c43c 9a0d d4bd f45b 1ebd 433e 5cbd
000003f0: 4534 ccbc 3768 f33d 0bc7 a73d c16d 2ebd

fc3.bias f4 [64]
-0.108234935 -0.03520435 -0.035073686 -0.100021124 0.048345722 -0.044984832 -0.036843043 -0.028351748
0.05928271 -0.08434917 -0.064998135 0.01722359 0.118944705 0.018261086 0.014818084 -0.02094566
0.09482244 0.065587476 -0.11607656 -0.073832974 0.091889955 -0.01667882 -0.10818943 0.12062522
0.09637484 -0.11369712 -0.119177274 -0.012340311 0.02000625 0.052716717 0.11902985 0.06929281
-0.11514936 -0.11441656 0.037931178 0.06061401 0.09498798 -0.02780663 -0.0022723337 0.08359979
-0.059614614 0.062662445 0.09152662 -0.042553805 -0.0068364306 0.1251997 0.09003036 0.045936517
-0.09633049 0.08376533 0.06442633 0.10158636 0.005464948 -0.049996983 0.031479202 0.007940742
0.12468576 0.12710617 0.029932693 0.009527274 -0.0564119 -0.0783134 -0.11835794 -0.041624106
00000000: 47aa ddbd 7032 10bd 6da9 0fbd e0d7 ccbd
00000010: 2a06 463d 0442 38bd bbe8 16bd ed41 e8bc
00000020: 6dd2 723d 42bf acbd be1d 85bd 7c18 8d3c
00000030: 4899 f33d 4698 953c 8dc7 723c 3c96 abbc
00000040: 4432 c23d ba52 863d 8cb9 edbd be35 97bd
00000050: cd30 bc3d 05a2 88bc 6b92 ddbd 5b0a f73d
00000060: 2c60 c53d 09da e8bd 3713 f4bd 042f 4abc
00000070: 26e4 a33c 7ced 573d ecc5 f33d 64e9 8d3d
00000080: 6dd3 ebbd 3b53 eabd b95d 1b3d 6546 783d
00000090: 0f89 c23d bbca e3bc 6feb 14bb 5e36 ab3d
000000a0: 742e 74bd 2b55 803d 4f72 bb3d e64c 2ebd
000000b0: 2304 e0bb 5a34 003e d661 b83d ee27 3c3d
000000c0: ec48 c5bd 288d ab3d f4f1 833d 820c d03d
000000d0: 4e13 b33b a3c9 4cbd 56f0 003d e319 023c
000000e0: 3f5b ff3d 1f28 023e 6835 f53c 4918 1c3c
000000f0: 2a10 67bd c762 a0bd a665 f2bd 0a7e 2abd

fc4.weight f4 [27, 64]
0.019703045 -0.058045167 0.049235765 -0.010531512 0.081191815 0.05226502 0.008956081 0.0075441743
0.12237407 0.07620236 -0.098692715 0.11487136 -0.09012098 0.03138296 -0.10444724 -0.11262482
-0.12965165 -0.0034956748 -0.119102746 -0.03378847 0.12627721 0.013638165 -0.100426026 -0.052913394
0.08930528 0.06613325 -0.118506245 -0.007268829 -0.034626074 -0.033406675 -0.11979159 -0.077000625
-0.06475656 0.08128047 0.0076382775 0.110572115 0.09167701 -0.071495846 -0.008139735 -0.09132765
-0.028093098 -0.15226924 0.11245723 -0.097599596 0.06359632 0.086207 0.051744282 -0.000678252
-0.011840118 -0.046134274 -0.09868882 0.06281888 0.014594795 0.056230478 0.11776687 0.09100542
0.1502785 -0.11296868 0.096700825 0.15009852 0.018933017 -0.10928844 -0.06664538 0.086118534
-0.06828081 -0.0041978103 -0.06261476 -0.008325825 -0.048938878 -0.0997356 -0.1550395 0.15812369
-0.012168042 0.07674553 0.058383886 -0.106839724 0.037719343 -0.09489122 0.06674535 0.03029791
0.116617195 -0.09408427 0.063850686 -0.003123834 0.024863258 -0.068791896 -0.09280022 0.06135851
0.08192527 0.08413646 0.033807695 0.008701516 0.15055142 -0.03360487 0.00045571922 0.033715487
-0.034346763 0.0519298 0.10568116 -0.05380417 0.079027325 0.022208327 0.16353592 -0.08379028
0.0861454 -0.18493561 0.16495502 0.04302707 0.09400619 0.00809735 0.021534383 -0.012004368
0.047540523 -0.022919584 -0.014421069 0.12234008 -0.12197748 -0.0044271094 0.12084519 0.041661907
-0.10269175 0.011016306 -0.05856911 0.00580388 0.012068619 -0.02760143 0.005983786 0.04808899
-0.05693432 -0.035083525 0.075220995 0.06270542 0.036121987 0.016358204 0.03180234 -0.13437042
-0.08441423 0.05318758 -0.071505964 -0.04934714 0.12833908 0.033867452 -0.0795435 0.021080406
0.09519266 0.094736524 -0.046609133 -0.040155444 0.08995741 -0.09581045 -0.16388422 0.1486525
0.101076946 0.0619367 0.001742486 0.082319155 0.07805211 -0.110546455 0.09195866 -0.043113764
-0.080318354 0.06416163 -0.019551419 -0.00095516216 0.0907676 -0.072750024 0.08278722 -0.024143087
0.073489964 0.033469766 -0.027749557 0.003074965 0.027832907 0.084665745 0.08192927 -0.014228172
0.08116033 0.080069825 -0.03685408 -0.06827882 0.010718999 -0.08315517 -0.05739941 0.089466706
0.024376782 0.07196203 -0.12161056 -0.0870567 0.04677152 -0.07621499 0.09661229 0.06131431
-0.12221908 0.10469213 0.12120007 -0.08292968 0.0756626 -0.13944551 -0.049479466 -0.013502622
0.009735792 0.045474987 0.056398325 -0.09065435 0.07098138 0.0011450215 0.09557936 0.041887965
0.072233774 -0.013987028 -0.078600295 -0.16862422 -0.14085926 0.060791153 0.15830292 -0.028936837
0.095361724 -0.079430684 -0.0860803 0.07845043 -0.032269675 0.028258586 0.01653411 -0.044810783
0.10305018 0.008140921 0.0320319 -0.0391957 -0.008679461 0.12999769 0.11076993 0.055226658
0.021217154 -0.06476817 -0.12217101 -0.02988966 -0.1293356 -0.0025058477 0.11798468 -0.10435769
-0.11846752 -0.12023582 -0.09172097 0.05973446 0.09448044 0.06963114 0.045262218 -0.009906515
0.0113913175 0.02414987 0.010585513 -0.0029411304 0.039578617 0.0070927995 0.1067343 0.019003728
00000000: 4868 a13c c5c0 6dbd 71ab 493d 5d8c 2cbc
00000010: e547 a63d d813 563d 87bc 123c 1f35 f73b
00000020: 429f fa3d fc0f 9c3d 681f cabd ad41 eb3d
00000030: 5991 b8bd 6b8b 003d 6fe8 d5bd d7a7 e6bd
00000040: 67c3 04be b117 65bb 24ec f3bd c765 0abd
00000050: d04e 013e 9c72 5f3c 29ac cdbd b7bb 58bd
00000060: b0e5 b63d df70 873d 67b3 f2bd 5b2f eebb
00000070: 12d4 0dbd 70d5 08bd 4b55 f5bd 81b2 9dbd
00000080: 169f 84bd 6076 a63d 844a fa3b a273 e23d
00000090: 28c1 bb3d 6a6c 92bd 865c 05bc fe09 bbbd
000000a0: 7f23 e6bc 78ec 1bbe fa4f e63d 4ce2 c7bd
000000b0: ca3e 823d 4c8d b03d d0f1 533d b9cc 31ba
000000c0: 0efd 41bc 4bf7 3cbd 5d1d cabd 2fa7 803d
000000d0: 021f 6f3c ee51 663d c22f f13d 0d61 ba3d
000000e0: 9be2 193e 205c e7bd 150b c63d 6db3 193e
000000f0: 6a19 9b3c 9ed2 dfbd 5f7d 88bd ea5e b03d
00000100: cfd6 8bbd c98d 89bb 2b3c 80bd 0b69 08bc
00000110: 2274 48bd 2e42 ccbd adc2 1ebe 2deb 213e
00000120: 785c 47bc c32c 9d3d f123 6f3d c9ce dabd
00000130: 997f 1a3d 5456 c2bd c9b1 883d 5333 f83c
00000140: ffd4 ee3d 41af c0bd 26c4 823d 3db9 4cbb
00000150: 08ae cb3c c4e2 8cbd 0b0e bebd 1053 7b3d
00000160: 70c8 a73d bd4f ac3d f079 0a3d ce90 0e3c
00000170: 272a 1a3e 43a5 09bd 99ed ee39 4019 0a3d
00000180: 31af 0cbd 58b4 543d 5d6f d83d c361 5cbd
00000190: 14d9 a13d 3dee b53c f675 273e 3d9a abbd
000001a0: 006d b03d c35f 3dbe f8e9 283e 273d 303d
000001b0: 5186 c03d bfaa 043c e068 b03c f8ad 44bc
000001c0: dab9 423d dac1 bbbc 5946 6cbc 708d fa3d
000001d0: 54cf f9bd 4911 91bb af7d f73d ada5 2a3d
000001e0: 0d50 d2bd bc7d 343c 2ae6 6fbd 792e be3b
000001f0: 75bb 453c 651c e2bc a313 c43b f6f8 443d
00000200: f633 69bd beb3 0fbd 770d 9a3d b36b 803d
00000210: a6f4 133d a401 863c 2c43 023d 6698 09be
00000220: 5ee1 acbd 38db 593d b871 92bd 3a20 4abd
00000230: 526b 033e 99b8 0a3d b4e7 a2bd d1b0 ac3c
00000240: 5ff4 c23d 3905 c23d 38e9 3ebd 097a 24bd
00000250: 973b b83d 4538 c4bd 44d1 27be 5c38 183e
00000260: 6e01 cf3d 56b1 7d3d 2164 e43a f296 a83d
00000270: c9d9 9f3d 2e66 e2bd d254 bc3d 0f98 30bd
00000280: f37d a4bd 2c67 833d 4c2a a0bc d963 7aba
00000290: 5de4 b93d f7fd 94bd 598c a93d b9c7 c5bc
000002a0: e881 963d 9817 093d 0a53 e3bc 5a85 493b
000002b0: d601 e43c 3c65 ad3d 88ca a73d 471d 69bc
000002c0: 6337 a63d a6fb a33d 4ef4 16bd c4d5 8bbd
000002d0: be9e 2f3c 424d aabd a51b 6bbd 523a b73d
000002e0: d1b1 c73c d460 933d f50e f9bd c84a b2bd
000002f0: 7e93 3f3d 9b16 9cbd aadc c53d b724 7b3d
00000300: ff4d fabd d468 d63d be37 f83d 09d7 a9bd
00000310: fef4 9a3d ceca 0ebe fbaa 4abd 1a3a 5dbc
00000320: df82 1f3c fb43 3a3d ee01 673d fda8 b9bd
00000330: b05e 913d 8c14 963a 1dbf c33d b792 2b3d
00000340: 4def 933d d929 65bc 31f9 a0bd d4ab 2cbe
00000350: 693d 10be 2500 793d 291a 223e f20c edbc
00000360: 024d c33d 8eac a2bd de4a b0bd 9eaa a03d
00000370: 352d 04bd 8d7e e73c 8b72 873c 838b 37bd
00000380: f90b d33d 7f61 053c e233 033d ac8b 20bd
00000390: 4c34 0ebc 1d1e 053e 58db e23d 5935 623d
000003a0: 99cf ad3c 2da5 84bd cb34 fabd 29db f4bc
000003b0: 8d70 04be 2639 24bb f4a1 f13d 7cb9 d5bd
000003c0: 199f f2bd 333e f6bd 34d8 bbbd 1fac 743d
000003d0: f67e c13d c59a 8e3d e064 393d ef4e 22bc
000003e0: a6a2 3a3c f3d5 c53c dc6e 2d3c fbbf 40bb
000003f0: 301d 223d b76a e83b 8397 da3d b5ad 9b3c

fc4.bias f4 [27]
-0.027042171 0.021059373 -0.15225676 0.08360207 -0.065878406 0.09563326 0.02573139 0.079645775
0.05415938 -0.025372373 -0.11474974 0.115499526 -0.0744579 -0.06612521 -0.09992646 0.021569397
0.105590686 0.011130881 0.044589814 -0.032568485 0.089392275 0.07860012 -0.029375952 0.05805734
-0.08869182 -0.004881672 0.13530363
00000000: 8b87 ddbc b584 ac3c 32e9 1bbe 9037 ab3d
00000010: 42eb 86bd 5fdb c33d a3ca d23c 531d a33d
00000020: 3ad6 5d3d b9d9 cfbc e901 ebbd 048b ec3d
00000030: 627d 98bd a76c 87bd 3ea6 ccbd 4eb2 b03c
00000040: ee3f d83d 4c5e 363c cfa3 363d 8866 05bd
00000050: 4c13 b73d 1af9 a03d d6a5 f0bc 89cd 6d3d
00000060: 0fa4 b5bd 6ff6 9fbb 098d 0a3e
