src/cached_data/trained_models/model_10_16.pt (torch_old, 103166 bytes, 8 tensors)

fc1.weight f4 [64, 240]
000000 d2 a0 5e bd ba 80 5f 3b 32 34 1b bd 1f a0 9f 3a
       -0.05435259 0.0034103827 -0.037891574 0.0012178457
000010 e4 91 5d bd 48 6e 49 bc 26 e1 44 3c a8 25 b4 bc
       -0.05409421 -0.0122943595 0.01201657 -0.021990612
000020 c5 91 5f 3d 58 fa 45 3c 58 bf d6 3b 36 f2 23 3d
       0.054582376 0.012083612 0.0065535717 0.040025912
000030 92 2d e1 bb be 15 39 3d 84 c6 c2 bc a2 3a 06 3d
       -0.0068718875 0.04518675 -0.0237763 0.03277076
000040 bc e6 07 3d 6f 76 cf bc 4e c7 91 bd 6d e8 24 bd
       0.03317903 -0.025325028 -0.071180925 -0.04026072
000050 88 b6 80 bd 7e 58 12 3d 80 54 3d bd 9c 34 5d 3c
       -0.06284815 0.035728924 -0.046223164 0.013501313
000060 b3 4c 04 3d ed 2a 56 bd 47 5e 27 bd fd e3 50 bc
       0.03229971 -0.05228703 -0.040861394 -0.012749669
000070 e2 1e 7c bd 6b 4e 04 bb fc d8 18 bd e0 f1 81 bd
       -0.06155289 -0.0020188342 -0.037316307 -0.06344962
000080 08 ff 00 bb 7c 16 32 3d 65 66 44 3b 80 ff 4a 3c
       -0.001968326 0.043478474 0.0029968258 0.0123900175
000090 f2 6c 34 bd 0e 18 00 3d 14 19 39 3d 3a 4c 30 bd
       -0.04404921 0.03127294 0.045189932 -0.043041445
0000a0 d8 12 6c 3c 0e 92 de 3a 66 77 3f bc 60 16 5c bd
       0.01440879 0.0016980784 -0.011686182 -0.053732276
0000b0 ad f0 c6 bc dd 11 21 bd 01 85 e8 3c 5d b3 32 3d
       -0.024284685 -0.039323676 0.028383734 0.043628085
0000c0 3d ee 80 bd 7f a2 24 3d e3 e4 49 3d 2d c3 d1 bc
       -0.0629544 0.04019403 0.04929055 -0.025605762
0000d0 75 5e 08 bc 5f c9 4d 3b c2 01 19 bd f5 c8 51 3d
       -0.008323302 0.0031400544 -0.037355192 0.05121704
0000e0 11 a8 cf 3c 08 47 a9 3c 40 a6 25 bd 80 c7 81 bc
       0.025348695 0.020663753 -0.04044175 -0.0158422
0000f0 97 45 fc 3c 70 46 b7 3b 87 c2 6f 3c 4f 7b 08 bd
       0.030794902 0.0055931136 0.014633781 -0.03332072
000100 ec 1d e3 3c ec 76 34 bd e0 6a 28 3d 7c 58 88 3d
       0.027724229 -0.044058725 0.04111755 0.06657502
000110 54 01 dc 3c 29 e0 5c 3d 88 2c e8 b9 3d fe 2b 3c
       0.026856102 0.053924713 -0.00044283667 0.010497627
000120 a1 d3 ae 3c cd 80 ca 3b 1a bb 23 3d 90 e9 c3 3b
       0.021341147 0.006179905 0.039973356 0.0059787706
000130 8f f3 2f ba 13 91 3d 3d 1d ba 10 bd e8 d4 b3 bc
       -0.0006712013 0.04628093 -0.03533374 -0.021952108
000140 01 55 59 bd 04 eb ac bb f6 f6 bd bc 1b 17 82 3c
       -0.05305958 -0.0052770395 -0.02318905 0.015880158
000150 5f 1d e0 bc 72 5f 7b bd fe 16 ed bc d3 12 64 3d
       -0.027357755 -0.06137032 -0.028941628 0.055682015
000160 96 f0 0a 3c a3 dd b0 ba 49 3c 5c 3d b3 47 75 bc
       0.008480212 -0.0013493787 0.05376843 -0.014970708
000170 f8 b8 8a bd 3d ea 90 3b 52 fd 7b bd 8a 9f 84 3b
       -0.06773561 0.0044224546 -0.061520882 0.004047339
000180 00 e6 0a 3d 83 f1 41 bd fc aa 5e bc 5e 46 82 bd
       0.03391075 -0.047349464 -0.013590571 -0.06361078
000190 59 fb 67 bd e8 92 15 3d 22 76 7e bd 57 91 9f 3c
       -0.05663619 0.036517054 -0.06212438 0.019478483
0001a0 25 cf 6d bc 05 b7 0d bd 22 b0 0d 3d 2a f1 8d bb
       -0.014514719 -0.03459837 0.0345918 -0.0043317275
0001b0 2d 27 e7 bc 1b 93 76 3c d2 1f 31 bc e2 0c 7a bd
       -0.028216923 0.015049721 -0.010810809 -0.061047442
0001c0 af f5 75 bd 93 ea 13 bb 97 c9 dd bc 0e 66 59 3d
       -0.060048755 -0.0022570237 -0.027073665 0.053075843
0001d0 bf 3a db bc c9 db a2 3c 02 e8 5a 3d 29 37 22 3d
       -0.02676141 0.019880192 0.053443916 0.039603386
0001e0 9c 99 66 3c 26 d0 69 bd 56 21 f9 3c bc 9d 40 bc
       0.014074709 -0.05708327 0.030411404 -0.011756357
0001f0 4b 00 d2 3c a4 22 7d 3c 9c e9 75 3d 35 f7 5a 3d
       0.025634905 0.0154501535 0.06003724 0.05345841
000200 98 b4 4e 3d 32 fe 2a bd fb 51 cc ba 1b 73 29 bd
       0.050465196 -0.041746326 -0.0015588397 -0.04136954
000210 0f 4a 4e bd 83 a1 d3 3c d7 88 63 3d fc 5c b6 3b
       -0.050363597 0.02583385 0.055550423 0.005565284
000220 0f 83 e8 bb 55 a4 3e 3d 89 1f f3 bc 5f 83 0c bd
       -0.0070957015 0.046543438 -0.029678123 -0.034304973
000230 7c ac 6f 3d 67 c8 64 3c 29 3a ee bc dc ad fe 3b
       0.058514103 0.013963795 -0.029080467 0.0077721905
000240 b6 03 b6 bc f4 e1 7d 3d f6 03 42 bd c3 68 84 3b
       -0.022218566 0.061983064 -0.04736706 0.004040809
000250 f9 0c 6b 3d 8b 02 70 3d f0 6c 79 3d 23 f5 27 bc
       0.05738542 0.058596175 0.060894907 -0.010251316
000260 29 46 8e ba 2f 51 62 bd 17 5d a4 3c 5f 9a 94 bb
       -0.001085465 -0.055253204 0.02006392 -0.004535004
000270 ca 39 0f 3b e2 14 72 bd 5f 1c 7a bd 39 8c 81 bc
       0.0021854513 -0.059101947 -0.061062213 -0.015813934
000280 d6 9c a9 bc b6 be d7 bc 25 a6 81 bc 7b fa 85 3c
       -0.020704668 -0.026336055 -0.015826294 0.01635479
000290 51 d8 35 3d fb 9e 7e 3d aa 05 99 bb fd ff 8e bc
       0.04439575 0.062163334 -0.0046698647 -0.01745605
0002a0 91 0d 91 3d 1a 54 cc bc df 30 93 3c 3e 50 87 3d
       0.07082666 -0.024942447 0.01796764 0.06607102
0002b0 fb 40 0a bd 63 1c 60 bd 26 be 74 bc 38 3d b9 3c
       -0.033753376 -0.05471457 -0.014937913 0.0226122
0002c0 6a 56 47 3d 00 ad 07 3d 5d 52 1f bd 3c 9a 78 3d
       0.048666395 0.03312397 -0.038896907 0.060693964
0002d0 9e 4e 4b 3d 8a 99 61 3d 15 83 94 3c ea 91 78 bc
       0.049635522 0.055078067 0.018128911 -0.015171507
0002e0 b2 d9 d1 3c 5e e8 bd b9 cf de bd bc ef dd 12 bc
       0.0256165 -0.00036222016 -0.023177532 -0.008964046
0002f0 eb 75 d7 3c de a7 9d bc f3 43 54 bd ce 83 2c 3d
       0.026301345 -0.019245084 -0.051822614 0.042117886
000300 78 87 30 3d 21 9c d8 bc cd bc 8e bd 2e 00 82 3c
       0.043097943 -0.026441636 -0.06969605 0.015869226
000310 33 87 85 39 f2 46 0b 3d de c9 81 bc 2d 77 58 bd
       0.00025468468 0.034003206 -0.015843328 -0.05284803
000320 63 b0 cb bc 4f 18 4b 3d 5a 27 82 bd 93 72 43 3d
       -0.024864381 0.04958373 -0.06355162 0.04771669
000330 30 c7 76 bd a9 c0 4a bd 81 59 21 bd 9b 2e 83 bb
       -0.060248554 -0.04950014 -0.039392 -0.0040033585
000340 9a c3 59 bb 0d ae 3b 3d e8 89 ec bb 0e c4 62 bc
       -0.003322816 0.045820285 -0.007218588 -0.013840688
000350 97 24 7d 3d 03 17 ce bc aa 36 2c 3b 85 42 49 bd
       0.061802473 -0.025157457 0.00262777 -0.049135704
000360 33 50 26 3c 54 35 8c 3c b5 8f ed 3c 6d 1c 1b bd
       0.010150957 0.017115273 0.028999189 -0.037868906
000370 16 af 41 3d b1 c2 03 3d 7e 4d 06 bd 34 48 21 bd
       0.047286116 0.032168094 -0.032788746 -0.0393755
000380 49 7c 55 bd c1 3a bf 3c 50 cf c1 3b 27 b5 86 bd
       -0.05212048 0.023343446 0.005914606 -0.06577521
000390 03 25 a8 bc b4 9f 24 bd 71 dc 69 3c 2b 3a 76 bc
       -0.020525461 -0.040191367 0.014273749 -0.015028517
0003a0 ce 25 0b 3c 48 74 27 3c 4e cf 2d bd a0 3f 2c bd
       0.0084929 0.010220595 -0.04243403 -0.042052865
0003b0 0f d4 50 3d c7 81 60 3c 7f a8 0e 3d c9 24 60 3b
       0.050983485 0.013702816 0.03482866 0.0034201613
0003c0 a6 e2 cd bb 66 fb e6 bb 5d 0f 1c 3d 20 c4 26 3d
       -0.006283122 -0.007049012 0.03810059 0.040714383
0003d0 c3 ee 14 3b 47 52 18 3d 79 1d 64 bb 93 e6 7f 3b
       0.002272532 0.03718784 -0.0034807606 0.0039047345
0003e0 52 3f cd 3c 07 c6 16 bc f8 4d 2e 3d 37 a8 6c 3b
       0.025054608 -0.009202487 0.042554826 0.0036111006
0003f0 7a 2e e0 3b ec 44 40 bd cf 0a 5b bc 5b cc 92 bc
       0.006841478 -0.04694073 -0.013369276 -0.01791971

fc1.bias f4 [64]
000000 eb 35 04 3c 4a d9 8b 3a 63 a9 07 bc 30 1d 37 3d
       0.008069496 0.0010669616 -0.008280131 0.04470557
000010 8c b1 45 bd 71 1e 9e 3b d7 d8 4c 3d f7 5d 8a 3c
       -0.048265025 0.0048254062 0.050011482 0.016890509
000020 5e 8c 10 3d b2 0c 78 ba 8d e5 7f bd a2 d7 78 bc
       0.035290115 -0.0009462341 -0.062474776 -0.01518813
000030 c4 03 78 bd c1 69 0d bc e7 45 a0 bc 33 16 7f bb
       -0.060550466 -0.008631171 -0.019564582 -0.0038923144
000040 0a d1 f0 3c bc 5b dc 3c 3f 0a 59 3d c2 19 51 3d
       0.029396553 0.026899211 0.052988287 0.051049955
000050 df e2 0a bd dc c8 80 3d 88 9d 6d 3d e6 25 81 3d
       -0.033907767 0.06288311 0.05801156 0.06306057
000060 46 95 00 3c d2 42 61 3d 42 66 f5 3c 52 2a 70 3d
       0.00784809 0.054995365 0.029955987 0.05863411
000070 04 38 90 bc d6 06 2e 3d 81 2b ee 3c 08 ad 1a bd
       -0.017604835 0.042486988 0.029073479 -0.03776267
000080 eb 18 61 bd 2e 21 5f 3d 92 82 e2 bc c5 e6 d0 bc
       -0.054955404 0.054475002 -0.027650151 -0.025500664
000090 08 12 d2 3c 9b 51 c6 3c 56 58 83 bd 17 d0 57 bd
       0.025643364 0.024208834 -0.06413333 -0.052688684
0000a0 7d ea 59 3c 89 84 19 3d 05 6e 77 3d b4 ec 67 3c
       0.013300535 0.03747991 0.060407657 0.0141555555
0000b0 0a 9d 18 3c 0f 48 f3 bb d4 59 e4 3b 4e be 09 bd
       0.009314785 -0.0074243615 0.006968716 -0.033628754
0000c0 5a 42 a8 3b 21 ab 44 3d 94 76 80 3d 7f 41 3c 3d
       0.005134863 0.048014764 0.06272617 0.0459609
0000d0 03 af 23 b9 8d d1 32 3d b4 5d b9 3c 40 37 54 3d
       -0.00015610088 0.043656874 0.022627689 0.051810503
0000e0 4e 9d 05 bd fc 56 5d bc c7 3f 77 bd 9c ce 90 bc
       -0.03262072 -0.013509508 -0.060363557 -0.017676644
0000f0 d6 c5 05 bd 59 12 7e bd e4 b0 7b bd 6f 07 41 3d
       -0.032659374 -0.062029216 -0.061447993 0.04712623

fc2.weight f4 [64, 64]
000000 a3 31 cf 3d be 88 aa bd 93 4a 68 3c fe 1f 0f 3c
       0.10116889 -0.08326863 0.014177936 0.008735655
000010 c6 0f 1a bd 8b 31 e1 3d c5 2f 17 3d c4 30 fb 3d
       -0.0376127 0.10995778 0.03691079 0.12265161
000020 52 2b f6 3a d8 4a 9a 3d 94 2d bb 3d 91 e5 11 3c
       0.0018781221 0.075338066 0.09139553 0.008904831
000030 0f 7b 81 3d 75 d4 fd bc db 0f fe bd e9 31 88 3d
       0.063223 -0.030985096 -0.12405368 0.066501446
000040 dd 08 0a bc 71 25 4a 3d 24 3e 09 be 2d 45 00 3e
       -0.008424965 0.049352113 -0.13402611 0.12526388
000050 a8 bc 7d 3d 2e f3 ac 3d a3 22 b6 3d cb e2 86 3d
       0.061947495 0.0844482 0.08893325 0.06586226
000060 77 41 b7 bd 1f 7a e4 bd 3b 30 d2 bd 3d b8 6a bd
       -0.08948033 -0.11156105 -0.102631055 -0.05730461
000070 36 c2 20 3d f0 3d 95 3d da 42 a1 3d 87 87 56 bd
       0.039247714 0.07287204 0.07874079 -0.052375343
000080 6f 1b b3 bc 23 9f 3d bd 40 38 00 be 29 dc c0 3d
       -0.021863667 -0.046294343 -0.12521458 0.09416992
000090 6a c9 c7 3d 68 ed eb 3d 02 35 0e 3d e5 9e 8b 3d
       0.097552136 0.11519891 0.03471852 0.06817416
0000a0 64 39 3d bd d2 e0 b1 bc 55 e8 23 bd 6c 41 a9 3c
       -0.04619731 -0.021713648 -0.04001649 0.020661078
0000b0 f0 8e ac bd cd 70 75 3d d0 1a 97 3d 50 46 6d bc
       -0.08425701 0.05992203 0.07378161 -0.014482096
0000c0 99 73 a0 bc 9b 38 04 be ff 85 88 3d 6e 28 a7 3d
       -0.019586371 -0.12912218 0.06666183 0.08162008
0000d0 b4 e8 29 3d 1c eb 8b 3b 99 20 35 bb a7 b5 f4 bd
       0.04148169 0.0042699706 -0.0027637838 -0.1194871
0000e0 7d 65 62 bc 77 91 73 3d 42 fc ad 3c ef a4 b6 bd
       -0.013818142 0.059464898 0.02123845 -0.08918177
0000f0 d1 a7 07 3b 0e c6 e1 3d fb c9 c8 3c 41 c4 8c bd
       0.0020699392 0.11024104 0.024510374 -0.0687337
000100 b1 74 e0 3d 62 7a 05 3d 67 12 eb bd aa aa 7b bd
       0.10959757 0.032587416 -0.11478119 -0.061442055
000110 ad ab 60 3d e0 f9 d8 3d 82 88 ec 3d d9 47 b4 bd
       0.054851223 0.10594535 0.11549474 -0.08802766
000120 9a f3 2c bc 61 e5 b5 bc 8c b1 f1 bd fe 90 f8 3b
       -0.010556126 -0.022204103 -0.118014425 0.007585644
000130 b4 cb cc 3d 53 1f d1 3b 36 d6 ea bc 06 39 c6 3d
       0.09999791 0.006381908 -0.028666597 0.09678845
000140 1d cf 18 3c 46 eb 36 bd 1b f1 13 3e e8 1f 1d 3d
       0.009326723 -0.044657968 0.14447443 0.038360506
000150 88 cc 69 bd 9d 1c d1 bc 36 6c 71 bd 6b 05 0b 3d
       -0.05707982 -0.02552634 -0.05894109 0.033940714
000160 aa 74 b0 bd 3b 99 ef 3d a4 6b e6 3c 24 38 a4 bd
       -0.08616002 0.11699148 0.028127499 -0.080185205
000170 fb c7 8f 3c 92 93 e8 bd 58 3f 29 bd 0e ed fc 3d
       0.017551413 -0.11356272 -0.041320175 0.12349902
000180 be c9 c1 3d 02 88 df 3d 04 96 e5 bd 7e 0b 34 bd
       0.094623074 0.10914613 -0.11210254 -0.043956272
000190 7a b6 54 3c 1a 48 ce 3d d8 22 97 3d 93 de c7 bc
       0.012982959 0.10072346 0.07379693 -0.024398124
0001a0 75 a0 dc bd 82 49 b8 3d 52 dc 69 3d d0 47 8b 3d
       -0.10772792 0.089983955 0.05709488 0.068008065
0001b0 5b 3d af bc af 3f c0 3a 82 19 69 bd 05 80 78 3d
       -0.021391561 0.0014667417 -0.05690909 0.060668964
0001c0 7c 16 53 bd 98 85 cd 3d 62 5f bf bc 71 c9 77 3d
       -0.051535115 0.100352466 -0.023360912 0.060494844
0001d0 74 b9 e2 bd 7c e8 32 3c c3 bd fc 3d 2d 15 85 3d
       -0.110705286 0.010919686 0.12340882 0.064981796
0001e0 71 63 31 3c 2e 9e 97 bc df e8 46 3d e4 cd f4 bd
       0.010826931 -0.018508043 0.048561927 -0.11953333
0001f0 ce 25 b4 3d ee 79 6d 3d 70 de 81 bd 85 71 04 bd
       0.08796273 0.05797761 -0.06341255 -0.032334823
000200 67 e4 bb bd 46 a9 86 bd 78 55 a9 3d 73 63 45 3d
       -0.09174424 -0.06575255 0.08268255 0.048190545
000210 39 b6 33 bc d6 4d 5c 3d a2 32 17 bd 74 bf 84 bc
       -0.010968738 0.053785168 -0.03691352 -0.016204573
000220 bc a5 f6 b9 93 ee bd 3d 8a 87 82 bd 4f 0e f1 3d
       -0.00047044258 0.0927402 -0.06373508 0.11770307
000230 82 ce 96 bd 8b 89 fb bd 01 9b 57 3c 97 5b fb 3d
       -0.07363607 -0.122820936 0.013159514 0.12273329
000240 cf af ae bd 8d 7e dd bd 3f 5f 8e 3d 95 e1 ea bc
       -0.085296266 -0.10815153 0.069517605 -0.028672019
000250 18 61 ce 3d 72 8a ce bd 4a e5 89 bd f4 9d da bb
       0.10077113 -0.10085 -0.067331865 -0.0066716615
000260 d4 e1 37 bd 75 88 af bd 7e a1 0d 3d a1 ff 4a bb
       -0.0448931 -0.08570949 0.03457784 -0.003097512
000270 fa 76 c7 bd b8 6a 48 3c 51 1c db bd d1 ef b3 bc
       -0.0973949 0.012232475 -0.1069876 -0.02196494
000280 1d c3 e8 3c 6c 45 93 bc 65 af e3 bd cf 50 05 3d
       0.02841335 -0.017977439 -0.11117438 0.03254777
000290 1b b8 ba bd c0 5d 69 3d 4d ef 93 bd ff 13 05 bd
       -0.091171466 0.056974173 -0.072233774 -0.032489773
0002a0 5a ad 81 3c fd 8c e1 bd 28 57 c8 3d e9 02 f3 3b
       0.01582973 -0.110132195 0.09782249 0.0074161184
0002b0 0c fc 07 3e c0 5c d5 3d 7d 0f a6 bd 19 93 8f 3c
       0.13279742 0.10418081 -0.08108423 0.017526196
0002c0 da ee a5 3c c0 e5 b8 3d 77 8d 3c 3c ba 34 b1 bd
       0.020255495 0.09028196 0.011508337 -0.08652635
0002d0 b2 ce e3 b9 b0 9d 08 bd 56 e0 31 3d 71 73 20 bd
       -0.00043450814 -0.033353508 0.043426834 -0.039172594
0002e0 1f b8 8b 3d 28 25 e3 bd bd 03 0a 3b a0 55 c1 bd
       0.06822228 -0.11091071 0.0021059357 -0.0944016
0002f0 73 5a df bd 25 a8 35 3d 23 2f 99 3d 3e cc ee bd
       -0.10905924 0.04434981 0.07479694 -0.1166005
000300 74 f7 24 bc 38 7c 27 3d e2 8c 3d 3d 57 9d c3 3d
       -0.010068763 0.04088995 0.046276934 0.095514946
000310 c8 71 a7 3d 6a 48 fa bc ad 39 9d 3d 07 f8 7a bc
       0.08175999 -0.030552108 0.076770164 -0.015317923
000320 95 b9 fe bc 09 c6 c9 bb ee 87 70 3d ce 5a c9 3a
       -0.031094352 -0.006157641 0.058723383 0.0015362145
000330 51 9f 86 3d 59 4d cf bd 44 0d dd bc 0f 1c 86 bd
       0.06573356 -0.10122175 -0.026983865 -0.065483205
000340 da 5b 22 bd 24 4d f2 bd a9 c7 72 3d ed f2 c2 3d
       -0.039638378 -0.1183112 0.059272442 0.09518991
000350 23 3c f5 3c 5b 09 74 3d 20 f7 dc bd 33 87 f0 3c
       0.029935902 0.059579235 -0.10789323 0.029361343
000360 d9 21 f1 3d a1 8a 05 bd f7 28 2a bd 91 cd a4 bc
       0.11774034 -0.03260291 -0.041542973 -0.020117553
000370 52 f3 8e 3d 24 e7 85 bd ad 32 dc 3c 84 c9 e7 3c
       0.069800034 -0.06538227 0.026879633 0.028294332
000380 ac dc 8d 3d e2 78 6d 3d ed 60 c3 3d 70 c6 8a 3d
       0.069268554 0.05797661 0.095399715 0.0677613
000390 4d 14 20 3d 0c 9f a9 bd d9 38 b1 3c 81 f6 b9 bd
       0.03908186 -0.08282289 0.021633552 -0.0908022
0003a0 50 6b 13 bd 6e 01 06 3d 87 eb dc bd 15 d2 81 3d
       -0.035991013 0.032716207 -0.10787111 0.06338898
0003b0 3d 89 eb bd d0 04 a4 3d b1 c4 38 3d 87 b2 82 3a
       -0.115007855 0.080087304 0.045109455 0.0009971418
0003c0 1a d2 97 3d 09 aa 37 bd 02 32 83 3d 15 16 d1 bd
       0.074131206 -0.044839893 0.064060226 -0.1020929
0003d0 6b c1 69 bd 15 3b 1b 3b f2 8f bf 3d 11 1b 10 3d
       -0.057069223 0.0023686339 0.09353627 0.035182063
0003e0 43 19 f3 bd 11 14 0e 3d 4a c9 e8 bd 3f b0 10 bd
       -0.11870053 0.034687106 -0.11366518 -0.03532433
0003f0 c9 36 a3 bd e8 7d 86 3c 4a e0 83 3d a3 76 a3 3c
       -0.07969434 0.016417459 0.06439264 0.019954031

fc2.bias f4 [64]
000000 c7 62 f8 bd 09 d8 a0 bc dc d1 61 3c 8b 9e 59 3c
       -0.12128215 -0.019634264 0.0137829445 0.0132824285
000010 b3 1d a2 3d 60 b8 e1 3b 73 03 bd 3d 15 08 4a 3d
       0.07915821 0.0068884343 0.092291735 0.049324114
000020 8a b3 4e bd d0 d9 e1 bd 98 4f ce 3b 52 73 c4 bc
       -0.05046419 -0.110278726 0.0062961094 -0.02398077
000030 75 14 4a bc a1 aa 81 3b f7 77 c6 bd 69 0c 3f 3d
       -0.012333979 0.003957108 -0.0969085 0.046642695
000040 df 4c e7 bd e2 8c f7 3d d0 44 99 bd b5 69 c6 3d
       -0.11293959 0.12087418 -0.07483828 0.09688131
000050 04 08 e4 bc e4 e0 2c bd 33 5d e2 3c 37 66 dc 3d
       -0.027835853 -0.04220666 0.027632331 0.107616834
000060 ee 0a e7 3b 4b 8e 7d 3d 32 32 df 3d 53 80 80 b9
       0.0070508635 0.06190328 0.10898246 -0.00024509671
000070 1c b9 83 3d c7 32 27 3c 94 89 25 3d 8e 3e f9 3d
       0.06431791 0.010204977 0.040414408 0.121701345
000080 a9 0e a9 3c 36 d8 e9 3d 3d 37 a0 bc 79 20 33 bd
       0.020636873 0.11418192 -0.01955759 -0.04373214
000090 ac 3b cb 3d 23 f1 c9 3c 9e 86 8f 3d bf ac 7d bd
       0.09923491 0.024651116 0.07008098 -0.06193232
0000a0 4b 9e dc bd c6 ce dd bd 9f 6f ed 3d d0 d0 a0 bb
       -0.107723795 -0.108304545 0.11593556 -0.004907705
0000b0 0b 3d 75 3a 17 94 a2 3d 20 72 da 3d 41 34 c8 bc
       0.00093551044 0.07938402 0.10666299 -0.02443898
0000c0 a5 d5 67 3d b0 13 2f bd 72 50 a3 3d e5 f6 21 bc
       0.05660023 -0.042743385 0.07974328 -0.009885524
0000d0 dd 62 99 bd d3 48 a0 3d e5 22 74 bc ac f9 b7 3d
       -0.0748956 0.0782639 -0.014900898 0.08983168
0000e0 5c 2c 8b bd 8a dd 31 3c 62 60 ad 3d 86 59 d1 3d
       -0.0679557 0.010856042 0.08465649 0.10222153
0000f0 a4 fb 99 bb 8a 99 e5 3c ea 05 c1 3d ea 7f ec bd
       -0.0046991874 0.028027315 0.09424956 -0.11547835

fc3.weight f4 [64, 64]
000000 36 06 08 3e 9c 4c 00 3e da a9 eb bd 2f 54 3e 3d
       0.1328362 0.12529224 -0.11507006 0.046467002
000010 87 60 b4 bd 3b 50 89 bc 63 f7 b8 3d 68 eb f7 3d
       -0.08807474 -0.01676189 0.0903156 0.12105447
000020 f6 d1 5d 3d b9 4f 87 3d ed 89 37 3a b4 81 e3 bd
       0.054155312 0.06607003 0.00070014485 -0.11108723
000030 bc 89 2f 3c ec 8b 74 bd fc 45 b4 bc f1 43 00 bd
       0.010713991 -0.059703752 -0.022006027 -0.031314794
000040 15 e8 94 3d 65 07 08 be fd b7 46 bd ef c6 05 3d
       0.07270829 -0.13284071 -0.04851531 0.03266042
000050 6b f0 2c bd da 9d d9 bd 40 b6 f7 bd bd f5 86 bd
       -0.042221468 -0.10625811 -0.12095308 -0.065898396
000060 59 cf b6 bd 31 8b cf bd 85 71 d9 bd e0 33 ed 3d
       -0.08926267 -0.101339705 -0.10617355 0.1158216
000070 2a 90 7b 3d af 11 d0 bd 4f ce 42 3c 85 23 ae bd
       0.061416782 -0.10159623 0.011890008 -0.085028686
000080 4a f4 d2 bd dd f9 4e 3d ff ce 0a 3d 1b 02 11 3d
       -0.10300501 0.050531257 0.033888813 0.0354024
000090 15 12 a4 bc 41 d4 b6 bc 88 da bb bc b3 b1 dc bc
       -0.020028153 -0.022318007 -0.022931352 -0.026940202
0000a0 e6 5d a7 3d 4b f3 cc 3d fb dc e0 bd 96 39 46 3d
       0.081722066 0.10007342 -0.10979649 0.048394762
0000b0 c5 31 30 bd 7d 1c a8 3d fc 28 78 bc 99 48 3a 3d
       -0.043016214 0.08208559 -0.01514649 0.04547939
0000c0 18 87 c2 3c 73 61 8e 3d 84 4e 44 3d b5 c3 ae 3c
       0.023746058 0.06952181 0.04792644 0.021333555
0000d0 2e b6 2b 3d d3 a5 b1 bd 53 c8 ee 3c 4a 4f 1f bc
       0.041921787 -0.086742066 0.029148256 -0.009723494
0000e0 10 63 78 bd bb f2 d5 3d 49 83 d2 bd 6b 7c 30 3d
       -0.06064135 0.10446688 -0.10278947 0.043087404
0000f0 c8 8c dd bc d8 16 83 bd 8a 9d 61 bd 57 05 f8 3a
       -0.027044669 -0.064008415 -0.05508188 0.001892249
000100 31 52 be 3c 91 1c 03 be 81 a9 8b 3c a8 43 8a bc
       0.023232551 -0.12803866 0.0170486 -0.016877964
000110 4b e0 f5 bc cc 48 40 3d b8 3f f4 3c d9 0f aa 3d
       -0.030014178 0.046944425 0.02981554 0.08303804
000120 56 34 63 bd 33 ca b2 bd d4 57 ac 3d ed e3 bd 3d
       -0.055469833 -0.08729973 0.084151894 0.09271989
000130 f1 60 b6 3d a9 37 c5 bd d7 3f 8e 3d cc 2c 61 bd
       0.08905209 -0.09629757 0.0694577 -0.054974362
000140 4a ce b6 3d 3a 51 4a bd 93 f9 d0 3c 6b 8b 3b 3d
       0.08926065 -0.04939387 0.025509631 0.045787256
000150 39 96 b0 bd 11 9f 98 3c 79 d9 d0 bd fe 25 be bd
       -0.08622403 0.018630536 -0.101977296 -0.0928459
000160 d5 cf 5f bd 82 37 31 bc 35 a2 ef bd 0b 09 bf bc
       -0.054641563 -0.010816457 -0.117008604 -0.023319742
000170 63 67 f3 3c 27 bb e3 bd 20 21 30 bc 48 25 c6 bd
       0.029712385 -0.11119681 -0.010750085 -0.096750796
000180 3a 43 8f bd a6 aa f9 bc 28 fc 77 bd 8e c6 44 bd
       -0.06995244 -0.03047688 -0.06054321 -0.04804092
000190 6f 78 d0 bd af ee dc bc cc 34 c6 3d d8 30 36 3d
       -0.10179221 -0.026969282 0.09678039 0.044480175
0001a0 cb ce 77 bd 53 90 e3 bc 1b 12 e2 3d 97 a4 d3 bd
       -0.060499948 -0.02777878 0.110386096 -0.103341274
0001b0 b5 e6 80 bd cb 70 bb bc 45 c1 0e 3e 4d 7c 40 3d
       -0.06294004 -0.022880932 0.13940914 0.046993542
0001c0 4c 5f 6d bd 3d e6 d1 3d a5 36 96 bd d4 d0 8f 3d
       -0.05795221 0.102489926 -0.07334641 0.07022253
0001d0 0b 63 7e bd d3 dc 2a 3d b3 62 03 3e bb 19 d8 3d
       -0.062106173 0.0417145 0.1283062 0.10551783
0001e0 ab 37 c6 3d cc a4 57 bd 61 a0 8c 3c 41 dd 1c 3d
       0.096785866 -0.052647397 0.017166318 0.03829694
0001f0 64 7c f8 3d f4 c5 11 ba 7f f9 0a 3e 31 a9 ca bd
       0.12133101 -0.00055608083 0.13571738 -0.09895552
000200 c1 ec 34 3c cb 8c 8f 3d 20 43 79 ba 44 dc 59 3d
       0.011042775 0.07009276 -0.00095085986 0.053188577
000210 42 d8 95 3d 46 0a b3 3d 31 62 8f bd e0 9e ca bc
       0.073166385 0.08742194 -0.070011504 -0.02473396
000220 75 24 02 bd 95 82 c6 3d 83 8e b4 3b 40 15 fa bd
       -0.03177305 0.09692875 0.005510153 -0.12211084
000230 43 d3 bb bd 98 b4 de 3c a0 ab ce bb ef d8 90 bc
       -0.09171154 0.027185723 -0.0063070804 -0.017681567
000240 08 d3 ac bd 70 3c e6 bd aa 45 18 3d 70 af 97 3b
       -0.084386885 -0.11241996 0.03717581 0.004629068
000250 b6 12 df 3d 9e 54 a6 3d 9a eb c9 3d f3 58 fb 3c
       0.10892241 0.08121608 0.098593906 0.030682063
000260 99 82 d7 bd 8e bc d2 bd 3d 39 ec bd ea 35 a3 bd
       -0.105229564 -0.1028987 -0.11534355 -0.07969268
000270 35 4a c9 3d b5 6a ad bd 55 13 e2 bd 78 3d 1e 3d
       0.09828607 -0.084676184 -0.110388435 0.03863284
000280 f0 f4 02 3e 80 46 c9 3d 04 33 77 3d 55 09 c6 3d
       0.12788749 0.098279 0.060351387 0.09669749
000290 bf 6c 24 bd 82 fe ed bd 59 c3 29 3b 73 17 32 3d
       -0.04014277 -0.11620809 0.002590379 0.043479394
0002a0 69 fe b1 bd 69 82 cd bd 28 30 04 3e f1 12 33 3d
       -0.08691103 -0.100346394 0.12908995 0.043719236
0002b0 c5 16 09 bd f5 c0 c3 bc 5d 5c ee 3c 50 19 e2 bc
       -0.03346898 -0.02389572 0.029096777 -0.02759996
0002c0 2f 93 92 3d 22 32 e0 bd b1 a3 f4 bd b2 9a a6 3d
       0.07156979 -0.10947062 -0.11945284 0.081349745
0002d0 44 ad d0 bd 12 9e b4 bc 97 bf f1 bd 4b 7b ac bc
       -0.10189298 -0.02204803 -0.11804121 -0.021054884
0002e0 31 9f f7 3b fd 61 b7 bd 91 9c f2 bc b2 be bd bd
       0.007556819 -0.08954237 -0.029615672 -0.09264888
0002f0 22 db de bd 34 86 ef bd af 03 b3 bd 13 45 95 bc
       -0.1088164 -0.11695519 -0.08740937 -0.018221414
000300 d5 ca ab bd 65 ec e0 bd 02 c0 7b 3c 37 d7 48 bd
       -0.083882965 -0.10982589 0.015365602 -0.04903337
000310 31 cf 20 be 09 d7 d5 bd 05 53 87 bd be 02 0f 3e
       -0.15704037 -0.10441405 -0.066076316 0.1396589
000320 a9 d5 ad 3c 04 5b 0f 3b d0 af b5 3d 1a cf dc bc
       0.021220045 0.0021874318 0.08871424 -0.026954222
000330 28 ab 5b bb 0e ae fa 3c 0b 91 d6 bd b3 06 8f 3c
       -0.0033518765 0.030600574 -0.104768835 0.01745925
000340 70 99 10 bb d7 6f 2b 3d 21 e6 91 bc 43 d5 c6 3d
       -0.0022064112 0.041854706 -0.01780993 0.09708645
000350 8a 5c fe bd a1 e4 aa bc dd 28 6a 3d 06 29 5e 3c
       -0.12419994 -0.020860972 0.057167877 0.013559585
000360 87 18 3c 3d a9 65 b0 bd 04 30 f0 3b 07 6e fd bd
       0.04592183 -0.0861314 0.0073299427 -0.12374502
000370 a3 34 be bd a6 ed e2 3d 91 ba 02 be 04 70 9a bc
       -0.092873834 0.11080484 -0.12766482 -0.018852241
000380 bd 22 a5 3c 92 c8 b8 3d f5 d1 be 3d a7 bc 89 bd
       0.020158166 0.09022631 0.0931739 -0.06725436
000390 b6 40 1e 3d 1c df ad 3d e1 3c ed bc 9f ff d6 3d
       0.038635932 0.0848982 -0.028959693 0.104979746
0003a0 7c 6e a0 3d 5d 77 84 3d aa bd 5c 3b 80 d2 68 3d
       0.07833573 0.06468079 0.0033682385 0.056841373
0003b0 0d b3 c9 bd dc 63 8f 3d d2 b8 bd 3d 9c 53 91 3d
       -0.09848604 0.070014685 0.09263767 0.07096025
0003c0 b5 75 84 3d c8 b6 d5 bd 48 8d f5 bd 70 3e ab 3c
       0.06467763 -0.104352534 -0.11989838 0.020903796
0003d0 a6 b9 00 3c c2 69 4a 3c ff 4f 5a bd 12 9b 8a 3d
       0.007856762 0.012354316 -0.053298946 0.067678586
0003e0 50 d2 04 bc 40 4d 56 bd 99 8a cd 3d 1a 7e c8 3d
       -0.008106783 -0.052319765 0.10036201 0.09789677
0003f0 f0 2b ca 3d 37 29 1b bd bf e3 c1 3d 3e 86 98 3d
       0.09871662 -0.037881102 0.09467267 0.0744748

fc3.bias f4 [64]
000000 da 3b f6 3d 86 0d f4 3d 3d 0f ef bd 23 a9 4a 3d
       0.120231345 0.11916642 -0.11672828 0.049477708
000010 95 fa 99 3d f8 56 81 bd fa 5e e6 3d 77 d0 36 bc
       0.07518498 -0.06315416 0.11248584 -0.0111581
000020 54 37 04 3c fe 6d 5c bd 00 da a0 3c bd 22 cc 3d
       0.008069832 -0.053815834 0.0196352 0.09967563
000030 5d 2e 81 3b d3 0e d1 bd 5b 2d d5 3d 4b 7b 5a 3c
       0.0039422945 -0.102079056 0.104090415 0.013335059
000040 0e f9 80 3d 0d a0 37 3d dd f7 dc 3d 91 4b 86 3d
       0.062975034 0.04483037 0.10789464 0.06557382
000050 66 4a 81 bd 0c a5 85 3d 92 79 21 3d 08 d1 4b bd
       -0.063130185 0.06525621 0.03942258 -0.049759895
000060 71 a9 4d bd 09 a9 e0 3d b1 37 f2 3d e8 8d db bd
       -0.05021042 0.10969741 0.118270285 -0.10720426
000070 8c 34 c8 bd 83 b7 68 3c 74 57 c9 bc 2b 09 90 bd
       -0.097756475 0.014203909 -0.024577834 -0.07032999
000080 99 4e 84 3c c0 81 3a 3c fa 96 96 3d f7 2e ef bd
       0.01615076 0.011383474 0.07353015 -0.1167888
000090 18 60 a9 3d 01 8a c7 3d 8b 8d a5 3c 74 3b fc bd
       0.082702816 0.09743119 0.020209095 -0.12316027
0000a0 27 ba ad bd dc 44 fc 3d 2d 71 80 3d 62 cf 86 3d
       -0.08482771 0.123178214 0.062715866 0.06582524
0000b0 e7 45 d5 bc 07 71 be 3c cf 95 ad bd 9a a8 47 3d
       -0.026034309 0.023247255 -0.08475839 0.048744775
0000c0 a7 f6 2f 3d 9e 9b 00 bd cf b4 89 3d 02 84 28 bd
       0.042959835 -0.031398408 0.067239396 -0.041141517
0000d0 27 92 8d 3d 69 37 ad 3d 3f 05 f5 bd ab 4a 1b 39
       0.06912642 0.08457834 -0.11963891 0.00014809768
0000e0 0f ba 89 bd e1 a5 82 3c c1 53 d0 bc 32 d0 e7 3c
       -0.06724941 0.015948238 -0.025430562 0.028297517
0000f0 b0 0c 8a bd 6c 4d ec 3d e9 ea 28 3c 31 61 5a 3c
       -0.06740701 0.115382046 0.010309913 0.013328836

fc4.weight f4 [27, 64]
000000 9b b2 5a bc 22 28 ab 3c 8e 18 ad 3d 12 db 9f bd
       -0.013348247 0.02089316 0.08451949 -0.07805456
000010 55 bd e1 bc 6a d3 15 bd e3 9e 9c 3d 8c 3e ca bd
       -0.0275561 -0.036578573 0.07647493 -0.09875211
000020 77 06 8d bd 5a 76 ae bd 03 8b ae 3d ae d0 9a bd
       -0.06885999 -0.085186675 0.08522608 -0.07559334
000030 44 50 44 3d 6f 08 91 3d 5a c1 1c 3d d2 0a 5f 3c
       0.04792811 0.07081687 0.038270332 0.01361342
000040 f6 20 c2 ba af b7 41 bd e8 e9 bf bc 89 df da bd
       -0.0014810849 -0.047294315 -0.023426965 -0.10687167
000050 c9 ce d6 3c 03 05 ce bd ca 59 0e bd d8 0e c1 bb
       0.02622165 -0.1005955 -0.0347536 -0.005891662
000060 7c e9 bc bd 6b 06 05 be b0 ee 21 bc ab f0 f1 3d
       -0.09224221 -0.1299073 -0.009883568 0.11813482
000070 9d a7 c2 3c de 94 43 3c dc 16 f2 3d dc 91 27 3e
       0.023761565 0.011937348 0.11820766 0.16364235
000080 af 01 b3 3d 87 f4 f1 ba 2e ba 72 bd ec 8e 47 3d
       0.087405555 -0.0018459716 -0.059259586 0.048720285
000090 c0 9e 97 bc bb e4 83 bd 16 fc 00 3e d3 04 89 bd
       -0.018508315 -0.06440111 0.12596163 -0.06690373
0000a0 96 b5 ac 3d 66 f4 a0 3d 92 74 a3 3d 5e 88 30 3d
       0.08433072 0.07859115 0.079812184 0.0430988
0000b0 2d 53 3d 3d b2 21 d7 bc 9b c4 80 3d 62 5a c9 3d
       0.0462219 -0.026261184 0.062874995 0.09831692
0000c0 cb 9f 80 bd 5d e4 d2 bd 8d 71 13 bd 55 d1 9e bc
       -0.06280478 -0.10297463 -0.035996962 -0.019386927
0000d0 e5 b1 85 bd fb 3d 9d bd ef 79 bf 3d dd 1f bc bb
       -0.06528071 -0.076778375 0.09349429 -0.005741103
0000e0 99 9f 72 bd 28 e6 fc 3d 04 04 c1 3d c8 cf e0 3c
       -0.059234235 0.12348586 0.09424594 0.027442828
0000f0 01 59 c0 bd 2f be b7 3d ac 8b 9d bd 4b ab 66 3d
       -0.09391976 0.089718215 -0.07692656 0.0563157
000100 af fd c6 3d ab 89 cd bd fa 7b de 3d dd 1c e1 bd
       0.09716355 -0.10036024 0.108634904 -0.10991833
000110 31 a3 53 3d b6 8d a8 bd cc b7 d5 bd 9b 8b 93 3c
       0.051669303 -0.08230154 -0.10435447 0.018010905
000120 fb 2d 93 3d 75 2a ff bb 12 ef 0a 3d 28 8a 9e bd
       0.071865045 -0.0077870437 0.0339194 -0.07741195
000130 4f 37 c8 bd 77 35 c9 3d f2 f7 e4 3d 4b cd 52 3d
       -0.09776174 0.09824651 0.11180104 0.051465314
000140 a2 c9 fa 3c fe 7b 0e 3e 31 98 ed 3c e3 40 34 3e
       0.030613724 0.13914487 0.029003235 0.17602877
000150 76 30 e6 bb 1e 89 13 bd e1 7d fa 3d f5 f4 bc bd
       -0.00702482 -0.036019437 0.12231041 -0.09226409
000160 fe df 92 3c ee 5b 80 bd f0 25 d6 bd 89 e3 43 3d
       0.017929073 -0.06267534 -0.10456455 0.047824416
000170 6c d8 3f bd 2c b9 2b 3d e4 70 9c 3d 06 31 24 bd
       -0.046837255 0.04192464 0.0763872 -0.040085815
000180 07 58 b4 3d e0 bf bb bd 9a e3 00 3e 37 54 77 bd
       0.088058524 -0.091674566 0.12586823 -0.060383048
000190 4f 72 cd bd 49 f6 4f 3d 5f a4 5f 3c ae 0c af 3b
       -0.10031568 0.050771985 0.013650029 0.0053420877
0001a0 8a f5 5a bc f0 0c c5 3d 26 64 3e bc 47 01 c6 bd
       -0.013364205 0.09621608 -0.011620557 -0.096682124
0001b0 b7 3d 39 3b 34 f0 3d 3c e3 a8 96 3d 34 15 d2 bb
       0.0028265545 0.011592913 0.07356431 -0.006411219
0001c0 7d e4 0b bd 7c 12 b5 bd c5 94 e7 3c 7d d8 fe bd
       -0.03415345 -0.08841416 0.028269181 -0.124436356
0001d0 3a 2c 95 3d 96 7f 75 3d 49 04 4c 3e 27 f6 97 3d
       0.07283826 0.05993613 0.1992351 0.07419997
0001e0 a3 0d 55 3d e7 49 45 3d e5 d3 8a 3d 4b d8 84 3d
       0.052014958 0.048166182 0.06778697 0.06486567
0001f0 76 f1 e2 3d 2e c1 e0 bd 63 5f c9 3d 7d e1 9a bd
       0.11081211 -0.10974346 0.09832647 -0.0756254
000200 05 1b 87 bd d3 64 c2 3d c6 61 54 3d 39 0a ca bc
       -0.065969504 0.09491887 0.051851057 -0.024663078
000210 b8 b6 99 3d 7b 34 ea 3b b3 f5 f5 3c b4 98 50 bd
       0.07505554 0.0071473694 0.030024385 -0.05092688
000220 73 9a 12 3c f8 e9 03 3e 28 b6 e4 3d 29 12 db 3d
       0.008947956 0.12882221 0.11167556 0.10696823
000230 1b 28 8c bd 2d 05 49 3d a5 6a 1d 3d 11 73 f7 bd
       -0.06843587 0.0490772 0.038431782 -0.12082494
000240 04 0f 28 bd 26 80 10 bd 56 15 dc 3c 9e 39 53 bd
       -0.041029945 -0.035278462 0.026865643 -0.05156862
000250 86 3c 22 bd 06 28 e8 bd 3d 67 ba 3d 8c de fd bd
       -0.0396085 -0.11335759 0.091017224 -0.12395963
000260 47 10 ac 3c 58 30 0b be 15 f6 92 bd 8b 70 bf bd
       0.021003855 -0.1359266 -0.07175843 -0.09347638
000270 96 5f 3b 3d e1 70 e9 3d 00 9f c8 3c 13 64 96 bd
       0.045745455 0.11398483 0.02448988 -0.073433064
000280 a1 0a e1 bd 97 f8 b4 3d ab e9 f3 3d 84 ca 7d bd
       -0.109883554 0.08836477 0.11909803 -0.061960712
000290 22 7b d2 3c 6f 37 cf 3d d6 df 0e 3d 4a 96 f3 3d
       0.02569348 0.10117995 0.034881435 0.118939
0002a0 37 ab f6 bd e2 d5 dd 3a ab 58 0b 3c 41 fd be bd
       -0.120443754 0.0016924704 0.008505027 -0.09325648
0002b0 d7 e1 ea 3d 0e df ff bd de 8f 9b bd 06 31 7a 3d
       0.11468857 -0.12493716 -0.075958 0.06108191
0002c0 74 91 e4 bd bb ce 9d bd 45 9a 4d bd e5 dd 87 bd
       -0.111605555 -0.07705446 -0.05019595 -0.0663412
0002d0 bb 66 33 bd 3e 1f b4 3d a8 ca bc 3d d3 c2 38 3d
       -0.043799143 0.087950215 0.09218341 0.045107674
0002e0 7c b2 10 be 88 1c 66 bc 5b a1 42 3d 71 ac bd bd
       -0.14130586 -0.014044888 0.04751716 -0.09261406
0002f0 8f c0 c9 bb 4e 0d 57 b9 aa c2 77 bd 8e 76 bf 3d
       -0.006156988 -0.00020508954 -0.06048838 0.093487844
000300 5b 0b f0 bd 8d 90 18 bd da 4c dd 3d 6b f2 d4 bc
       -0.11720916 -0.03724723 0.10805674 -0.0259945
000310 f8 38 9f b9 bb 10 2d 3a be fa 57 bd 1a 8a 33 bd
       -0.00030369288 0.00066019193 -0.05272936 -0.043832876
000320 d6 dd 4c 3c f6 cc dd 3d 4a d9 f2 bd 62 e0 2d 3d
       0.012504062 0.10830109 -0.11857851 0.042450316
000330 f0 3b fe 3c 78 9c ca 3d 4a fc bb 3d 73 b2 b1 bd
       0.03103444 0.09893125 0.0917898 -0.086766146
000340 83 b1 d4 bd 32 bf a9 3d cc bd 1c bb 73 b5 08 be
       -0.1038542 0.08288421 -0.0023916839 -0.13350467
000350 c1 4a 9a bd 19 52 3e 3d 3f b9 1b bd 75 2a 1c bd
       -0.075337894 0.046465013 -0.03801846 -0.038126428
000360 f3 c0 14 be f9 61 de 3d 91 dd ce bd 67 37 c4 3d
       -0.1452673 0.108585306 -0.10100854 0.0958088
000370 a5 47 aa 3d be 2d a1 3c 77 db 63 bc d6 0d 6f bd
       0.08314446 0.019675132 -0.013907305 -0.058362804
000380 98 e5 2c bc 72 34 b1 3d 4b ae 91 bd 3f af 9e bc
       -0.010552786 0.08652581 -0.07113322 -0.019370673
000390 fc 39 c3 3d 1e d8 de bc e5 20 53 bd ee 08 5a 3b
       0.09532544 -0.027202662 -0.051545043 0.0033269483
0003a0 68 5a 17 3d 39 2d 9f 3d 6d a2 ca bc cd e0 32 3d
       0.036951452 0.077722974 -0.024735654 0.043671418
0003b0 72 f8 b4 bd ea 48 62 3d 98 24 29 3d da 66 e6 bc
       -0.0883645 0.055245318 0.041294664 -0.028125215
0003c0 dd bb 5e 3a 1f a1 0e 3e 58 99 1f 3d dd 4a f9 bd
       0.0008496622 0.1392865 0.0389646 -0.12172482
0003d0 ff 08 48 3d ae a2 dc bd 3f 95 3a bd 92 ab a6 3c
       0.048836704 -0.10773216 -0.04555249 0.020345483
0003e0 66 4c 25 3d 0b 62 b5 3d 0e 89 fa 3c 81 20 86 3d
       0.040356062 0.08856591 0.03058293 0.065491684
0003f0 af d9 b3 3d 08 eb 30 3e 02 72 84 3d 4a bf ee bc
       0.08781754 0.17277157 0.06467058 -0.029143948

fc4.bias f4 [27]
000000 3a 86 f5 3d 59 8e e2 bd 55 70 ee bd 22 5a c2 bd
       0.11988492 -0.11062307 -0.116425194 -0.09489848
000010 80 e9 b1 bd 13 57 b6 bd 4d 67 9f 3d 2f 08 0f 3c
       -0.08687115 -0.08903327 0.07783375 0.008729978
000020 5c 71 e7 bd 14 da c1 3d c7 45 92 bd 7b ea c5 3d
       -0.113009185 0.09465423 -0.07142215 0.09663864
000030 05 ae ab bd 33 36 3f bd d7 e9 2c 3d e9 d9 01 bd
       -0.08382801 -0.046682548 0.042215195 -0.031701956
000040 7d 59 d1 bd 67 26 7f bc d8 5e 68 3d 7f f4 cf 3d
       -0.10222147 -0.015573121 0.056731075 0.10154056
000050 e0 98 d6 bd 5f 15 b1 bd 27 5d fb bd 0a 94 bb 3c
       -0.10478377 -0.08646654 -0.12273627 0.022897739
000060 da d7 65 bc 3e 86 e1 bc d2 b9 cc bd
       -0.014028514 -0.027529832 -0.0999638
