src/cached_data/trained_models/model_200_16_old.pt (torch_old, 78702 bytes, 8 tensors)

fc1.weight f4 [64, 144]
000000 cf 03 a8 bc ae c7 be bd 5f 21 fd bd a6 00 c7 bd
       -0.020509629 -0.0931543 -0.12359881 -0.097169206
000010 87 68 61 bd c0 95 fd bd b8 30 f8 3c b8 ca bf bd
       -0.055031326 -0.12382078 0.030296668 -0.093648374
000020 f7 fa a3 3d ab 86 f9 bc 7e 94 a7 bb c5 e6 ef 3c
       0.08006852 -0.030459723 -0.005114137 0.029284844
000030 58 28 cc 3d de cd a9 3c 8e 2c 91 3c 19 08 ad 3c
       0.099686325 0.020728048 0.01772144 0.021122025
000040 46 66 5e bd 38 60 7e bd 13 91 0e bd 02 3a f2 bd
       -0.054296754 -0.06210348 -0.034806322 -0.1182747
000050 06 fb 88 bc 93 03 35 bd 22 77 62 3d a4 db 30 3c
       -0.01672126 -0.04419286 0.055289395 0.010794554
000060 59 fe 15 3d 1b e5 e3 bd 6e e4 ef bc 21 e8 ba bd
       0.036619518 -0.11127683 -0.029283728 -0.09126306
000070 bf 13 94 bd 57 e4 a4 3c 22 3b 04 3d 20 1f 58 3c
       -0.07230329 0.020128412 0.032282956 0.0131910145
000080 4c 7b fc bb 43 af bb bc b7 54 aa bd 53 5d 61 bd
       -0.007705128 -0.02291072 -0.08316939 -0.05502064
000090 9d 60 31 3d 4b d2 8a 3d 87 39 b5 3c c0 49 62 3d
       0.04330503 0.067783915 0.022122158 0.055246115
0000a0 db 4f bc 3b 6e 02 bc 3d bc d6 e4 3d 40 75 06 3e
       0.005746824 0.09180151 0.1117377 0.13130665
0000b0 db 3d 98 3d a6 bd c2 3d f6 7f 6e 3d ab bb 0c 3e
       0.07433673 0.09508829 0.0582275 0.13743465
0000c0 72 5b 59 3c 93 7f 97 3d 21 10 1b 3d dd c9 d3 3d
       0.013266431 0.0739738 0.03785718 0.10341237
0000d0 51 67 7a 3d 1a 8e 8c 3d 9c 7b 2c 3d 8a 9b 3f 3c
       0.061133686 0.06863041 0.04211007 0.011694798
0000e0 ea 32 15 3d c1 c0 28 3d 7b 08 df 3d 8a 11 da bc
       0.03642551 0.04119945 0.108902894 -0.026619691
0000f0 25 97 98 3d 9c 87 e4 3a 0c 2b c6 3d f4 ae a0 3d
       0.074507035 0.0017435434 0.09676179 0.0784587
000100 99 ef 56 bc 94 48 ad bd e1 e4 2f 3d fb 78 02 3b
       -0.013118648 -0.08461109 0.042942885 0.0019908536
000110 01 3d 36 bc cb 73 87 bd e2 1f 8f bc 20 bf 7a 3d
       -0.011122943 -0.06613883 -0.017471258 0.061217427
000120 b6 10 04 bd a8 f3 69 3d 75 68 5b 3a 87 d6 ee 3c
       -0.0322425 0.057117134 0.00083697523 0.029155029
000130 3d d9 0f 3d 07 be 10 bd 64 54 7e 3d c7 5b ce bd
       0.035119284 -0.035337474 0.0620922 -0.10076099
000140 4c 44 43 bd 60 ef 62 bd b3 ad 52 bd 98 ca cb 3a
       -0.047672555 -0.055404067 -0.051435184 0.0015548049
000150 4f ed af 3d 4a 08 1f 3d ff 71 d7 3c 03 15 dc bc
       0.08590185 0.038826264 0.026299475 -0.026865488
000160 f5 a7 b1 3c 26 0d 51 3d 4d e1 7b bd 62 a3 b1 bd
       0.021686533 0.05103793 -0.06149416 -0.08673741
000170 4a fc b4 bd 42 ff 96 bd 29 9b d1 3b 61 bb 9b bc
       -0.08837183 -0.07372905 0.0063966704 -0.019010248
000180 26 00 92 3c 84 cf 0a 3c 8e dd 9b 3d 9f 40 1b 3e
       0.017822336 0.008472327 0.076106176 0.1516137
000190 e8 40 0d 3e 2d 11 16 3e 61 0a fd 3d 7c d4 31 3d
       0.13794291 0.1465499 0.12355495 0.04341553
0001a0 43 16 27 bd 39 06 58 3d 11 6a dd bd 60 dd 3f 3d
       -0.040792715 0.05274031 -0.10811246 0.04684198
0001b0 68 ba 09 bd 07 47 80 bd f9 09 45 bd f0 a0 9d bd
       -0.033625036 -0.062635474 -0.048105214 -0.07696712
0001c0 ec 5a 09 be f9 44 18 3c 0f 72 fb 3c 35 78 b2 bd
       -0.1341359 0.009293788 0.030694036 -0.08714334
0001d0 f1 a4 9b bd d0 5f b6 bd 6b 56 b5 bd 99 2a 98 3c
       -0.075998195 -0.089049935 -0.088543735 0.018575
0001e0 17 af 7e 3d d0 4c c2 bd 05 d8 50 bd d5 cf 0a 39
       0.062178697 -0.09487307 -0.050987262 0.00013238129
0001f0 40 35 0e 3c 2d 0e 31 3d e2 c9 7d bd 43 36 b4 bd
       0.008679688 0.04322641 -0.06196011 -0.08799412
000200 19 eb 7f bd 7d 5d 84 bd a3 61 dc bd 1f bb 40 bd
       -0.062480066 -0.06463144 -0.1076081 -0.047053453
000210 b3 f3 a6 bb e3 b3 8f bd 57 f4 fc bd a9 c1 bb bd
       -0.005094969 -0.070167325 -0.123512916 -0.09167797
000220 5f 16 d9 3b 71 1e ac bc a3 61 09 bc 2f 20 86 bc
       0.0066249813 -0.02101061 -0.008385095 -0.016372768
000230 33 74 a2 bb 6c 76 a4 3b b7 4d 23 3d df 66 5a bd
       -0.0049576997 0.005019 0.039869037 -0.05332076
000240 9a 2a 3d 3c 35 8e eb 3a 9d 83 d7 bd 71 78 09 bc
       0.011545802 0.0017971458 -0.1052315 -0.008390532
000250 b6 75 3a 3d 7c 56 4b 3d 30 5f 14 bc ba 08 6b 3a
       0.045522414 0.049643025 -0.009055898 0.0008965839
000260 74 3e 5d 3d fa 37 8c 3d a0 aa 4c 3d 6a 1d c1 3d
       0.054014638 0.06846614 0.04996741 0.094294384
000270 82 26 5c bd 96 86 8a bd 64 43 4f 3d 27 bd 64 bd
       -0.05374766 -0.067639515 0.050601378 -0.055844452
000280 a7 18 9a bd 0f 5d 19 3b 58 95 ac bd be 6f 27 bb
       -0.07524233 0.0023401415 -0.084269226 -0.0025548781
000290 88 dd cc bd 4a d9 4d bc bd 37 89 3a 31 f7 e6 bd
       -0.10003191 -0.012564013 0.0010468882 -0.11277617
0002a0 f1 cd 70 3c d2 81 bf bc 48 d1 4f 3d e7 58 2e bc
       0.014697538 -0.023377333 0.050736696 -0.010641313
0002b0 54 d3 82 3d 45 1f 8b 3d 66 d5 9d bd d2 80 53 3d
       0.06387964 0.067930736 -0.07706718 0.051636524
0002c0 16 3b a0 3d df e6 34 3c c0 0e 6a 3d 2a d1 68 3d
       0.0782377 0.011041372 0.057142973 0.0568401
0002d0 87 e9 e5 3c 45 ac 9e 3d 43 b6 2a bd ea e7 86 3d
       0.028065456 0.077477016 -0.041677725 0.06587203
0002e0 6a 82 f6 bd 66 1f 14 bd 1d 4a 2f bd c6 82 13 bd
       -0.12036593 -0.036162756 -0.04279529 -0.036013387
0002f0 56 4d 67 3d b4 d7 41 bd 78 f3 fc bc 07 3f 85 3c
       0.056470238 -0.04732485 -0.030877814 0.016265405
000300 5b e5 9d bd 1e c4 aa bd e3 79 aa 3a 83 58 6d 3b
       -0.07709762 -0.08338188 0.0013006296 0.0036216087
000310 38 fd 82 bd 24 20 e5 3c 2f 8b 0b bd 3c f9 18 3d
       -0.06395954 0.027969427 -0.034068283 0.037347063
000320 64 e4 3c 3e 4d e2 00 3e a2 d8 54 3e d8 5c 0e 3e
       0.18446499 0.12586327 0.20785764 0.13902605
000330 13 82 1f 3e 82 86 13 3e 26 32 fe 3d bb f5 4d 3e
       0.15576963 0.1440678 0.12411909 0.2011327
000340 c8 ed ce bd 1c 0a 65 ba 1e 2a c4 bd 93 12 c0 bd
       -0.10103947 -0.0008737163 -0.09578346 -0.09378543
000350 32 b3 95 bd e6 7d 2c 3d c6 34 b3 bd 51 b0 fd bd
       -0.073095694 0.042112254 -0.087503 -0.12387145
000360 ba 09 75 3d 71 9b 95 3d e6 5b a9 3d eb f2 2c 3e
       0.05982373 0.07305039 0.08269481 0.16889541
000370 84 ef 24 3e 29 11 13 3e 08 98 a3 3c 53 40 08 3e
       0.16106993 0.14362015 0.019969955 0.13305788
000380 a6 60 4c bd 82 59 18 3d bb ee f0 3d bb e5 f9 bc
       -0.04989686 0.037194736 0.11764284 -0.030505052
000390 21 5c c9 3d 29 1e a8 bd d7 fa c1 bc 94 3a a2 bc
       0.09832025 -0.082088776 -0.02367918 -0.019803323
0003a0 73 5e 5a 3d e0 2d 83 3d f7 54 dd 3d ee 75 e9 3d
       0.05331273 0.06405234 0.108072214 0.113994464
0003b0 ec 53 85 bc 6b 66 01 bd c7 9b 77 3d 15 5b 29 ba
       -0.016275369 -0.031591814 0.060451295 -0.00064604107
0003c0 45 36 d6 3d 49 e2 69 3d de 9e e0 3d db eb 22 bb
       0.1045957 0.057100568 0.109678015 -0.002485982
0003d0 6a 1f a6 3c 56 40 94 3c 16 5a 56 3d 85 b2 82 3d
       0.020278651 0.018097084 0.052332006 0.06381706
0003e0 c7 c1 47 be 54 41 97 bd 48 0c 9f bd ff 86 4e 3c
       -0.19507514 -0.07385507 -0.07766014 0.012605428
0003f0 50 e4 cf bd 59 de 8b bd 06 bd b9 bc 22 73 b5 bc
       -0.10150969 -0.06829519 -0.022673141 -0.022149626

fc1.bias f4 [64]
000000 b7 f3 3b bd e7 b3 14 3c 2d 64 a9 3d 9c 7a 40 bd
       -0.04588672 0.009076095 0.0827106 -0.04699193
000010 41 6b 7e 3d 3c 50 03 3d 23 0a 7a 3d ec de b5 bc
       0.062114004 0.03205894 0.061044823 -0.022201024
000020 94 84 1c 3d c1 19 2b bd c4 4f 90 3d 44 6d 87 3d
       0.038212374 -0.041772608 0.07046464 0.06612638
000030 0a 57 b7 3c 88 26 31 3c 52 11 4d bd f5 58 ad bc
       0.02238037 0.010812409 -0.050065346 -0.021160582
000040 bb 22 83 3b 20 64 ec ba 7a e1 9d 3d cf de 74 3d
       0.004001943 -0.0018035211 0.07709022 0.0597828
000050 50 b7 fd 3c 4f 17 fb 3c 5b 39 13 bd 87 4e 34 3d
       0.0309712 0.030650763 -0.03594337 0.044020202
000060 68 cf 77 bd 61 0c 3b 3d d0 3f 6c 3d 42 53 54 3d
       -0.060500532 0.045666102 0.057678044 0.051837213
000070 98 59 dc 3b ab 82 9c 3d bb db a0 bd 8e 32 78 3c
       0.0067245476 0.076421104 -0.0785441 0.015148772
000080 4e be 7c bd 24 1c 8d 3d c6 67 36 3c dd 2f 9b bb
       -0.061704926 0.06890133 0.01113314 -0.0047359304
000090 12 19 9d bd d4 1a 69 3d 59 b9 35 3d 55 a0 9e bd
       -0.076707974 0.05691035 0.044366214 -0.07745425
0000a0 15 aa 94 3d 01 ca 7e 3d d8 00 65 3c 11 cc ff 3b
       0.07259003 0.062204365 0.013977252 0.007806309
0000b0 74 72 61 bd f0 fe c8 3c 9b 67 de bc 78 86 43 3c
       -0.05504079 0.024535626 -0.027149012 0.011933915
0000c0 f9 04 dc 3c 70 98 90 3d ed a8 98 3d 3b 1f 91 bd
       0.02685784 0.07060325 0.07454095 -0.07086035
0000d0 3f c2 a5 3d 68 4a 8f b9 88 3e 57 3d ff 99 73 bd
       0.0809369 -0.00027330522 0.05254987 -0.059473034
0000e0 6f 40 3e 3b 8e 9c 15 3d d7 4c 0d bd b3 5a 42 bd
       0.0029030105 0.036526255 -0.03449711 -0.04744978
0000f0 9e df 49 3d 19 51 31 3d 1b f9 07 3d a1 f6 57 3d
       0.049285524 0.04329023 0.03319655 0.052725438

fc2.weight f4 [64, 64]
000000 ad 78 43 be 0d 6c 58 3d 21 ec b5 3a 46 a1 86 bd
       -0.19089003 0.05283742 0.0013879576 -0.06573729
000010 d1 ca 94 be f5 f7 80 3c 35 2a d8 3d 2b b6 8e bd
       -0.29060987 0.015743235 0.10554925 -0.069683395
000020 98 1c 10 be 45 c5 21 bd 1c f8 02 be f4 b1 55 3e
       -0.14073408 -0.03949477 -0.12789959 0.20868665
000030 a2 68 05 bd c1 15 0e 3e dd 74 cb bc 67 53 d8 bd
       -0.03257049 0.13875486 -0.024835998 -0.10562783
000040 79 b8 c0 3d c9 9f 31 3b e1 0d 10 bd 6c 2e 4f be
       0.09410185 0.0027103296 -0.035169486 -0.20232552
000050 b7 4c c7 3d a4 1c 51 bd 14 8a 75 3d ee a7 08 bd
       0.09731429 -0.051052704 0.059946135 -0.033363275
000060 e1 9c 8f bd 7f 77 bc bc 46 b8 db bd b9 42 e0 bc
       -0.07012344 -0.023006199 -0.10728507 -0.027375566
000070 5a 31 2c bd 15 1d 93 bc e2 0c 0a 3e b3 a6 0d 3d
       -0.042039253 -0.017958203 0.13481477 0.034582805
000080 11 07 1a 3d 52 a8 b6 3c 6b e6 26 bd 5b 8c 43 3e
       0.037604395 0.022297058 -0.040747087 0.1909651
000090 d8 ce f8 bc 9e 19 5f bc 14 d3 24 3c 20 5f 8c 3c
       -0.030372068 -0.013616947 0.010060091 0.017135203
0000a0 0f 9b 8c 3d b3 b4 ea bd a0 12 22 bd f5 03 04 be
       0.068655126 -0.11460247 -0.039568543 -0.12892134
0000b0 62 a9 f3 3c 79 3e 9b 3d 38 96 62 3e 16 13 bb 3d
       0.029743854 0.07580275 0.22127616 0.091345
0000c0 16 82 68 3e c7 80 5b bb 09 4e 72 bd 41 d2 61 3d
       0.22705874 -0.0033493505 -0.05915645 0.055132154
0000d0 a9 42 e9 bd ab 95 1a be 02 7d 99 3c ec ec 2c 3d
       -0.113896675 -0.15096156 0.018736366 0.042218134
0000e0 93 e3 f4 3d 3d 76 2d be d9 d6 b2 bd 0f 6e f1 3b
       0.11957469 -0.16939636 -0.08732385 0.0073678563
0000f0 77 18 b9 3d b1 47 8b 3c 60 c7 78 be 52 36 ac bd
       0.090378694 0.017001959 -0.24294806 -0.08408798
000100 8d 3d 95 3d 74 17 86 bd 52 cb d3 bd 43 d5 bb 3d
       0.072871305 -0.06547442 -0.10341515 0.09171536
000110 b3 55 e3 bd 43 34 ab bd 6d ab 88 bc a7 7d e0 bc
       -0.1110033 -0.083595775 -0.016683305 -0.027403666
000120 53 a3 5e 3d 2f 87 81 3d 22 7a 90 bd 67 3a 9e bd
       0.054354977 0.06324612 -0.07054545 -0.07725983
000130 78 a6 d0 bd 4d d5 8a bd 11 d4 f9 bd 88 16 89 3d
       -0.101880014 -0.06778965 -0.121986516 0.066937506
000140 43 58 3b 3b 7b e0 9b 3d 90 ba 25 3d 01 38 bf 3b
       0.0028586544 0.076111756 0.040461123 0.0058355336
000150 43 41 c0 bd d6 15 8a 3d f4 e4 c5 3d ab 1e 9f bc
       -0.09387448 0.06742446 0.0966281 -0.019423803
000160 90 d3 2c bc 17 b6 5a 3d a8 fd 8c bd 05 46 ae bd
       -0.010548487 0.05339631 -0.068843186 -0.08509449
000170 d0 84 e6 bd eb d4 fc bd c1 a8 30 3c 11 b2 85 bd
       -0.11255801 -0.123452984 0.010782422 -0.06528104
000180 b4 99 fd bd 55 6c 72 3d 95 b7 d1 bd 8c 4c 3f bd
       -0.12382832 0.059185345 -0.102400936 -0.04670386
000190 21 ad ef bd c5 e2 19 bd 35 0b 9f 3d 59 5d 15 3c
       -0.117029436 -0.03756978 0.077658094 0.009116494
0001a0 5b 12 9b bd c5 51 79 3d 17 37 ca 3c cc 1d a3 bd
       -0.075718604 0.060868997 0.024684472 -0.07964668
0001b0 c4 94 72 bd 50 23 fd 3d 5d f3 40 bd b2 7d fd bd
       -0.059223905 0.12360251 -0.04710709 -0.1237749
0001c0 62 6d cc 3d 2f 54 2b bd 0d b9 bf 3b ab fe 5c 3d
       0.099818006 -0.04182833 0.005850917 0.053953808
0001d0 ea fa e1 3d cf a6 46 bd 10 1b 9b bd 25 9c b3 3d
       0.11034186 -0.048498925 -0.07573521 0.087700166
0001e0 1f 63 35 bd 0d 85 1c 3d 35 7a d4 3c 63 52 8d bd
       -0.044283982 0.038212825 0.02593718 -0.0690048
0001f0 66 b9 e2 bd 06 e7 72 3d 2e 14 f5 bd 18 b8 f6 bc
       -0.11070518 0.059302352 -0.119667396 -0.03011708
000200 6b 9b a5 3c f5 c9 db ba 65 b6 ac bd a3 d6 59 bb
       0.02021571 -0.0016768562 -0.084332265 -0.0033239506
000210 72 df f3 3c c1 c0 dd 3a d7 4c db 3c f8 2d 8b 3c
       0.029769633 0.0016918407 0.026770039 0.016989693
000220 49 77 03 3e b2 57 84 be 0c b9 fa 3d 81 4a df bb
       0.12838472 -0.25848156 0.12242326 -0.0068143015
000230 b3 52 93 bd 98 20 f5 bc 50 03 ae bd d1 c7 6f 3b
       -0.07193508 -0.029922768 -0.084967256 0.0036587606
000240 bb 36 e3 bc 4a 8d c8 bd 81 79 f7 bc a8 e5 e3 bd
       -0.027736058 -0.09792574 -0.030209305 -0.11127788
000250 88 44 2a 3e 2d fd ff bd aa c2 14 3d 8c 6f 30 be
       0.16627705 -0.12499461 0.03631846 -0.17230052
000260 8f 7f 6d 3d 5a 5b a9 3d a6 f5 47 3d c6 20 81 bd
       0.057982977 0.08269377 0.048818253 -0.06305079
000270 4c 60 e9 bd 54 37 2b 3e ff 04 00 be 5b ed 23 3e
       -0.1139532 0.16720325 -0.12501906 0.16008513
000280 6a 88 d6 bd fc 03 8b 3e 3f 0b fa 3c 3b 3e 15 3e
       -0.10475238 0.27151477 0.03052294 0.1457452
000290 bf 88 ff bd 8f 26 87 3d 52 b6 5c bd bf b1 4b bd
       -0.12477254 0.06599151 -0.05388481 -0.04973006
0002a0 e1 e7 ed 3c 16 f9 64 be 44 e1 e3 3d a6 c2 50 bd
       0.029041233 -0.22360644 0.111269504 -0.05096688
0002b0 86 22 99 3d bd 70 3c bd ac e6 41 be 72 17 88 be
       0.07477288 -0.046005953 -0.1893565 -0.26580387
0002c0 fe ad 55 3e 3a 3a 6d 3d 37 b9 5b 3d 77 e5 ae 3d
       0.20867154 0.057916857 0.05364343 0.08539861
0002d0 55 a4 fc bc 17 0c fc 3d d9 06 91 3d dc af 9e bd
       -0.030840078 0.123069935 0.07081384 -0.07748386
0002e0 55 84 f2 3d dd f1 18 3d 45 cf 65 3e 2a cf db bc
       0.118416466 0.037340034 0.22442348 -0.026832182
0002f0 f8 2b 0f be 3e 6c 19 3e 6f 33 5f bd cd b5 ee bd
       -0.13981616 0.14982697 -0.05449241 -0.116557695
000300 a5 1c af bb 09 f5 a7 3d 30 81 1b be be cb ea bd
       -0.005343991 0.082010336 -0.15186 -0.11464642
000310 94 ea 42 3e bb 95 eb 3d 2f 06 1a 3d 21 49 86 bd
       0.19034797 0.11503168 0.037603553 -0.06556917
000320 43 88 87 bd 91 6e 96 bc 7e 9b 65 bd a5 6b ee 3c
       -0.06617787 -0.018363269 -0.056056492 0.029104063
000330 da 08 29 be 59 7e 67 3e 11 29 30 be bd 48 c7 3d
       -0.16507283 0.22606792 -0.17203166 0.097306706
000340 6e d2 e5 bd b9 69 3f 3d 7f bf 0b bd 2e 62 f2 3d
       -0.11221777 0.046731684 -0.03411817 0.118351325
000350 e1 17 2d be ea 7f 23 be d0 85 0d 3e 5e e5 1a 3e
       -0.1690364 -0.15966764 0.13820577 0.15126559
000360 9f f1 f9 bd 21 68 c9 bd b4 6e dd 3d 2e 57 33 be
       -0.12204289 -0.09834314 0.108121306 -0.17513725
000370 c2 6a 8c bd 0d 0b 4a 3d bc fc 5f 3c df e9 ba 3c
       -0.068563 0.049326945 0.013671096 0.022816597
000380 10 1f 64 bd 0f 2c b2 bd 21 85 91 3d cf 9f 17 be
       -0.055693686 -0.0869981 0.071054704 -0.14807056
000390 39 22 1b bb 9d b3 f4 bd b3 14 13 3e 9b 8c ad 3d
       -0.0023671521 -0.11948321 0.14363365 0.08474084
0003a0 02 9c be bc d6 00 ff 3d d6 59 2c 3d b3 e2 a3 3d
       -0.02326775 0.12451331 0.04207786 0.08002224
0003b0 9d 41 d1 3c 47 40 ad bb bc 94 b4 3d 60 9b 3d bd
       0.025543982 -0.0052872035 0.08817431 -0.046290755
0003c0 6a 00 5a bc 35 68 1f 3c a1 d8 28 3d 4b 1e 30 be
       -0.013305763 0.009729435 0.04122222 -0.17199056
0003d0 a1 9d b7 3d 67 05 62 bc b6 15 a4 3d 75 b3 c9 bd
       0.08965612 -0.013795233 0.080119535 -0.09848682
0003e0 53 91 65 3d a8 02 59 3c 11 e2 47 3e 61 71 e0 bd
       0.056046795 0.013245262 0.19519831 -0.10959125
0003f0 a8 89 bf 3c 95 6b 97 3b 70 69 2e bd 78 72 49 be
       0.02338107 0.004620979 -0.04258102 -0.19672573

fc2.bias f4 [64]
000000 94 69 fa 3d 1c a7 0c 3d 58 0d 8d bc a4 33 cb 3c
       0.12227169 0.034339055 -0.017218277 0.024804898
000010 13 c5 25 3c 4b bb f2 3c c7 6a f0 bd 2f c9 ab 3c
       0.010117787 0.029630324 -0.11739116 0.020969955
000020 49 91 9b 3d e3 05 85 bd cb 04 09 bb f5 18 ce bd
       0.0759607 -0.064952634 -0.0020907398 -0.10063354
000030 05 3a 31 3d b0 64 5e 3c 2f 36 21 3d 69 31 dd bc
       0.043268222 0.01357381 0.039358314 -0.0270011
000040 9e e2 9b 3c b0 fa d5 3d 60 98 f1 3d 63 2b e3 3c
       0.019028958 0.104482055 0.11796641 0.02773065
000050 1b 87 7f 3c 3e df bb bc 86 e8 91 3d 36 f0 1b bd
       0.0155961765 -0.022933599 0.071244285 -0.03807088
000060 d4 62 e2 3d 33 07 6d bb 50 74 1b bd d3 a9 dd 3d
       0.11054006 -0.003616762 -0.03795272 0.10823407
000070 7c 53 ca 3d 57 10 da 3d ad 5f 0e bc 6d cd 85 bb
       0.09879205 0.10647648 -0.008689803 -0.0040833266
000080 27 a0 c9 bd bb 91 9f bd ec 42 87 bd 42 d6 62 3d
       -0.09845 -0.07791468 -0.06604561 0.055380113
000090 b2 5d 9f 3d 40 1e a9 3d 82 21 9b 3d b5 88 c1 3d
       0.07781543 0.08257723 0.075747505 0.09449903
0000a0 08 af 9b 3d 55 67 9d bd d8 ba e9 3d c6 5e e1 3d
       0.07601744 -0.07685725 0.11412591 0.11004405
0000b0 ae 0c 2d 3d 07 8e 34 3d 20 8e 88 bd 8a 91 c5 3d
       0.04224842 0.04408076 -0.06667733 0.096469
0000c0 4e af 8e bd ee f2 9a 3d a6 7b e4 3d 7a 7b 66 3d
       -0.069670305 0.075658664 0.111563966 0.0562701
0000d0 a8 1e ad 3d b1 61 7f 3d 3e 2a 7a 3d 5c c3 c8 3c
       0.08453113 0.062349025 0.06107544 0.024507217
0000e0 a1 38 55 3d 55 e8 3f 3c ea ba dc 3d bd 61 e4 3d
       0.05205596 0.011713107 0.107778385 0.111514546
0000f0 15 37 0e bd ba bb 31 3c cb d3 da bc b9 59 f7 3c
       -0.0347205 0.01084798 -0.026712319 0.03019415

fc3.weight f4 [64, 64]
000000 7a 07 bf bd 18 36 91 3d 97 40 bf bd d1 2e e0 bd
       -0.09327598 0.07090396 -0.093384914 -0.109464295
000010 0f 33 e5 bd 4f b8 10 3d 37 ba d6 bd 40 0c ad bc
       -0.11191379 0.03533202 -0.104847364 -0.021124005
000020 bd 17 e6 bd 41 a2 a7 3d 06 f9 ac bc b0 83 ce bd
       -0.112349965 0.08185244 -0.021114837 -0.10083711
000030 1e 3a 1b 3d 0e 6f c1 bd b4 0c ba bd 77 10 1e 3d
       0.03789722 -0.0944501 -0.09084454 0.03858992
000040 74 f4 2a bc 99 b2 1e bd ad 1e 0a 3d 87 46 c1 3c
       -0.010434259 -0.038744543 0.03372066 0.0235932
000050 6c 04 f9 3d 8b f0 e7 bd ea e6 07 3d 93 34 3c 3d
       0.121590465 -0.11325177 0.0331792 0.045948576
000060 25 e9 55 3d 86 95 84 bd 21 d3 93 bd 94 68 98 bd
       0.052224297 -0.06473832 -0.07218004 -0.07441822
000070 d1 7a 9d bd 80 0d ce 3d 41 1a bc bd cf 17 27 bd
       -0.07689441 0.10061169 -0.09184695 -0.04079419
000080 93 04 78 bd ad e2 e6 bd a1 c7 95 3d 36 d6 58 3d
       -0.060551237 -0.11273704 0.07313467 0.052938662
000090 2e 11 64 bd df 44 f2 bc b7 6d 78 bd fb 20 9f bd
       -0.055680446 -0.029573856 -0.060651507 -0.077699624
0000a0 7c 58 3c bd 43 80 ff bd 84 c5 f2 bd 05 75 42 bd
       -0.045982823 -0.12475636 -0.11854079 -0.04747488
0000b0 ab 80 d9 3c 49 b5 9f 3d 56 eb 15 3c 1e f9 50 bd
       0.026550611 0.07798249 0.009150347 -0.051018827
0000c0 ae e7 46 3d 0a ad 8f 3d 19 43 d4 bd c8 89 63 bd
       0.04856079 0.070154265 -0.1036436 -0.05555132
0000d0 b6 da c7 bd b2 74 97 bc 08 eb cb 3d 91 b4 79 3d
       -0.09758513 -0.018488262 0.09956938 0.060963217
0000e0 14 28 a4 3d 6b 28 c4 bb 46 46 cc bd 36 56 a3 3d
       0.08015457 -0.0059862635 -0.09974341 0.07975428
0000f0 b0 b2 df bd af 28 78 3c 60 d8 e7 3d 9a 78 b2 3b
       -0.10922754 0.0151464185 0.11320567 0.0054465057
000100 67 ed 02 bc 13 b1 dd 3d b5 5e f3 3d d2 84 bd bc
       -0.007991171 0.1082479 0.11883298 -0.023134623
000110 60 f3 c1 bd 90 c2 99 bd fd 5d 1b be 54 a5 dc bd
       -0.09470248 -0.07507813 -0.15172572 -0.10773721
000120 9d 1a 91 3d ef 92 b5 bd 8c 40 4f 3d b2 66 c6 bd
       0.07085154 -0.08865916 0.050598666 -0.09687556
000130 32 b8 37 bd b1 fc c5 bc 68 60 76 3d 32 59 cd bd
       -0.044853397 -0.024168344 0.060150534 -0.10026778
000140 ad 72 cc 3c 13 55 05 3e b8 0b d6 3d 52 87 a2 bd
       0.024957025 0.13020734 0.10451454 -0.079359666
000150 de e2 24 be 07 0f 35 3d 6a ee aa 3d 4c 2e 7f bd
       -0.16102168 0.044203784 0.08346255 -0.06230001
000160 19 f0 c4 bc 8f c7 17 3e 3b de ff bc 8c 5b 40 3b
       -0.024040269 0.1482222 -0.031233897 0.0029351441
000170 a5 54 04 3c 10 aa 6f 3c be d7 35 bd 33 42 17 3e
       0.008076821 0.014627948 -0.0443952 0.14771347
000180 73 ae a4 3d 9d 62 93 3d d5 ca b2 3d bc 13 06 bd
       0.08041086 0.07196543 0.087300934 -0.032733664
000190 5b 8b 28 be c9 19 bf 3c 85 16 33 be 74 48 81 3d
       -0.1645941 0.023327725 -0.1748906 0.063126475
0001a0 66 01 9b 3d 16 45 ab 3d 63 e0 0a bd dd 0b 05 3e
       0.07568626 0.083627865 -0.033905398 0.12992807
0001b0 1d 60 5a 3c cb 3c 86 bd 8e 63 e5 3d 24 cc d4 3d
       0.013328579 -0.06554564 0.11200629 0.10390499
0001c0 18 3e 5a bc 2d 20 05 3c b7 0e a4 bd 1f ad 05 be
       -0.013320468 0.008125347 -0.08010619 -0.13054322
0001d0 93 22 fb 3d 8d 3c 1e be 55 b5 3c bd 90 df f8 3d
       0.12262454 -0.15452786 -0.04607137 0.12152016
0001e0 74 b2 00 3d 0f 82 72 3d d7 89 63 3e c8 88 5a 3d
       0.031420186 0.059206065 0.2222055 0.0533531
0001f0 cd 13 8e bd 09 5e a6 3c 6d 40 c4 bd b3 42 fd bd
       -0.069373704 0.020308511 -0.09582601 -0.123662375
000200 1e 52 18 be cd 95 ae bd 9f 37 ed 3d 94 d7 0d bd
       -0.14875075 -0.08524666 0.115828745 -0.03462942
000210 29 bc 0a be 6e 13 91 3d fe 6d 2a bd 7a ff 11 3e
       -0.1354834 0.07083784 -0.041608803 0.14257613
000220 30 d9 cf 3d ec b2 69 3e 6b 7f 1c 3d 05 06 8f bd
       0.10148847 0.2282216 0.038207453 -0.0698357
000230 ff 1c fa bd 96 e4 39 3e 46 97 bd 3c c8 a2 71 bc
       -0.12212562 0.18153605 0.023143422 -0.014748283
000240 3e a9 a3 3d 01 54 f7 bd b5 65 9a bd 27 bd 24 be
       0.07991265 -0.12076569 -0.0753893 -0.16087781
000250 f7 1d 82 3d 31 e9 d1 3d 4e 11 15 be c4 18 b8 3d
       0.063533716 0.10249556 -0.14557382 0.08989099
000260 96 1c 45 3c 1a bb 77 3d 76 05 f1 3c 31 c7 46 be
       0.012030741 0.06048117 0.02942155 -0.19411923
000270 52 4a 06 bd 83 71 30 bc 9c 14 96 3d f6 41 88 3c
       -0.03278572 -0.010769251 0.0732815 0.016633015
000280 9e e9 a7 3d c8 47 94 bd ac e9 20 3e 9c eb ef 3c
       0.08198856 -0.07240254 0.15714139 0.029287152
000290 e4 d1 d5 39 f3 a3 b9 bc 6b 25 8e 3e 05 9f 94 bd
       0.00040782907 -0.022661185 0.27762923 -0.07256893
0002a0 b3 bd 58 bd 56 ae 98 3d 3d 44 a8 3d 57 79 2e be
       -0.052915286 0.07455127 0.082161404 -0.17038475
0002b0 d1 df b9 bd 27 b9 eb 3d 3f fe 94 bd e5 bb ca 3d
       -0.09075893 0.115099244 -0.07275056 0.09899119
0002c0 c0 8c 16 3d 99 8f fd bd 59 25 82 3d 94 64 93 3b
       0.036755323 -0.12380905 0.0635478 0.004498074
0002d0 5d 8e 07 3d cb 48 80 3d 22 97 4b be 02 08 c2 bd
       0.033094753 0.06263884 -0.19881871 -0.094741836
0002e0 22 f3 6b bd 56 3e 14 bd c4 6c 17 3e 0a 86 b5 bc
       -0.057604916 -0.03619226 0.14787585 -0.022158641
0002f0 7f 5f 94 bd d6 99 bc 3d 9e 5d 7a 3d 15 fe 50 3e
       -0.07244777 0.092090294 0.061124437 0.20409425
000300 ee f5 ed 3c b5 5f 13 3d c0 13 e9 3d d4 ea b3 bd
       0.029047932 0.035979945 0.1138072 -0.08785024
000310 0f c1 d2 3d d3 44 31 be f1 f1 01 3e 7e b5 08 be
       0.10290729 -0.1731141 0.1268995 -0.13350484
000320 0e 75 bd bd f6 e5 06 3d d8 ef 76 3d 2b c4 df 3b
       -0.09250842 0.03293415 0.060287327 0.006828805
000330 2c 70 85 3d 75 49 ce 3d 24 fb a3 bd e3 8b 10 bd
       0.06515536 0.100726046 -0.08006886 -0.035289656
000340 ed 74 a9 bd be 3a 1f 3e 26 87 a3 bd 69 fb 2c bd
       -0.08274255 0.15549752 -0.07984762 -0.04223195
000350 8e e8 fd bc 48 7c c8 3d 1f be 03 be 64 71 c2 3d
       -0.03099468 0.0978933 -0.12865494 0.09494284
000360 52 9b 8b 3d b7 bf e3 bd 11 71 e2 3d 23 ed a0 bd
       0.068167344 -0.11120551 0.11056722 -0.0785773
000370 2c bb 28 3e 00 7c be bd ab e1 ee bd 55 1f 62 bd
       0.1647765 -0.09300995 -0.116641365 -0.05520566
000380 38 3b 6b bd 92 40 81 bd 95 39 fb bd a7 e6 e7 bb
       -0.057429522 -0.06311144 -0.12266842 -0.0070770564
000390 0f 99 45 3e 3f 3c ed 3d 50 52 e7 bd 7f 80 e7 3c
       0.19296668 0.11583757 -0.11294997 0.028259514
0003a0 70 c5 7f bd ec 68 15 bd b1 d5 7b bc bd 14 a4 bd
       -0.06244415 -0.036477014 -0.015370772 -0.08011768
0003b0 22 13 ed 3c 51 de f2 3d f0 d9 01 3d 29 f5 54 3c
       0.028939787 0.1185881 0.031701982 0.012997904
0003c0 7e 9e 3a bd 0d 3f 66 be b4 03 c7 3b 60 a8 1b 3e
       -0.045561306 -0.2248499 0.0060734395 0.15200949
0003d0 f7 99 b2 bd cb 76 d2 bd a3 3e 8f 3b a8 20 95 3d
       -0.08720773 -0.10276564 0.0043714806 0.07281619
0003e0 30 b6 96 3d 0e 97 f0 bd 94 b0 c0 bd 15 87 d2 bd
       0.07358968 -0.117475614 -0.094086796 -0.10279671
0003f0 86 91 20 bd e3 42 80 bc 4b 61 64 3b f8 40 10 3d
       -0.039201282 -0.015656894 0.003484803 0.03521821

fc3.bias f4 [64]
000000 be 2a 5f bd c1 29 9c bb c4 61 d1 bd f4 c6 8d 3c
       -0.05448412 -0.0047657196 -0.102237254 0.017306782
000010 d0 47 e3 3d dd 8f 04 bd 93 e4 92 bc e2 3e e2 3d
       0.110976815 -0.03236376 -0.017931258 0.1104715
000020 88 9a b2 bd 62 a3 be ba 81 24 c3 bd ab 2c 99 bd
       -0.08720881 -0.0014544541 -0.09528447 -0.07479223
000030 6a 07 d0 3d 69 68 0d 3d 18 ca a8 3b 70 25 8c 3d
       0.10157664 0.0345234 0.0051510446 0.06843078
000040 66 fc 6c 3c 51 1e e6 bd cc 54 ba bd 3f a7 47 3d
       0.014464473 -0.11236251 -0.09098205 0.048743483
000050 22 f0 d9 ba fa a0 a0 3b 54 58 08 bd d8 ba 2b bd
       -0.0016627351 0.0049020024 -0.03328736 -0.041926235
000060 ae c6 d9 bd e1 8a f5 3d 65 21 1d 3d e3 2a 10 3d
       -0.10633598 0.1198938 0.038361926 0.03519715
000070 02 f4 cd 3d e1 e3 e5 3c 5a 81 d2 3d b8 3f 22 bc
       0.100563064 0.028062763 0.10278578 -0.009902887
000080 53 10 1b 3d 79 73 56 3d 78 99 bb 3d cb 3b 59 bd
       0.037857365 0.052356217 0.09160131 -0.05303554
000090 88 04 9b 3d 8c e2 9a bd 8f ee 98 bc a8 b8 bd 3c
       0.07569224 -0.07562742 -0.018668441 0.02315934
0000a0 27 5e 94 3c 79 b7 80 3c 96 04 a4 bb e2 91 fa bd
       0.018111302 0.015712487 -0.0050054295 -0.12234856
0000b0 d7 23 71 bd fc 32 a3 bd 56 6c 8a 3d e8 bd 88 bc
       -0.05887207 -0.07968709 0.06758945 -0.016692117
0000c0 81 88 e2 bd 15 11 f7 3d 07 44 a6 bc eb a1 e5 3d
       -0.11061192 0.12063805 -0.02029611 0.11212524
0000d0 bc 30 92 3d 40 57 d2 bd 16 55 3f 3d db ba 3c 3d
       0.071382016 -0.10270548 0.046712004 0.046076637
0000e0 cc 92 0b 3e e2 b3 08 bc 55 43 d6 3d c7 21 f2 bd
       0.13630217 -0.008343669 0.10462061 -0.11822849
0000f0 0a 53 99 bd a8 b7 07 be 14 cb 8b bd f3 0c 33 3d
       -0.074865416 -0.13253653 -0.068258435 0.04371352

fc4.weight f4 [27, 64]
000000 60 a7 f2 bd eb 99 27 be 2f c0 42 3e 71 b0 44 b9
       -0.118483305 -0.16367309 0.19018625 -0.00018757746
000010 96 4f 20 3e dd 34 82 bc fa 3b 29 be 43 e5 1f be
       0.1565536 -0.015894348 -0.16526785 -0.156148
000020 87 08 0e bd dc 78 33 3e a8 3d fc bd f4 6b 50 3d
       -0.0346761 0.17526573 -0.123164475 0.050884202
000030 ad 11 61 3d fd 70 8e bd 25 5e 30 bd 46 a3 a2 3d
       0.054948498 -0.069551446 -0.043058533 0.07941298
000040 e8 8f 41 3e df 1e a1 bd 27 70 31 3e 20 aa a1 3d
       0.18902552 -0.07867216 0.17327939 0.07893777
000050 56 59 8e 3e 0f c3 b2 bd 39 b4 20 bd 97 65 62 3e
       0.27802533 -0.08728611 -0.039234374 0.22109066
000060 91 1b bc be 7c 7e 5f be 92 a5 27 3e 78 5e 8e bd
       -0.36739781 -0.21825594 0.16371754 -0.06951612
000070 5e e4 ec 3d e5 a6 1f be 5b aa 33 bc 83 78 2e bc
       0.11566995 -0.15591009 -0.010965909 -0.010648849
000080 f1 03 bd bd 95 33 32 3d 12 5a 21 3e 65 91 01 be
       -0.092292674 0.043506224 0.15757015 -0.1265312
000090 0d f6 83 3c 17 9c f8 bd 65 9f 3f bd fa 0c 46 3e
       0.016108537 -0.12139147 -0.04678287 0.19340888
0000a0 c4 44 bb bd 10 29 a3 bd 97 34 f9 bd 0a b2 03 be
       -0.091439754 -0.079668164 -0.12168234 -0.12860885
0000b0 85 ed a4 3d 1e 7b f5 3d 16 ea 11 be d2 29 f0 bd
       0.08053116 0.11986373 -0.14249453 -0.117267266
0000c0 90 4f 31 3e a5 ad 75 bd 37 67 73 bd 0e 84 04 be
       0.17315507 -0.059980053 -0.059424605 -0.12941
0000d0 9f a4 6e 3d 5e 62 31 bc ca d6 56 be 1e de b5 3d
       0.058262464 -0.010826675 -0.20980373 0.08880256
0000e0 66 01 e7 3d ed 31 2d be 2b 2a f5 bd f5 52 ab bc
       0.112795636 -0.16913576 -0.119709335 -0.02091358
0000f0 6b 36 2e bd 14 2e e0 bd 04 56 7e 3e df 18 24 bc
       -0.042532366 -0.10946289 0.248375 -0.010015695
000100 1f 75 04 3e 18 82 8b 3d c5 63 03 bd af 74 b4 3d
       0.12935303 0.06811923 -0.03207757 0.08811318
000110 80 65 bf bd 39 f6 dc 3d 1e 77 4e be f0 16 63 be
       -0.093455315 0.10789151 -0.20162627 -0.22176719
000120 79 62 f0 bd 1f a0 73 3d 3d 90 87 3b e3 11 41 3e
       -0.11737532 0.059478875 0.0041370676 0.1885448
000130 90 ce f8 3c f1 f3 ea bd fe 60 ec 3d 0d e8 0b bd
       0.030371934 -0.114723094 0.11541937 -0.034156848
000140 55 05 a5 bd a6 db 75 bd cb f2 de 3d 1f a8 32 3e
       -0.08057658 -0.060023926 0.10886153 0.17446946
000150 77 da 71 be 71 84 37 bd 62 a3 8b 3e cb bf 9e 3d
       -0.23618494 -0.04480404 0.2727309 0.07751425
000160 fa df 7f 3e 04 94 ce bd 08 11 b2 3d b5 47 1b 3e
       0.24987784 -0.100868255 0.08694655 0.15164073
000170 2c 38 cc bb a9 18 48 be bb 0c d1 bd 0f 97 99 bd
       -0.006232282 -0.19540657 -0.10207506 -0.07499515
000180 41 c4 a0 bb 20 6f e5 3d ba 89 08 3d 74 c1 4a 3d
       -0.004906208 0.11202836 0.03333447 0.049500898
000190 fc 16 0e be e4 ec f3 3c 2b 71 ed 3d 5f ba e7 bd
       -0.13875955 0.029776044 0.11593851 -0.11314844
0001a0 cc ea a9 3c 5d 02 e8 3d 80 1f e0 bd cc d6 63 3d
       0.020741843 0.11328576 -0.10943508 0.05562477
0001b0 b2 09 e3 3b f8 d2 4f be 6b 9b 82 3d da af 65 bd
       0.006928646 -0.20295322 0.063773 -0.05607591
0001c0 47 42 02 be 68 cf 2a bd 2d ef 92 3d 70 92 2c 3e
       -0.12720595 -0.041701704 0.071745254 0.16852736
0001d0 21 ce 27 be 8a 69 51 3d 8d 0c 34 3e 6d 94 4a be
       -0.16387226 0.05112604 0.17582913 -0.19783182
0001e0 b0 c4 d3 bd f9 d3 c2 3d 73 fb d1 3d dd 7d 95 3d
       -0.103402495 0.09513087 0.10253038 0.07299397
0001f0 7c 00 91 3d 14 2e 18 be eb 1b 7d be 13 e5 43 3d
       0.070801705 -0.14861327 -0.24717681 0.047825884
000200 eb 2a 99 bc 92 1c 24 bd 3c 81 54 3e 45 dd 3c bd
       -0.018697223 -0.04006631 0.20752424 -0.046109457
000210 06 f4 53 3e 57 55 7c bd 3e d9 14 be d4 bd 6b 3e
       0.20698556 -0.061604824 -0.14535996 0.23021632
000220 cc 39 b7 3d 9e c7 cd 3d ee 40 48 bc 40 30 26 be
       0.08946571 0.100478396 -0.012222512 -0.16229343
000230 45 ac e2 bd 58 25 13 3e 44 f8 4e bd b3 b6 49 bd
       -0.11068014 0.14369714 -0.050529733 -0.0492465
000240 07 48 54 bd 4d 0a 6f bc 6b ee 65 3e 05 a2 65 be
       -0.051826503 -0.014589858 0.2245423 -0.22425087
000250 d9 90 a8 bd ca 6c 94 be f7 7c 04 be 8d fb 95 3b
       -0.082307525 -0.2898925 -0.12938295 0.0045771063
000260 94 e6 00 3d d5 75 06 3e 7d 7c 86 be de 29 04 3e
       0.031469896 0.13130887 -0.26266852 0.12906596
000270 3c cf a3 bc 15 98 f2 3d ab 07 55 be 52 b4 51 3d
       -0.019996278 0.118454136 -0.20803706 0.051197357
000280 65 ef 7a be a4 d1 cf bd fe 48 3d bd b1 5d c0 3d
       -0.24505384 -0.10147408 -0.04621219 0.0939287
000290 76 41 3f 3d e6 65 0f 3b cb 6d 9e 3b fe 56 8b bd
       0.046693288 0.0021880805 0.0048348657 -0.06803702
0002a0 0b ae b1 3d 73 23 f7 3d ce 9a 4f 3e 98 ee 68 3e
       0.08675774 0.12067308 0.20273897 0.22747266
0002b0 09 6d 0f 3e bc b7 d0 3d 04 6a f1 3b c5 45 34 3d
       0.14006437 0.101912946 0.0073673744 0.04401185
0002c0 20 3c de bd 88 54 6a be 90 59 f3 3d ab d3 03 3e
       -0.10851312 -0.22883809 0.11882317 0.12873714
0002d0 7b c1 e9 3d 51 fb 50 bd 52 ca ee 3d 98 93 c7 3d
       0.114138566 -0.051020924 0.11659683 0.09744948
0002e0 05 ef 83 bd b9 38 68 be cf 75 32 3e 5a ce 42 3e
       -0.06442074 -0.22677888 0.17427753 0.1902403
0002f0 46 ea b2 bd bf 89 f4 3d a3 6a 05 be af 2b 2b bd
       -0.0873609 0.119403355 -0.1302896 -0.041789707
000300 0f 60 2d bd 78 b4 72 bd fe 47 48 3e 5b 00 75 3e
       -0.042327937 -0.05925414 0.19558713 0.23925917
000310 ed e5 0d 3e d5 ad bb bd 95 06 11 be d0 7f d5 3d
       0.13857241 -0.09164015 -0.14162667 0.10424769
000320 c5 02 75 3d 47 ca e4 bd 1b e6 63 bd d1 13 1e be
       0.059817094 -0.11171394 -0.055639368 -0.15437247
000330 06 8c 28 3d 9c 93 20 be 64 81 90 3d 85 44 cd 3d
       0.04114916 -0.15681309 0.07055929 0.10022835
000340 9c 0a 6c 3e a3 83 c7 3c e4 15 06 be d0 4a 65 bb
       0.23050922 0.024354761 -0.13094288 -0.0034987219
000350 ec 1a d6 bd 92 36 fd 3d dc c8 2c be 4d 54 02 3e
       -0.10454354 0.12363924 -0.16873497 0.1272747
000360 52 28 28 be 4f cb c5 bd 10 f8 16 3e 78 ea 11 be
       -0.16421631 -0.09657919 0.14743066 -0.14249599
000370 db 54 f5 bd 86 f8 b5 3c 0e d6 40 3b b7 59 d0 bd
       -0.119790755 0.022213232 0.0029424462 -0.10173362
000380 96 d3 d0 bc f6 a6 7a 3e 33 ff 0b be d8 ac 64 bd
       -0.025491517 0.24477753 -0.1367157 -0.0558289
000390 15 c7 9e bc 4b 5d d4 bd 84 e6 31 3e 08 d1 6e 3c
       -0.01938204 -0.10369357 0.17373091 0.014576204
0003a0 2f 71 c6 bd 1b c1 88 3d b0 36 e2 bd 4d 62 69 be
       -0.09689557 0.06677457 -0.11045587 -0.22791405
0003b0 aa 52 23 be 15 bb ee 3d a9 8b 20 3e ee 3c fc bd
       -0.15949503 0.11656777 0.15678276 -0.12316309
0003c0 dd 61 a6 3c 1a 8a ae 3e bf ac d6 3c b4 c7 e5 3d
       0.020310337 0.34089738 0.026205419 0.11219731
0003d0 f3 56 ab 3d 38 78 ff bd 71 b3 95 bc 7e 8a 85 3d
       0.083661936 -0.12474102 -0.01827404 0.06520556
0003e0 e8 48 b2 3d 3d d3 1d 3d 09 5e 98 bc be a5 14 3e
       0.08705312 0.03853153 -0.018599527 0.1451635
0003f0 b6 34 36 bc a7 23 49 3e df f3 8b 3c 8c c3 ce bd
       -0.011120966 0.19642507 0.01708406 -0.10095891

fc4.bias f4 [27]
000000 60 1d c7 3c 18 96 b3 bd 6c 15 e9 bd 35 c2 a6 3d
       0.024306 -0.087688625 -0.11381039 0.08142511
000010 d0 18 5e bd e7 78 99 3d ab 81 d5 bc 45 a8 b4 3c
       -0.05422288 0.074937634 -0.026062807 0.022052893
000020 a3 af 28 3d ae 3b 52 bd c9 de 78 3c 05 81 87 bc
       0.041183125 -0.051326446 0.015189835 -0.016541013
000030 a7 95 a7 34 9e c2 02 be 0a 18 bc bd f7 85 85 3d
       3.121506e-07 -0.12769553 -0.091842726 0.065196924
000040 76 06 79 bd 1a 09 ba bd c8 8d 71 3c 0c 27 07 be
       -0.060797177 -0.09083767 0.014743276 -0.13198489
000050 8e f4 74 bd 2d c2 c2 3d 46 41 df 3d 59 80 07 3d
       -0.059803538 0.09509692 0.10901122 0.033081386
000060 92 4a a3 bd 73 f4 f0 3d 03 3f 8e bd
       -0.079732075 0.11765375 -0.06945612
