src/cached_data/trained_models/model_200_144.pt (torch_old, 78702 bytes, 8 tensors)

fc1.weight f4 [64, 144]
-0.02013585 0.02661771 3.7886064e-05 0.044619787 0.09339693 0.01616826 0.043585036 -0.042962406
-0.021928007 0.026252726 0.010146027 0.12489296 -0.0011496361 -0.030686684 -0.100641035 0.069643535
0.07581434 0.0022425451 0.09019326 -0.03836965 0.030179523 0.024663018 0.039942063 -0.019992774
0.004698493 0.025697215 0.1081888 0.08383144 0.007289649 -0.109024666 0.10337913 0.11133486
0.114976294 -0.010649555 0.027310679 0.04717865 -0.049020104 0.008442271 -0.0048597315 0.14036706
0.10920014 0.04526724 0.017056707 0.098427095 0.07108772 0.0656478 -0.07203552 -0.011897262
-0.1220601 0.017557116 -0.02079473 -0.026066827 0.08012348 0.004709121 0.016141651 0.08704666
-0.14544883 -0.09064245 -0.058999084 -0.13874191 -0.0031895514 0.008853143 -0.0492799 -0.11298193
0.03869928 -0.036417406 -0.04766973 0.11508175 0.009150473 0.1980704 0.14601989 0.05514671
-0.116810404 0.020345585 -0.086866826 -0.09310678 -0.11570418 -0.026361868 0.057457738 -0.0668529
-0.04757998 -0.009196466 -0.104300454 -0.02787293 -0.13648406 0.03971081 0.04040885 -0.07999468
0.070849426 0.09798278 0.06696694 0.01596581 -0.02373201 -0.059421126 0.054935742 0.0013397139
-0.11449832 -0.03239882 0.0122902775 0.0650537 -0.053110067 0.12402498 0.06974415 0.027413797
0.0032912726 -0.078955315 -0.041829325 -0.0389743 0.11121246 0.099297635 0.16873111 0.0402388
0.032917652 0.023114197 0.051205292 0.070749275 0.021769095 0.027356738 -0.056906532 0.050597563
-0.12970616 -0.11784965 -0.03502209 -0.0951981 0.04784263 0.006830019 0.12002346 -0.054062057
-0.1237449 -0.07706531 0.0028970912 -0.09424531 -0.13792197 -0.12876873 -0.069532104 0.04992849
0.047829628 -0.056167293 0.10664868 0.089496315 0.07705478 0.025675789 0.053657014 0.045593888
0.089975186 -0.019448057 -0.053964585 -0.02181323 -0.004482332 0.0611488 0.052278508 0.07188647
0.043300923 0.07342906 0.012269994 0.10469254 0.01050222 0.03617802 -0.0050683357 0.0005473729
-0.06855941 -0.1197513 0.0048977546 -0.08350536 0.0468276 0.04733613 -0.09134053 -0.057777792
-0.08806213 0.06296904 -0.040734272 -0.09812962 0.056634936 -0.038789235 -0.02035198 -0.06429282
-0.08204138 -0.061982952 -0.07401742 -0.08695398 -0.011382525 -0.052217055 0.037485346 -0.022184482
-0.01817403 -0.03932349 -0.036373246 -0.0040859035 0.04118411 -0.10127508 -0.08757416 -0.09504672
0.047151107 -0.014548944 0.089220345 0.029004542 -0.01252063 -0.04530658 -0.056162026 0.060460594
-0.111126095 -0.09965265 0.043020822 -0.06042066 0.022739505 -0.052721526 -0.024612308 -0.116585836
0.06664371 -0.032162752 0.0848777 0.0084569855 -0.045478936 0.08196361 -0.035612483 0.069962226
-0.059258852 0.024676895 0.0670531 0.053616405 -0.053770863 -0.026232645 -0.074800335 0.020955415
-0.08261284 0.03855971 -0.0977362 -0.08321219 -0.10060116 -0.0063284263 0.109570675 0.046769556
-0.0021157993 0.048502553 0.014963547 -0.05987462 0.103237815 -0.00024792948 0.08188934 0.04374343
0.08420884 0.040699113 0.025016362 -0.029350294 -0.026437182 -0.00038092013 -0.060032405 -0.018264186
0.036633782 0.099971615 0.02451468 0.096528515 0.06835436 0.03350632 0.12625338 -0.03233214
00000000: f0f3 a4bc 620d da3c dae7 1e38 3dc3 363d
00000010: e446 bf3d 4c73 843c 3986 323d 59f9 2fbd
00000020: 5da2 b3bc f50f d73c 863b 263c e1c7 ff3d
00000030: 63af 96ba a462 fbbc e31c cebd 45a1 8e3d
00000040: 8c44 9b3d aaf7 123b 3eb7 b83d 7e29 1dbd
00000050: 0c3b f73c 190a ca3c 4a9a 233d e3c7 a3bc
00000060: d1f5 993b f782 d23c 1792 dd3d d1af ab3d
00000070: 02de ee3b 5348 dfbd 70b8 d33d 8803 e43d
00000080: b178 eb3d 797b 2ebc a5ba df3c 663e 413d
00000090: 4ec9 48bd 7351 0a3c 623e 9fbb 62bc 0f3e
000000a0: 53a4 df3d 246a 393d 82ba 8b3c 2594 c93d
000000b0: 7096 913d 5b72 863d 5c87 93bd bcec 42bc
000000c0: a5fa f9bd f1d3 8f3c b659 aabc 198a d5bc
000000d0: c717 a43d f84e 9a3b 7f3b 843c 8545 b23d
000000e0: 8af0 14be c0a2 b9bd 06a9 71bd 5c12 0ebe
000000f0: cb07 51bb c60c 113c b8d9 49bd 1263 e7bd
00000100: 2383 1e3d 6b2a 15bd 5641 43bd fbaf eb3d
00000110: deeb 153c f8d2 4a3e 3d86 153e 84e1 613d
00000120: 4b3a efbd c9ab a63c 3ce7 b1bd c4ae bebd
00000130: 50f6 ecbd d8f4 d7bc ce58 6b3d 2cea 88bd
00000140: 3ae3 42bd c6ac 16bc 7a9b d5bd c555 e4bc
00000150: 7ac2 0bbe cda7 223d c083 253d 40d4 a3bd
00000160: 8119 913d 32ab c83d f725 893d bbca 823c
00000170: a269 c2bc 9163 73bd 4d04 613d 5799 af3a
00000180: 187e eabd a0b4 04bd 295d 493c e03a 853d
00000190: f189 59bd cf00 fe3d 05d6 8e3d e692 e03c
000001a0: 64b2 573b 53b3 a1bd 3a55 2bbd 84a3 1fbd
000001b0: 5cc3 e33d 8f5c cb3d d9c7 2c3e 71d1 243d
000001c0: a9d4 063d fc59 bd3c a4bc 513d ffe4 903d
000001d0: 1a55 b23c 3d1b e03c d316 69bd 643f 4f3d
000001e0: b1d1 04be 285b f1bd 5373 0fbd 39f7 c2bd
000001f0: a2f6 433d 5ace df3b dcce f53d 2d70 5dbd
00000200: f76d fdbd 6bd4 9dbd 20dd 3d3b af03 c1bd
00000210: 6b3b 0dbe f3db 03be d966 8ebd d181 4c3d
00000220: 00e9 433d ad0f 66bd a06a da3d d849 b73d
00000230: e6ce 9d3d 0856 d23c 75c7 5b3d a8c0 3a3d
00000240: e944 b83d 8851 9fbc f809 5dbd a9b1 b2bc
00000250: 87e0 92bb 2a77 7a3d fd21 563d 3739 933d
00000260: 4f5c 313d fa61 963d 1608 493c 0b69 d63d
00000270: 8111 2c3c 672f 143d 4814 a6bb 937d 0f3a
00000280: e068 8cbd 2b40 f5bd 587d a03b dc04 abbd
00000290: 4cce 3f3d 88e3 413d be10 bbbd 68a8 6cbd
000002a0: eb59 b4bd e9f5 803d fbd8 26bd 2ff8 c8bd
000002b0: 09fa 673d 76e1 1ebd 32b9 a6bc f4ab 83bd
000002c0: 5005 a8bd d6e1 7dbd 7296 97bd ee14 b2bd
000002d0: c57d 3abc 8de1 55bd 3c8a 193d 3bbc b5bc
000002e0: b4e1 94bc ab11 21bd 1dfc 14bd 0be3 85bb
000002f0: abb0 283d 4f69 cfbd 155a b3bd dba7 c2bd
00000300: 8521 413d b25e 6ebc 28b9 b63d ef9a ed3c
00000310: 5423 4dbc 6493 39bd 270a 66bd 87a5 773d
00000320: 1496 e3bd b016 ccbd 9a36 303d a77b 77bd
00000330: 3348 ba3c 87f2 57bd c09f c9bc 8ec4 eebd
00000340: 7f7c 883d 17bd 03bd 5cd4 ad3d 2b8f 0a3c
00000350: 1f48 3abd 8adc a73d 65de 11bd 5b48 8f3d
00000360: 69b9 72bd 3327 ca3c 2353 893d e09c 5b3d
00000370: d63e 5cbd d8e5 d6bc eb30 99bd b1aa ab3c
00000380: ec30 a9bd c9f0 1d3d eb29 c8bd 276b aabd
00000390: fb07 cebd b05e cfbb 9766 e03d 6f91 3f3d
000003a0: 39a9 0abb 9daa 463d aa29 753c 173f 75bd
000003b0: 596e d33d 88fc 81b9 99b5 a73d 502c 333d
000003c0: af75 ac3d 1db4 263d 1def cc3c 0770 f0bc
000003d0: ca92 d8bc 3cb6 c7b9 8ae4 75bd c69e 95bc
000003e0: 4e0d 163d ebbd cc3d 03d3 c83c beb0 c53d
000003f0: 5ffd 8b3d ec3d 093d 9148 013e b56e 04bd

fc1.bias f4 [64]
0.011608438 0.05969135 -0.051385067 0.009802637 0.0470724 0.07316359 -0.06310729 -0.026593817
0.054315165 -0.012795216 -0.026285566 -0.080875576 -0.016502332 0.010697232 0.06370691 0.031837814
-0.05920856 0.07182069 -0.01372087 0.0714034 -0.06799407 -0.07978144 -0.020062167 -0.0023541134
0.01335567 -0.043363538 -0.012162546 0.07564483 0.040694185 -0.028364575 0.007187456 -0.004974965
0.036965497 -0.037440438 -0.045697607 -0.04758455 -0.03341281 0.07556938 0.04794572 -0.0621542
-0.060063817 0.06500328 0.05288286 -0.05889299 0.05031766 -0.0032255028 -0.079991214 0.08031008
-0.025900738 0.08040422 -0.0018590584 0.03311577 0.00782808 0.04564041 0.04182745 -0.07507735
0.04041541 -0.0057210927 0.013364688 0.02036168 0.081449315 -0.049483337 -0.02865179 0.05669368
00000000: 5131 3e3c eb7e 743d 2679 52bd 3d9b 203c
00000010: fdce 403d cbd6 953d 653e 81bd 47db d9bc
00000020: 9479 5e3d 07a3 51bc d454 d7bc 18a2 a5bd
00000030: e62f 87bc 7143 2f3c c578 823d 5e68 023d
00000040: ad84 72bd ba16 933d 80cd 60bc f23b 923d
00000050: 7a40 8bbd 7464 a3bd 6a59 a4bc 7847 1abb
00000060: bdd1 5a3c f79d 31bd 6a45 47bc adeb 9a3d
00000070: f2ae 263d d35c e8bc c084 eb3b 0805 a3bb
00000080: 2269 173d 255b 19bd 6a2d 3bbd 04e8 42bd
00000090: dfdb 08bd 1ec4 9a3d bb62 443d 6795 7ebd
000000a0: 7a05 76bd 7120 853d b39b 583d c739 71bd
000000b0: e419 4e3d f562 53bb 6fd2 a3bd 9c79 a43d
000000c0: c92d d4bc f8aa a43d a6ab f3ba 67a4 073d
000000d0: 5941 003c 70f1 3a3d 4353 2b3d 27c2 99bd
000000e0: a18a 253d 0178 bbbb 90f7 5a3c 8acd a63c
000000f0: e6ce a63d 0aaf 4abd 29b7 eabc a237 683d

fc2.weight f4 [64, 64]
0.036540106 -0.020385463 -0.075992845 -0.07687978 -0.07187635 -0.048413236 0.027381554 0.053898197
-0.118936226 -0.084436364 0.100955315 0.0994028 -0.0033453782 -0.08432318 -0.09955827 0.002090756
-0.08411323 -0.06951966 0.07994857 -0.005123468 -0.031563986 -0.0752996 0.06518063 -0.0044196174
-0.08886477 0.12206079 0.053058133 -0.09615446 0.043417145 -0.06659885 0.09978265 -0.0069368766
-0.021318521 -0.11357088 -0.037729114 0.072683915 -0.07068159 -0.08110337 -0.013186292 -0.071128994
-0.023822129 -0.10253874 -0.021337273 -0.0676282 0.0870639 -0.10083538 0.11139913 0.004576788
0.09774589 -0.023427827 -0.09843855 -0.07271108 0.024315676 -0.07779224 0.040660568 0.025181565
0.12545116 0.087662384 0.041121982 0.0555244 -0.0048611765 0.12297913 -0.06733054 0.039131
0.022981549 -0.10495055 -0.104846396 0.051360205 0.29076988 0.005074812 -0.046393406 0.027854677
0.037465513 0.015401445 0.007367168 0.20114884 -0.12760337 -0.022292148 -0.04673543 0.23917522
-0.061145984 -0.14470465 -0.048674583 0.025258433 -0.043618757 -0.1490093 0.06487035 0.14938709
0.030986384 -0.12900686 0.1271417 -0.013828228 -0.06512521 0.075610235 -0.03710754 0.06289334
0.031225262 -0.10758961 -0.071366034 0.11541754 0.11407559 0.0921314 -0.11581926 0.051471107
0.12139977 -0.10137255 0.14288767 0.024732659 -0.096170075 -0.006513144 -0.059054058 -0.0141529245
0.017413871 -0.09744737 -0.07557316 -0.030083055 0.0003400212 0.08271032 -0.04191054 0.0668295
0.03697478 -0.13781546 0.14454314 -0.093582645 -0.2176497 0.12586428 0.018209914 0.016305115
-0.09695127 0.011330353 -0.009017867 -0.025249833 -0.16306734 -0.02912072 -0.040045816 -0.010258332
-0.03686386 0.018183732 0.115705304 -0.048831362 -0.15931532 0.098005146 -0.043301266 0.082137704
-0.090978004 0.07974917 -0.043621175 -0.13275559 0.04219613 0.0066571385 -0.10713819 -0.09349896
0.019513827 0.02275059 0.12222975 0.1451453 0.007076828 0.03860135 -0.103208914 0.0037473084
-0.08192655 -0.13917185 0.047180127 -0.03908239 0.053777814 0.010453076 0.112447634 0.16121943
0.13273804 0.037608434 0.12779766 0.12896928 -0.12479331 -0.058061223 0.23081659 0.08089314
0.050420143 -0.10724307 0.114461154 0.04032738 -0.09844235 -0.10728566 0.077772215 -0.09786557
-0.076625556 -0.15120393 -0.12453773 0.10651134 0.17845844 0.016573068 -0.059005633 0.19445921
0.24655554 -0.07815234 0.099034086 0.0064629368 0.0013394568 -0.07728391 -0.03539834 -0.1074819
-0.013335182 0.033987623 -0.1529754 0.05880182 0.1406388 -0.0039351936 -0.005011659 0.022327187
-0.14072764 0.039353494 0.0008489043 0.08413379 0.10354123 -0.05890464 -0.07538908 -0.020150939
0.0235112 0.13828327 0.037597448 0.02808251 -0.18870953 0.12525532 0.21942185 0.07680569
-0.22156434 0.13988502 0.047558606 0.12784533 -0.22898273 -0.1050266 -0.0060575143 -0.09656156
0.13076916 0.1245863 -0.03751865 -0.13493316 -0.05271045 0.09803469 0.00036448776 0.02689286
0.10267103 -0.103796 0.0640904 -0.10219738 0.07393471 0.040764045 -0.23754337 -0.013748845
-0.0042079543 -0.0621525 0.13725998 0.19222145 0.04446556 -0.05832616 -0.062059097 0.08792945
00000000: 14ab 153d 6aff a6bc 23a2 9bbd 2573 9dbd
00000010: e833 93bd f54c 46bd 484f e03c 5bc4 5c3d
00000020: d694 f3bd f9ec acbd a9c1 ce3d b293 cb3d
00000030: 223e 5bbb a2b1 acbd 35e5 cbbd 1105 093b
00000040: 8f43 acbd 5360 8ebd 13bc a33d c4e2 a7bb
00000050: 3d49 01bd ad36 9abd 6c7d 853d 70d2 90bb
00000060: bcfe b5bd 02fb f93d 7c53 593d a1ec c4bd
00000070: 2dd6 313d fa64 88bd d95a cc3d bd4e e3bb
00000080: 2ea4 aebc d997 e8bd d889 1abd 4edb 943d
00000090: 82c1 90bd 8619 a6bd 510b 58bc 14ac 91bd
000000a0: a026 c3bc d5ff d1bd 81cb aebc a780 8abd
000000b0: 8f4e b23d c882 cebd 3a25 e43d e1f8 953b
000000c0: ff2e c83d b7eb bfbc 279a c9bd 8ce9 94bd
000000d0: ab31 c73c 8a51 9fbd b28b 263d 9249 ce3c
000000e0: 4576 003e 5688 b33d 866f 283d 8e6d 633d
000000f0: 814a 9fbb 7bdc fb3d 98e4 89bd d447 203d
00000100: cd43 bc3c 50f0 d6bd b5b9 d6bd 145f 523d
00000110: cadf 943e 9c4a a63b 0307 3ebd 7e2f e43c
00000120: 7075 193d 5856 7c3c 4968 f13b f6f9 4d3e
00000130: 75aa 02be 069e b6bc a66d 3fbd 59ea 743e
00000140: 3674 7abd 752d 14be 005f 47bd c6ea ce3c
00000150: 95a9 32bd e595 18be bfda 843d eef8 183e
00000160: 28d7 fd3c 601a 04be 6f31 023e cb8f 62bc
00000170: 5e60 85bd 8ad9 9a3d 13fe 17bd 39ce 803d
00000180: 1fcc ff3c f157 dcbd 5b28 92bd 0860 ec3d
00000190: 77a0 e93d 63af bc3d a632 edbd 5ed3 523d
000001a0: 71a0 f83d 699c cfbd 2551 123e 259c ca3c
000001b0: d1f4 c4bd 366c d5bb abe2 71bd abe1 67bc
000001c0: 89a7 8e3c 7d92 c7bd 1ac6 9abd bd70 f6bc
000001d0: df44 b239 0764 a93d 63aa 2bbd e8dd 883d
000001e0: de72 173d 7f1f 0dbe 1e03 143e 42a8 bfbd
000001f0: 90df 5ebe 91e2 003e f52c 953c 4e92 853c
00000200: 638e c6bd f2a2 393c adbf 13bc bdd8 cebc
00000210: 20fb 26be 948e eebc 1507 24bd 9012 28bc
00000220: 8ffe 16bd 0df6 943c e7f6 ec3d 6503 48bd
00000230: 8e23 23be ecb6 c83d ab5c 31bd d037 a83d
00000240: ad52 babd 8853 a33d 1eac 32bd 15f1 07be
00000250: d9d5 2c3d 2024 da3b 446b dbbd 627c bfbd
00000260: 76db 9f3c 725f ba3c 9753 fa3d f8a0 143e
00000270: bce4 e73b 731c 1e3d 325f d3bd 6795 753b
00000280: 1bc9 a7bd 1183 0ebe f33f 413d db14 20bd
00000290: 2046 5c3d 6143 2b3c f24a e63d b516 253e
000002a0: 7bec 073e 4d0b 1a3d 64dd 023e 8610 043e
000002b0: a393 ffbd 9bd1 6dbd 2f5b 6c3e 4dab a53d
000002c0: 5a85 4e3d 41a2 dbbd 9c6a ea3d 532e 253d
000002d0: 259c c9bd 96b8 dbbd 0a47 9f3d be6d c8bd
000002e0: dced 9cbd 34d5 1abe a30d ffbd 9e22 da3d
000002f0: cfbd 363e 3ec4 873c e4af 71bd 5120 473e
00000300: 0e79 7c3e 560e a0bd 62d2 ca3d 0bc7 d33b
00000310: b690 af3a 0747 9ebd dafd 10bd 781f dcbd
00000320: cf7b 5abc 9b36 0b3d 95a5 1cbe 2dda 703d
00000330: 9e03 103e ccf2 80bb d838 a4bb 81e7 b63c
00000340: e81a 10be 2131 213d 0189 5e3a 564e ac3d
00000350: 6d0d d43d fe45 71bd 9765 9abd 9513 a5bc
00000360: 8f9a c03c 219a 0d3e c8ff 193d 4b0d e63c
00000370: 123d 41be ee42 003e 1fb0 603e 4d4c 9d3d
00000380: c3e1 62be 053e 0f3e d0cc 423d e3e9 023e
00000390: 737a 6abe 3018 d7bd 1d7e c6bb 11c2 c5bd
000003a0: 5ae8 053e 1a27 ff3d 28ad 19bd eb2b 0abe
000003b0: eae6 57bd 69c6 c83d b818 bf39 6a4e dc3c
000003c0: 3045 d23d ff92 d4bd d441 833d dc4c d1bd
000003d0: 156b 973d 33f8 263d 923e 73be d642 61bc
000003e0: e1e2 89bb 9f93 7ebd e18d 0c3e b3d5 443e
000003f0: 8521 363d 69e7 6ebd ae31 7ebd 5b14 b43d

fc2.bias f4 [64]
-0.098076746 -0.0019526996 0.03537815 0.0085503915 -0.0923132 -0.08767988 -0.119988754 -0.07753851
0.09771254 -0.027194146 0.02930164 -0.08180859 0.044772778 -0.09371938 -0.022152843 0.07173329
0.1204526 -0.1019528 0.1014484 -0.0751987 0.025170105 -0.11804451 0.000805396 -0.017534783
-0.041621853 -0.108819194 0.020125594 -0.09057875 0.03319921 -0.046997007 0.12301227 0.07725544
-0.10295973 0.008197697 0.08092843 0.026668996 0.09034747 0.07282635 0.07967825 0.04871575
0.11436159 -0.11330494 0.099307716 0.004764424 0.09515126 -0.123064645 0.03851072 -0.04147742
0.09805287 -0.066843085 0.08898781 0.116033226 0.1086615 -0.07651998 0.10905097 -0.051861063
0.05363094 -0.07952487 0.052446008 -0.093148746 -0.038976546 -0.052981377 -0.07016458 0.1129559
00000000: 76dc c8bd baf1 ffba aee8 103d f116 0c3c
00000010: b40e bdbd 8291 b3bd aabc f5bd 83cc 9ebd
00000020: 831d c83d 42c6 debc fe09 f03c 438b a7bd
00000030: a963 373d f2ef bfbd e179 b5bc e7e8 923d
00000040: daaf f63d a1cc d0bd 2ec4 cf3d c701 9abd
00000050: 8931 ce3c 52c1 f1bd 3621 533a 1ba5 8fbc
00000060: ad7b 2abd 99dc debd 6ede a43c 5a81 b9bd
00000070: e5fb 073d ef7f 40bd dbed fb3d 1a38 9e3d
00000080: 8ddc d2bd a24f 063c cebd a53d f078 da3c
00000090: 1808 b93d fb25 953d 5a2e a33d 2b8a 473d
000000a0: 6936 ea3d 6c0c e8bd d861 cb3d e31e 9c3b
000000b0: aade c23d 5109 fcbd 6bbd 1d3d 3ae4 29bd
000000c0: f1cf c83d 07e5 88bd 3e3f b63d d4a2 ed3d
000000d0: ec89 de3d 82b6 9cbd 1d56 df3d 446c 54bd
000000e0: 1eac 5b3d efdd a2bd a0d1 563d c5c4 bebd
000000f0: dfa5 1fbd 0003 59bd 73b2 8fbd 6c55 e73d

fc3.weight f4 [64, 64]
0.112417124 0.12748674 -0.06908859 -0.06587158 -0.06463072 0.08833869 0.11556392 -0.106368326
-0.10859369 0.046704695 0.075103834 0.027299164 -0.047664974 0.056993496 0.015308642 -0.041038953
-0.05252708 0.143726 -0.071911626 0.12660757 0.086408205 -0.10220346 -0.10617064 -0.12960373
-0.080996715 0.0063166902 -0.038333543 -0.09497875 0.060693543 0.058967978 -0.08714616 -0.06007093
0.1786008 0.11064524 -0.012406038 0.025635568 0.24769881 0.08422525 0.0321244 -0.10414817
0.041376617 -0.06344586 0.051764324 -0.0341179 0.033675205 -0.12253094 -0.107492596 0.035286047
-0.010076483 0.0364212 -0.10818751 0.06790268 0.17620842 0.0015131292 -0.0776009 -0.0842379
0.067371726 0.08558172 0.009696497 0.16377114 -0.14665438 -0.056400068 0.05454724 -0.11211415
-0.01952396 0.09598614 0.014288426 -0.073117055 0.2061366 0.15435964 0.0963626 -0.03587133
0.16324915 0.09360609 -0.25684458 -0.014323761 0.14595166 -0.112101585 -0.018408451 0.07587035
0.027305877 -0.06434221 0.14663729 -0.109844014 -0.01871659 -0.118052095 0.13123526 -0.12609124
-0.18499303 -0.17646496 -0.09947451 0.18525137 0.017587364 0.0907513 0.22715518 -0.13458799
0.14127417 0.0635634 0.0016017668 0.03295499 -0.18352164 0.005258041 -0.107928365 0.097901404
-0.013108833 -0.027536036 0.16559018 0.1096839 0.1369687 0.10585286 0.1417208 -0.09268603
-0.040711526 0.00745655 0.049498167 -0.06292526 0.013968808 -0.068058275 0.027490787 -0.17966004
-0.03378476 0.02006832 0.1301178 0.10447369 0.0831741 -0.16490196 0.057593003 0.08485788
0.0054574325 -0.014590305 0.124804474 -0.13653994 -0.15113094 -0.13062112 0.021156475 0.13250653
0.009753014 0.040112387 -0.06638962 -0.116068006 -0.060965654 0.058747247 0.020211842 -0.09665573
-0.027476816 0.04942458 0.0148602035 0.027663404 0.16771102 -0.0048421295 -0.05114713 -0.08932127
0.06939609 0.13770045 0.03305151 -0.10982284 0.097345546 0.068385504 0.00033926577 0.15116054
0.047049228 -0.18972576 0.13783428 0.06058829 -0.15590641 0.07118693 0.06387575 0.12946723
-0.23866071 -0.152011 -0.020298306 0.08182542 0.04557089 -0.04136783 -0.060276713 0.06211989
0.04497723 0.04828139 0.013868191 0.044296805 0.043616246 0.04312362 0.1896788 -0.1109365
-0.14217818 -0.13936922 0.092181586 0.06816939 0.123425 0.24360366 -0.09271862 -0.10128296
-0.05831894 0.030579075 0.16883594 0.037929144 -0.21374875 -0.11507514 0.15110053 0.061073046
0.09422557 -0.00019005859 -0.014797043 0.18469997 0.049113393 -0.070371516 -0.09254652 -0.21964753
-0.08416199 -0.09390427 0.1950906 -0.11302114 0.0041355537 -0.076862216 -0.00031406546 0.09124165
0.004579472 -0.03921209 0.13754296 -0.043002903 0.10485664 -0.09141722 0.17803068 -0.13866755
-0.15717335 0.035625856 -0.022341797 -0.050953843 -0.05493325 -0.11740795 0.0389219 0.017231049
-0.030844416 -0.13718851 -0.039781157 -0.04807324 0.11952641 0.0016906773 -0.082981825 0.092913486
0.053474132 0.039515994 -0.077949874 0.13395058 0.11719267 -0.042754434 0.047163367 -0.0074451095
-0.15143606 0.13854773 0.09812112 0.1156763 -0.14906909 -0.018257393 0.100611135 0.030627752
00000000: f33a e63d e28b 023e 527e 8dbd aee7 86bd
00000010: 1c5d 84bd eaea b43d c7ac ec3d a3d7 d9bd
00000020: 5e66 debd 6c4d 3f3d 0ad0 993d 7fa2 df3c
00000030: 593c 43bd 0372 693d 19d1 7a3c 7618 28bd
00000040: a326 57bd e92c 133e 6746 93bd 6aa5 013e
00000050: c9f6 b03d 0c50 d1bd fe6f d9bd d7b6 04be
00000060: 9be1 a5bd 3dfc ce3b a203 1dbd 3884 c2bd
00000070: cb99 783d 6888 713d b079 b2bd ef0c 76bd
00000080: 21e3 363e f999 e23d b242 4bbc af01 d23c
00000090: c2a4 7d3e 4a7e ac3d e094 033d a34b d5bd
000000a0: 877a 293d e7ef 81bd d406 543d 36bf 0bbd
000000b0: 03ef 093d 80f1 fabd 1425 dcbd 1a88 103d
000000c0: d517 25bc 652e 153d 6a91 ddbd 8f10 8b3d
000000d0: fb6f 343e 3154 c63a 38ed 9ebd ec84 acbd
000000e0: 30fa 893d 7845 af3d 0ede 1e3c 9fb3 273e
000000f0: 912c 16be c203 67bd ed6c 5f3d 1a9c e5bd
00000100: b6f0 9fbc 6294 c43d 011a 6a3c 65be 95bd
00000110: 7915 533e 7410 1e3e c159 c53d d1ed 12bd
00000120: c92a 273e 8db4 bf3d 2281 83be 35ae 6abc
00000130: 5a74 153e 8495 e5bd 52cd 96bc ea61 9b3d
00000140: 93b0 df3c d9c5 83bd 1628 163e e6f5 e0bd
00000150: 8953 99bc 4cc5 f1bd 8962 063e 101e 01be
00000160: d06e 3dbe 3bb3 34be 4bb9 cbbd 89b2 3d3e
00000170: 6013 903c d1db b93d 5e9b 683e 6fd1 09be
00000180: 2daa 103e 872d 823d 60f2 d13a d0fb 063d
00000190: 19ed 3bbe a54b ac3b 8c09 ddbd 8880 c83d
000001a0: 6ec6 56bc 4193 e1bc 7990 293e f4a1 e03d
000001b0: 8641 0c3e 62c9 d83d 421f 113e 2cd2 bdbd
000001c0: 21c1 26bd 1356 f43b 97be 4a3d f5de 80bd
000001d0: 6ddd 643c 2362 8bbd 5c34 e13c cdf8 37be
000001e0: e361 0abd 5166 a43c 9a3d 053e 4df6 d53d
000001f0: 2f57 aa3d 0fdc 28be a4e6 6b3d f8c9 ad3d
00000200: 43d4 b23b 2d0c 6fbc 7d99 ff3d 20d1 0bbe
00000210: 12c2 1abe 8bc1 05be 5850 ad3c cbaf 073e
00000220: 1bcb 1f3c e34c 243d 48f7 87bd 10b5 edbd
00000230: 1fb7 79bd f4a0 703d 4e93 a53c 70f3 c5bd
00000240: 0f17 e1bc 6e71 4a3d 3678 733c 5d9e e23c
00000250: 70bc 2b3e baaa 9ebb a77f 51bd 12ee b6bd
00000260: 8a1f 8e3d 5901 0d3e 0561 073d ccea e0bd
00000270: 1a5d c73d b30d 8c3d 7bdf b139 d4c9 1a3e
00000280: b1b6 403d 7847 42be 6e24 0d3e 6d2b 783d
00000290: eea5 1fbe 74ca 913d 4ad1 823d 0f93 043e
000002a0: 7963 74be c6a8 1bbe a248 a6bc 1694 a73d
000002b0: 8ba8 3a3d 5071 29bd b7e4 76bd 6d71 7e3d
000002c0: 0b3a 383d b5c2 453d 6937 633c 9170 353d
000002d0: f3a6 323d 65a2 303d 293b 423e ad32 e3bd
000002e0: 2897 11be ceb6 0ebe b3c9 bc3d 659c 8b3d
000002f0: 3fc6 fc3d 3d73 793e 43e3 bdbd 716d cfbd
00000300: d7df 6ebd f880 fa3c 54e3 2c3e 975b 1b3d
00000310: f4e0 5abe 84ac ebbd 19ba 1a3e bb27 7a3d
00000320: 56f9 c03d 774a 47b9 4c6f 72bc fd21 3d3e
00000330: 202b 493d f11e 90bd 0889 bdbd 48eb 60be
00000340: 1f5d acbd e250 c0bd d5c5 473e a177 e7bd
00000350: 8a83 873b f069 9dbd 27a9 a4b9 e7dc ba3d
00000360: 650f 963b db9c 20bd 10d8 0c3e d023 30bd
00000370: 14bf d63d f438 bbbd ad4d 363e defe 0dbe
00000380: 0df2 20be 6bec 113d 2506 b7bc fab4 50bd
00000390: b001 61bd 9473 f0bd 926c 1f3d 2128 8d3c
000003a0: 6ead fcbc 257b 0cbe 91f1 22bd 72e8 44bd
000003b0: 43ca f43d b799 dd3a 60f2 a9bd 6d49 be3d
000003c0: b107 5b3d 86db 213d 2fa4 9fbd 572a 093e
000003d0: b602 f03d 461f 2fbd 602e 413d 1bf6 f3bb
000003e0: 0e12 1bbe 75df 0d3e baf3 c83d b2e7 ec3d
000003f0: 91a5 18be 8790 95bc 360d ce3d 0de7 fa3c

fc3.bias f4 [64]
0.09999326 0.027669072 -0.1106179 0.10516873 0.122071765 0.0019756614 -0.037496164 0.06347156
0.021575438 -0.06301928 0.07621286 -0.1040155 -0.028858792 0.0962942 -0.08519739 0.02591213
0.07460169 0.11883808 0.010379715 -0.03957337 0.09335779 0.038597826 0.08923173 -0.11850644
0.08692616 0.036270063 0.10763543 0.051573914 -0.011975525 0.07377362 -0.019180236 -0.08484293
0.07662226 -0.048177358 0.09929049 0.019309245 -0.064764895 -0.073370464 -0.044374093 0.096578375
0.04761105 -0.053729516 0.07860393 0.05448396 0.11342335 -0.0020058309 0.036064435 0.01247528
0.089178026 -0.02390872 -0.11624493 -0.087603316 0.07071551 -0.08863732 -0.010480645 0.063920446
-0.07214107 0.06332655 0.0061228997 -0.095801964 0.033617508 0.07936026 0.09989009 -0.10325115
00000000: 44c9 cc3d 40aa e23c a38b e2bd b462 d73d
00000010: c300 fa3d 197a 013b 9495 19bd 61fd 813d
00000020: f9be b03c 4110 81bd 7d15 9c3d 1406 d5bd
00000030: 4669 ecbc e535 c53d f87b aebd ad45 d43c
00000040: c5c8 983d 6161 f33d ae0f 2a3c b017 22bd
00000050: 5e32 bf3d c118 1e3d 20bf b63d 81b3 f2bd
00000060: 5806 b23d eb8f 143d f76f dc3d 2b3f 533d
00000070: fe34 44bc a016 973d df1f 9dbc 21c2 adbd
00000080: 22ec 9c3d 9f55 45bd d058 cb3d 6c2e 9e3c
00000090: 75a3 84bd 4143 96bd 9cc1 35bd e2ca c53d
000000a0: ce03 433d 7b13 5cbd 19fb a03d 932a 5f3d
000000b0: 804a e83d 4274 03bb 4db8 133d 1e65 4c3c
000000c0: f8a2 b63d 38dc c3bc d211 eebd 5e69 b3bd
000000d0: 4bd3 903d 7c87 b5bd 03b7 2bbc b9e8 823d
000000e0: b3be 93bd 5ab1 813d 9ba2 c83b d233 c4bd
000000f0: 83b2 093d a287 a23d 2d93 cc3d 5775 d3bd

fc4.weight f4 [27, 64]
0.17771268 0.16222978 -0.16114698 -0.079083085 0.18156902 -0.1293534 0.12025823 0.17648607
-0.029746188 0.09634705 -0.10829952 -0.2132657 0.23311421 -0.06244599 0.17040348 0.049196415
0.18852307 -0.100468576 -0.11328082 0.09242413 -0.09462078 0.115477055 -0.0852603 -0.023516519
-0.06740316 0.025796676 -0.047062032 -0.14181249 0.14886877 0.09522917 -0.19466045 -0.08435994
-0.12880076 0.10207116 -0.11734261 -0.12843528 0.041365054 0.049381226 0.12510197 0.0060761985
-0.14975557 -0.12139726 -0.09795628 -0.047251333 0.056460183 -0.0461195 0.19420049 -0.21834023
0.20705275 0.09969661 -0.15308453 -0.12749901 0.20226657 -0.06723443 0.13462944 -0.16144472
0.030918578 -0.01872287 -0.040575195 0.17306109 0.15627788 -0.053990453 0.1952069 -0.2529257
0.14617376 0.112835355 -0.043974694 -0.089994706 -0.009912611 -0.0331205 0.041136093 -0.10872388
0.051494382 0.06417936 0.12341317 -0.18165949 0.29400623 0.03465585 0.02545438 0.088485904
0.015955672 0.004975377 0.0064171217 0.08610906 0.11128835 -0.23207612 0.05034542 0.042613003
0.12240778 0.062379114 -0.1280354 -0.29308233 0.17494045 -0.09425125 0.21939398 0.11754778
-0.05450383 0.078985505 0.20451316 0.16241516 0.029841594 0.18968 -0.04090189 -0.19611242
0.1295122 -0.16155575 0.0811926 0.03422926 -0.060970902 0.10903905 0.18572386 0.09259831
-0.26682648 0.030924458 0.06668633 0.06832033 -0.1675945 -0.077136956 0.07300469 0.09610174
0.1762289 -0.050620645 -0.13832596 -0.14428708 -0.24409252 -0.2576778 -0.025361875 -0.05784783
-0.160167 -0.09987835 -0.020657698 -0.18892436 -0.009705046 0.077626266 -0.08248654 0.029819751
0.06662004 0.061173275 0.016570114 0.13669157 -0.25151297 -0.10268619 0.04505435 -0.14499699
0.036694407 -0.088378124 0.06512587 -0.21025251 0.07812233 -0.07442432 0.0016173363 0.05366932
0.05886628 0.22925413 0.16408058 -0.06499888 -0.01462177 -0.0023527616 -0.13308117 -0.10999006
0.013743373 -0.014363489 0.06340441 -0.0051105884 -0.026212228 0.12050801 -0.1292714 -0.14135689
0.106500804 -0.21442458 0.20067446 -0.15198986 -0.16674548 0.036030844 0.27783036 0.14032656
0.0825026 0.3360552 0.090534486 -0.14851531 -0.13042755 0.07259843 0.040439602 -0.027489962
0.11010665 -0.09681219 -0.095600255 -0.13277622 -0.19825943 0.10019661 0.0045281067 -0.07331024
0.13136835 -0.16784717 0.0922607 0.115888536 0.028821932 -0.118329294 -0.12044721 0.09165856
-0.0005585835 -0.057542652 -0.045486644 -0.02992079 0.09320636 0.12759566 0.11368856 -0.23021546
0.05653201 -0.053501062 -0.0072333887 0.008824398 -0.0018321576 0.13599181 -0.1633832 0.08524024
-0.0787312 -0.17248808 0.046372924 -0.17945148 -0.03317723 0.027303321 0.008100217 0.012277708
0.16148536 0.14468369 0.024517762 -0.25074506 0.103957675 0.0964731 -0.025687248 0.09434399
0.19164124 -0.15569653 0.31844455 -0.14824907 -0.15382853 0.02296812 -0.09380203 0.028061314
-0.08777424 -0.20326906 -0.1056166 0.10473079 0.1802644 0.035671357 0.051617004 -0.07042796
-0.009754529 -0.031004595 0.12937935 0.18816823 -0.07505935 0.2552022 0.14575572 -0.017195491
00000000: 50fa 353e 901f 263e b703 25be 50f6 a1bd
00000010: 3bed 393e 3875 04be f249 f63d c4b8 343e
00000020: 47ae f3bc 9a51 c53d 24cc ddbd 5362 5abe
00000030: 7eb5 6e3e 5ec7 7fbd 407e 2e3e 2e82 493d
00000040: 310c 413e 78c2 cdbd c6ff e7bd dd48 bd3d
00000050: 8ac8 c1bd 3c7f ec3d f49c aebd b7a5 c0bc
00000060: ab0a 8abd 8d53 d33c 1ec4 40bd 4b37 11be
00000070: 0e71 183e 8307 c33d 1255 47be e7c4 acbd
00000080: 59e4 03be af0a d13d 5351 f0bd 8a84 03be
00000090: 676e 293d f843 4a3d bb1a 003e d91a c73b
000000a0: 8659 19be 209f f8bd 4d9d c8bd 9d8a 41bd
000000b0: cb42 673d cde7 3cbd 7edc 463e 9594 5fbe
000000c0: a305 543e bc2d cc3d 31c2 1cbe 1a8f 02be
000000d0: f81e 4f3e 34b2 89bd 4ddc 093e c451 25be
000000e0: f548 fd3c b460 99bc 2d32 26bd ed36 313e
000000f0: 4f07 203e 1825 5dbd 51e4 473e 7a7f 81be
00000100: 93ae 153e 3916 e73d cf1e 34bd 254f b8bd
00000110: 8168 22bc 5da9 07bd 527e 283d a0aa debd
00000120: c6eb 523d 7870 833d 0bc0 fc3d f204 3abe
00000130: fc87 963e 4bf3 0d3d b485 d03c 1938 b53d
00000140: 78b5 823c 7d08 a33b b846 d23b f259 b03d
00000150: 25eb e33d 5da5 6dbe 0037 4e3d f98a 2e3d
00000160: eeb0 fa3d 3e81 7f3d b61b 03be e30e 96be
00000170: 9723 333e cd06 c1bd d1a8 603e e4bc f03d
00000180: 683f 5fbd 27c3 a13d e66b 513e 2950 263e
00000190: 5c76 f43c 793b 423e bd88 27bd b2d1 48be
000001a0: d99e 043e df6e 25be 4e48 a63d fb33 0c3d
000001b0: a0bc 79bd de4f df3d 652e 3e3e 2fa4 bd3d
000001c0: 7b9d 88be 4a55 fd3c d892 883d 87eb 8b3d
000001d0: e59d 2bbe fbf9 9dbd 7c83 953d fdd0 c43d
000001e0: 5975 343e 9857 4fbd 52a5 0dbe febf 13be
000001f0: 64f3 79be 58ee 83be b5c3 cfbc d9f1 6cbd
00000200: d102 24be 058d ccbd 553a a9bc 6375 41be
00000210: ea01 1fbc 85fa 9e3d b4ee a8bd 8d48 f43c
00000220: 1670 883d d490 7a3d 0cbe 873c e0f8 0b3e
00000230: 4fc6 80be 234d d2bd e98a 383d 177a 14be
00000240: e04c 163d 97ff b4bd b660 853d 6f4c 57be
00000250: 9afe 9f3d c76b 98bd cdfc d33a 5cd4 5b3d
00000260: c51d 713d 98c1 6a3e bd04 283e 221e 85bd
00000270: 2690 6fbc ca30 1abb 6e46 08be 7842 e1bd
00000280: e22b 613c d754 6bbc 2cda 813d b976 a7bb
00000290: 07bb d6bc e7cc f63d b95f 04be dcbf 10be
000002a0: 181d da3d 1e92 5bbe 9b7d 4d3e 3ba3 1bbe
000002b0: 54bf 2abe 1495 133d c83f 8e3e c4b1 0f3e
000002c0: 20f7 a83d 6d0f ac3e 256a b93d 6614 18be
000002d0: cd8e 05be 7cae 943d ffa3 253d a132 e1bc
000002e0: 987f e13d 7845 c6bd 11ca c3bd 7df6 07be
000002f0: 8504 4bbe e133 cd3d 8360 943b ae23 96bd
00000300: 6d85 063e 21e0 2bbe 2ef3 bc3d f856 ed3d
00000310: f91b ec3c a156 f2bd 07ad f6bd 7cb7 bb3d
00000320: e76d 12ba d8b1 6bbd 3450 3abd 721c f5bc
00000330: fae2 be3d 70a8 023e 8cd5 e83d 9abd 6bbe
00000340: 1c8e 673d ee23 5bbd 1006 edbb 3594 103c
00000350: 0225 f0ba 7041 0b3e ed4d 27be 6f92 ae3d
00000360: d33d a1bd b7a0 30be 89f1 3d3d 21c2 37be
00000370: d9e4 07bd 37ab df3c c6b6 043c 7128 493c
00000380: 6b5c 253e f627 143e 79d9 c83c a861 80be
00000390: c3e7 d43d b093 c53d 106e d2bc 6c37 c13d
000003a0: 9a3d 443e e96e 1fbe 2a0b a33e 9bce 17be
000003b0: 3a85 1dbe a427 bc3c 471b c0bd d7e0 e53c
000003c0: fbc2 b3bd c425 50be 844d d8bd 197d d63d
000003d0: 3b97 383e 211c 123d 5a6c 533d 893c 90bd
000003e0: 76d1 1fbc 59fd fdbc 057c 043e 2caf 403e
000003f0: b7b8 99bd dda9 823e fd40 153e 8fdd 8cbc

fc4.bias f4 [27]
0.08644623 0.12531571 0.014933374 -0.13714525 0.09432951 -0.024780735 -0.05940416 0.09696473
-0.10510947 -0.10481391 0.051620085 0.09205886 -0.08680016 -0.049814805 -0.06758886 -0.029069783
0.046583757 0.045995086 -0.008528941 -0.015684383 -0.06341798 0.13555174 -0.085248895 -0.022978427
0.08684119 0.13038926 0.098569565
00000000: b90a b13d c352 003e 1cab 743c ce6f 0cbe
00000010: d52f c13d f800 cbbc c751 73bd 7295 c63d
00000020: a243 d7bd ada8 d6bd 956f 533d 5b89 bc3d
00000030: 48c4 b1bd 9c0a 4cbd 076c 8abd c123 eebc
00000040: 9cce 3e3d 5865 3c3d f9bc 0bbc 897c 80bc
00000050: 49e1 81bd 13ce 0a3e f996 aebd 413d bcbc
00000060: cbd9 b13d c384 053e d7de c93d
