src/cached_data/trained_models/model_20_144.pt (torch_old, 78702 bytes, 8 tensors)

fc1.weight f4 [64, 144]
000000 01 52 49 3d f6 af 99 3d 3d e9 f8 3c df 4f 33 bc
       0.04915047 0.07504265 0.030384654 -0.010944336
000010 62 72 5d 3d e6 95 9a bd 85 65 53 3d cc 50 97 3d
       0.054064162 -0.07548122 0.05161049 0.07388458
000020 77 59 c5 3d e1 0f bf 3d 70 49 ff bb 3d fe d5 bc
       0.09636205 0.093292005 -0.007790737 -0.026122207
000030 20 b1 3a bd e2 a1 84 bd 01 f1 65 bd 64 e9 16 bc
       -0.045579076 -0.06476189 -0.056138042 -0.009210918
000040 f6 8a 55 3c 45 5c 0b bd f7 d1 6f bc 92 a2 45 bd
       0.013033619 -0.034023542 -0.014637462 -0.048250742
000050 cd b8 43 bd cc e0 81 3a 3f 5c b4 bd 1d e6 25 bc
       -0.04778366 0.0009908914 -0.08806657 -0.010125664
000060 71 a8 5c 3c 47 cb 12 bc 13 29 9c 3d 71 c7 2c bd
       0.013467894 -0.008959598 0.07625022 -0.04218239
000070 03 73 fe 3b 5c 9a b5 3d a8 bf 38 3d 53 49 40 bd
       0.0077651753 0.08867332 0.045104653 -0.046944927
000080 ab 3c 97 3d d9 66 5f bd f9 8e 14 bd 52 e7 92 3d
       0.07384618 -0.054541443 -0.03626916 0.07173027
000090 21 a6 cd 3c cb ea a8 3d c8 36 98 bd 42 fb 82 bc
       0.02510363 0.08247908 -0.07432324 -0.01598895
0000a0 d4 74 3d bc da 48 eb bc b8 93 44 bd b9 3d 40 3c
       -0.0115634985 -0.028721262 -0.047992438 0.011733466
0000b0 54 9d 0c 3d d1 79 71 3d 88 14 96 bd d6 ef 6d 3b
       0.034329727 0.058954064 -0.07328135 0.0036306283
0000c0 d8 10 8f bd cf 6f fc 3b 8f 8f 68 3d ce 0e c8 bc
       -0.069856346 0.0077037583 0.056777533 -0.024421122
0000d0 f2 18 b1 3c b2 d0 a0 3d cd b3 0e bd d5 aa 00 bd
       0.02161834 0.078523055 -0.03483944 -0.031412918
0000e0 a1 d3 c4 3b 90 e9 b6 bd 0b 79 94 3d fc a6 f6 3c
       0.0060066734 -0.08931267 0.072496496 0.030108921
0000f0 a0 5a c4 3c e7 96 5e 3c 2d f4 fd bc 28 5e 1f bd
       0.023968995 0.013585783 -0.031000221 -0.038908154
000100 58 38 67 bd 3c 08 a0 3d e9 cf 40 3d d1 0b 83 3c
       -0.056450218 0.078140706 0.04707328 0.015996845
000110 fe e0 2b 3d e6 53 50 bd 3e 3e d0 3c a6 02 a1 bd
       0.041962616 -0.05086126 0.025420304 -0.07861833
000120 07 af a0 bc fd 3d 93 bd 38 b8 9e bd 0c c1 74 bd
       -0.01961471 -0.07189558 -0.07749981 -0.059754416
000130 e3 40 da 3b cf 4f b9 3d 3b 07 b9 3d 35 ef 59 3d
       0.006660567 0.090484254 0.09034582 0.05320664
000140 4b 6f 17 3d 16 f0 9c 3d 14 7d 00 3d be 92 86 3d
       0.03697137 0.0766298 0.031369284 0.065709576
000150 59 3c 8e bd 33 04 1d 3d fb db a5 3c 36 4b 94 bd
       -0.06945104 0.038334083 0.020246496 -0.07240908
000160 e8 eb 98 3c b8 a0 86 bc 00 ae 7b bd 23 7a 7c bd
       0.018667176 -0.016434059 -0.061445236 -0.061639916
000170 3c be df 3c 09 18 26 3d 1c fb 29 3d 65 9f 8e 3d
       0.02731239 0.040550265 0.041499242 0.06963996
000180 6e 2d a9 bd 3e 45 39 3d 44 c4 13 bd 68 a6 dc 3c
       -0.08260618 0.04523205 -0.036075845 0.026934817
000190 80 a1 cc bc 0b db 23 bc 79 ff f8 bb fc 04 84 3d
       -0.024979353 -0.010000954 -0.007598814 0.06446263
0001a0 6d 9d 35 bd c6 82 1c 3c 08 2d 9b bd d3 28 af 3c
       -0.044339586 0.009552663 -0.075769484 0.021381771
0001b0 9f 63 36 bd 20 75 c1 bd 77 83 72 3d c2 99 4a 3d
       -0.0445286 -0.09446168 0.059207406 0.04946304
0001c0 e8 62 a4 bd f8 2e 17 3d c1 ea 1f 3c 78 24 98 bd
       -0.08026677 0.036910027 0.00976056 -0.07428831
0001d0 78 ff 20 3c 14 d0 4e bd ff 63 6a bb 0b 5d b3 bd
       0.0098265335 -0.050491408 -0.0035765169 -0.08757981
0001e0 18 c0 9f 3d 81 04 25 3d 06 8b a1 bc 4f 5a d1 b9
       0.07800311 0.0402875 -0.019719612 -0.00039930872
0001f0 73 ef 4b 3d f1 ee 8c bd fd 8b 75 3c db 96 1f bd
       0.049788903 -0.06881512 0.014986989 -0.038962226
000200 7e a7 f3 39 f4 78 cb bd 3c 06 7f bd 9d 1f 60 3d
       0.00046473363 -0.09935179 -0.062261805 0.05471765
000210 55 92 5a 3c da fd 92 bc fe 21 82 bd 44 2d 87 3d
       0.013340552 -0.017943311 -0.0635414 0.066004306
000220 6e f2 e3 3b ab c7 f7 3c bb bf 14 bd 89 f6 22 3d
       0.00695639 0.030246576 -0.03631566 0.039785895
000230 3e 6d be 3d 5c 80 85 bd 14 85 ae 3d df 83 dc bc
       0.0929818 -0.06518623 0.085214764 -0.02691835
000240 78 c7 a3 bd ec 9b 90 3c 1e 17 23 3d 47 cf 7b bd
       -0.0799703 0.017652474 0.03981697 -0.061476972
000250 23 ca 2a 3d 68 95 80 bb 8b 68 4c bd ba d0 be 3c
       0.04169668 -0.0039240606 -0.049904387 0.023292888
000260 14 9f f5 bc fd 59 e5 bc d4 db fc bc 9a e7 4a bc
       -0.02998308 -0.027997011 -0.030866541 -0.01238432
000270 4c 1a 22 bc f6 8a 7b 3c 44 ef 4a bd a9 f9 40 3c
       -0.009893965 0.015352955 -0.049544588 0.011778274
000280 50 c7 77 bc c0 11 8d 3d 57 69 0a bd 94 7e 6a bd
       -0.015123203 0.06888151 -0.033791866 -0.05724962
000290 0b 9a 20 3d 07 73 ee bb c1 63 e0 bb ab 85 8d bd
       0.039209407 -0.007276896 -0.006847829 -0.06910261
0002a0 85 aa 3c 3d 22 28 94 bd 65 a3 95 3d 34 b7 a5 3d
       0.046061058 -0.07234217 0.07306556 0.08091584
0002b0 8f 79 c7 3d 02 b4 1e bd 65 80 85 3c b8 98 7c 3c
       0.09739982 -0.038745888 0.016296575 0.01541727
0002c0 d2 51 96 3d 46 e3 0c bc b6 fd a4 bd df d5 1b bd
       0.07339825 -0.008599108 -0.08056204 -0.03804576
0002d0 74 8a 85 bd a6 01 00 bd ba d7 3c 3d ac fe 22 3d
       -0.065205485 -0.031251572 0.04610417 0.039793655
0002e0 f5 1d fe 3a 02 f8 ae 3d a9 e8 a1 bd f9 88 97 bd
       0.001938759 0.085433975 -0.079057045 -0.07399172
0002f0 d4 25 49 3d 1c 33 87 bd ae 8e 9d 3d d0 be a1 bd
       0.04910834 -0.06601545 0.076932296 -0.07897723
000300 8a fe 87 3d 4e a5 87 bd a0 40 2e bd e0 bf 89 bd
       0.06640346 -0.06623326 -0.0425421 -0.067260504
000310 84 3a 7f bd bd 99 b4 bd 57 5f ec 3c 7d 0d 32 3c
       -0.062311664 -0.08818386 0.028854055 0.010867474
000320 c8 e4 4a 3c ab 39 80 bd 8a 4b c8 bc 2e e9 9e bd
       0.012383647 -0.06260999 -0.024450082 -0.07759319
000330 92 18 3f bd b5 cf 16 3d be cb a0 bd 67 9b 73 3c
       -0.04665429 0.03681918 -0.07851361 0.014868594
000340 0d 85 d5 3c ff b5 52 3d 5a 3d 39 3c 00 44 89 3b
       0.02606442 0.051443096 0.011306131 0.0041890144
000350 b1 2f e0 3b e4 26 c3 bc 17 e5 3b bd 01 86 93 bd
       0.0068416228 -0.023822255 -0.045872774 -0.072032936
000360 5b 33 5e 3d 98 d1 bf bc b8 b0 2b bd b9 eb cd 3c
       0.054248195 -0.023415372 -0.04191658 0.025136815
000370 70 3c ae bc f2 e4 86 3d 02 03 9f bc fe 88 26 3d
       -0.021269053 0.065866366 -0.019410614 0.04065799
000380 b6 47 f0 3b 5f 0d 13 bc 6a db 03 3d 77 bc 71 bd
       0.0073327674 -0.008975356 0.03219167 -0.059017625
000390 11 f6 44 3d de 1e 7c 3c 31 dd 90 bd ce 27 e7 bb
       0.04808623 0.015388219 -0.07073439 -0.0070543056
0003a0 4a 5b 0e 3d 56 03 5e bd a3 a7 14 bc df ad 25 bd
       0.03475503 -0.0542024 -0.009073171 -0.04044902
0003b0 34 4f 08 bd 87 5d 9c bd ff 6d a3 3d aa 8d 80 bc
       -0.03327866 -0.076350264 0.079799645 -0.01569255
0003c0 a2 92 b6 bc 55 2f 7d bd 88 99 9b bd 04 9f 1e 3d
       -0.022286717 -0.061812717 -0.07597643 0.038725868
0003d0 63 71 88 3d 61 92 06 3d 36 f6 52 3b 25 31 be bc
       0.06662252 0.03285444 0.003219021 -0.023216793
0003e0 d1 f3 68 3d 93 b7 7a bd 78 81 92 3d e3 43 93 bd
       0.056873146 -0.061210226 0.071536005 -0.07190683
0003f0 b2 17 83 3d bc c5 85 3d 3f 69 2d 3d 3a 01 bb 3d
       0.06401004 0.065318555 0.0423367 0.09131093

fc1.bias f4 [64]
000000 da c1 e6 3c 2a d1 89 3d f9 06 cb bc d2 4e 44 3d
       0.028168608 0.06729348 -0.024783598 0.04792673
000010 ab d2 86 3d 80 23 77 3d 09 36 cc bc ba 9b a9 bd
       0.065831505 0.06033659 -0.02492811 -0.082816556
000020 be 98 8c bd 42 fc 62 3d 41 7c a9 3d 43 15 4f bc
       -0.06865071 0.055416353 0.08275653 -0.0126393465
000030 9f e9 d7 3c 74 f9 2a 3d d9 f3 a0 3d 4d b9 60 3d
       0.026356516 0.041741803 0.0785901 0.054864217
000040 3f 08 9b bc ae cb 97 bc aa 94 5d bd be a5 37 3d
       -0.01892483 -0.01852974 -0.054096855 0.0448358
000050 25 cc 79 3d 7d 1f 52 3d d8 49 58 bd 54 74 82 3d
       0.060985703 0.05129956 -0.052804798 0.06369844
000060 14 d0 96 3c ec 07 c0 bb 0e 5f f0 3c 88 dc 66 bb
       0.018409766 -0.0058603194 0.0293422 -0.0035226662
000070 5d fc f1 3b 53 80 a3 bd c2 42 ab bb 9d 89 ad 3c
       0.0073848204 -0.0798346 -0.005226464 0.021183783
000080 f7 f8 d8 3b 64 35 61 3d 5b d1 71 3d 64 10 85 bd
       0.006621476 0.054982558 0.059037548 -0.06497267
000090 ba 88 18 bd 0f 43 58 bc d7 f2 1c bd e5 f6 88 bd
       -0.037239768 -0.013199582 -0.038317528 -0.066877164
0000a0 3e a3 7a 3d e4 49 df 3c 47 57 93 3d c8 69 87 3d
       0.061190836 0.027256913 0.07194381 0.06611973
0000b0 c4 72 2d 3d 9b 2e 53 bd c8 a3 85 3d b7 b7 83 bc
       0.042345777 -0.05155812 0.065253794 -0.016078813
0000c0 e3 f5 89 3c 23 03 89 bd 53 f2 78 bd 7f 49 dc 3b
       0.01684088 -0.066900514 -0.060777973 0.0067226286
0000d0 3b 42 7d 3d 23 2a 43 3d 15 60 ed bc 77 d9 50 3c
       0.06183074 0.047647607 -0.02897648 0.01274716
0000e0 95 2e 77 3d 85 ef 68 3d 05 b2 84 3d 02 67 a4 3d
       0.06034716 0.05686905 0.06479267 0.0802746
0000f0 74 8f 9e 3d aa 96 86 3d 42 44 1b bd fc e8 84 bc
       0.07742205 0.06571706 -0.037906893 -0.016224377

fc2.weight f4 [64, 64]
000000 78 93 bc 3d a6 91 89 bc 63 1a 80 bd 28 64 10 3e
       0.09207815 -0.016793083 -0.06255033 0.14100707
000010 31 83 56 bd 07 a3 8a 3d c1 9e 8d bd 3d a2 b0 bd
       -0.052371208 0.06769376 -0.069150455 -0.086246945
000020 7d 9c 54 b6 8f d3 b9 bd 50 57 14 bc 3e 3d cb 3d
       -3.168155e-06 -0.09073555 -0.00905402 0.099237904
000030 4b 4b c0 bd bd b4 1f 3d 0e 1f 4b bd 14 b9 69 bd
       -0.09389361 0.038990725 -0.049590163 -0.05706127
000040 6c ff c5 3d 3b a5 1c bd b3 17 c8 bd f4 09 ac bd
       0.096678585 -0.038243514 -0.09770145 -0.08400336
000050 59 2a ee 3d 00 12 97 3d c8 bc 80 3d 21 3b 6d 3d
       0.11629171 0.0737648 0.06286007 0.057917718
000060 29 1d 90 3d 7f 55 2a bd 43 27 cf 3d 98 d8 31 3d
       0.07036812 -0.04158544 0.101149105 0.04341945
000070 be 21 d0 bd e5 3e 45 3d 89 4f e0 3d 1c 9b d5 3d
       -0.10162686 0.048155684 0.1095267 0.104299754
000080 ed 95 bb bd 2e c8 00 3e 2d 24 e5 3d c1 11 a3 bc
       -0.091594554 0.12576362 0.111885406 -0.019905927
000090 90 ac b4 bc 92 f9 68 3b df 5e 80 3d 94 dd 94 3d
       -0.02205494 0.0035549146 0.06268095 0.07268825
0000a0 fa 57 70 3d bd 31 d0 3d 74 43 00 3e a4 34 9a 3d
       0.05867765 0.10165737 0.12525731 0.07529572
0000b0 0a 91 03 be 5d d2 cc 3d 96 3f de bd 5f 98 c5 3c
       -0.12848297 0.10001061 -0.10851972 0.024120508
0000c0 3b 75 ae bc 86 02 19 bd 36 0e 4c bd eb 75 cf 3d
       -0.021296134 -0.037355922 -0.04981824 0.10129913
0000d0 2e c1 1e 3d e8 04 f5 bd 2f b3 4e 3d 6f 8b 2d bd
       0.03875845 -0.119638264 0.05046385 -0.042369302
0000e0 6f 80 ae bd 08 22 8c 3d b5 9e bd 3d c0 7b 8b bd
       -0.085205905 0.068424284 0.092587866 -0.06810713
0000f0 93 25 eb bd c4 fb 39 bd 7f 31 40 bd 39 fe de bd
       -0.11481776 -0.045406118 -0.046922203 -0.10888333
000100 dd 24 cc bd 39 df 73 bd 12 60 2f bd 9a 07 13 3c
       -0.099679686 -0.059539054 -0.04281623 0.00897398
000110 78 9c 82 bd 4b 33 7f bd 7c d9 1f 3d 01 cf c4 bd
       -0.063775 -0.062304776 0.03902577 -0.09609795
000120 a1 9f 2c b9 2c 3c 8c bd d7 6f 18 bc 73 ea b7 bd
       -0.00016462665 -0.068474144 -0.009304008 -0.089802645
000130 d3 b9 a0 3d 22 82 be 3d 21 7c 72 3d 4e 12 c6 bd
       0.07847943 0.093021646 0.05920041 -0.0967146
000140 a3 76 8c bd 50 02 b4 bc 7e 30 ac 3d 44 19 90 bd
       -0.06858566 -0.021973759 0.08407687 -0.07036069
000150 6f 7b 85 bd 2a ad ba bc 2c ec 0f bd 1c 41 5a bc
       -0.06517684 -0.02278765 -0.03513734 -0.013321187
000160 ed db c7 3d 74 80 b0 3d 54 c2 70 bd 67 bc ac bd
       0.097587444 0.086182505 -0.058779076 -0.084343724
000170 99 88 7f 3d de d0 58 bd 09 f3 8d 3d 0b 0b b5 bc
       0.06238613 -0.052933566 0.06931121 -0.022099992
000180 04 06 ce bd 42 00 f0 bc 4a 1a f5 3c 36 0a ba 3d
       -0.10059741 -0.029296998 0.029919762 0.09083979
000190 c8 e2 0e 3d aa aa 68 3d fd 6a 17 bd 84 bc ec 3d
       0.034884244 0.056803383 -0.036967266 0.11559394
0001a0 14 ed ae bd 10 0d 5e 3d 4c 6c 60 bd b5 2c fa 3c
       -0.08541313 0.054211676 -0.05479078 0.030538896
0001b0 b8 ef 92 bd b9 fa 9b 3d 74 c9 ec bc 75 d0 dc 3d
       -0.07174629 0.07616181 -0.028904654 0.107819475
0001c0 77 8f c3 bd 01 cb 14 bc 61 97 f2 3d e3 35 ae bd
       -0.09548848 -0.009081603 0.118452795 -0.08506372
0001d0 bc 99 a0 3d 89 c7 f2 bd 14 29 a4 bd a0 81 e4 bd
       0.078418225 -0.118544646 -0.080156475 -0.111575365
0001e0 fd d6 25 bd 8a d3 9d 3d 05 32 58 3d a5 b0 2f bd
       -0.040488232 0.077063635 0.052782077 -0.04289307
0001f0 6d 46 55 bd 19 c3 09 3d e6 e8 1b 3d bf 42 c7 bd
       -0.052069116 0.033633325 0.038063906 -0.09729528
000200 5f a4 e8 3a b8 ca a0 3c ef 7f 0a 3c d9 be 03 3d
       0.0017749182 0.019627914 0.008453353 0.03216443
000210 48 d3 a6 3d 61 08 c9 3c e8 d6 be bd ca cc 8b 3d
       0.081457675 0.024540128 -0.09318334 0.0682617
000220 77 e5 36 bd 3e 28 21 3d 08 0d c2 bd 9e ed 1b bd
       -0.04465243 0.03934502 -0.09475142 -0.038068406
000230 4f 8e 63 3d 5a dc 2c 3c 47 b7 ba 3d 82 5c 0a bd
       0.055555638 0.010550583 0.09116989 -0.03377963
000240 b3 1c f9 3c 13 94 ee bd 50 df 16 bd 42 46 b1 bc
       0.030409193 -0.11649337 -0.03683406 -0.021639947
000250 91 a9 99 bc 5f 3b 87 3d 70 9a 25 3d 2d ba b9 3d
       -0.018757613 0.06603121 0.040430486 0.09068713
000260 c8 fd 9d bd 85 7a d0 3d 26 ba f5 3d 78 4d 3e ba
       -0.077144206 0.10179619 0.119983956 -0.00072594685
000270 2e fc c9 bd 2c 4f b0 3a 33 e5 57 bd c0 00 45 bd
       -0.098625526 0.001345133 -0.052708816 -0.04809642
000280 d4 cc aa 3d 0d ed 20 3d d9 3f e4 bd a7 ac 99 3d
       0.08339849 0.03928857 -0.111449905 0.07503634
000290 93 bf 82 bd 79 a8 db 3d de 55 d5 bd cf 88 f2 bc
       -0.06384196 0.10725493 -0.104167685 -0.029606251
0002a0 1a 64 e4 3d a1 da a7 bd 89 63 21 3c e6 50 aa bd
       0.11151905 -0.08195997 0.009850391 -0.083162114
0002b0 df e1 d1 3d 69 f7 bd 3c b8 be 90 bd 39 ce c2 bd
       0.102481596 0.023189263 -0.07067627 -0.0951199
0002c0 42 71 81 bd c8 72 1e bc fe e3 cf bd aa f7 f6 3d
       -0.0632043 -0.009670921 -0.10150908 0.12058957
0002d0 4a 39 48 bd da be 39 bd d2 95 04 be be aa ab bd
       -0.04888276 -0.045348026 -0.12947777 -0.08382176
0002e0 21 3b bd bd 54 76 8f 3c 19 b5 95 3d 10 d5 fb 3d
       -0.092397936 0.017512478 0.07309932 0.12296498
0002f0 ba 93 27 3d f6 30 c3 bd a0 34 b4 3d 0c 45 96 bd
       0.040912367 -0.09530823 0.087991 -0.073373884
000300 c1 5f 79 bd 0d 1f 83 bd 0b c6 1e bd 61 56 9f bd
       -0.060882334 -0.06402407 -0.038763087 -0.07780147
000310 76 b5 6e bd 82 4d 7d bd 98 0f a7 bd 0d ae c8 3d
       -0.058278523 -0.061841495 -0.08157271 0.097988226
000320 69 23 f5 3c 34 70 f0 bd 7e 83 1b bd 17 9c f8 bc
       0.029924111 -0.11740151 -0.037967198 -0.030347867
000330 bd 32 70 3d be 8d 98 bd 44 32 d3 bc 51 78 9c bd
       0.058642138 -0.0744891 -0.025780804 -0.07640136
000340 be 4b b5 3d 6d 17 fe 3d 04 bd 35 bd 88 34 88 bc
       0.08852337 0.12406812 -0.044369712 -0.016626611
000350 41 bf 65 3d d8 df f0 bd 0c 2a b1 bd 5e 77 cd bc
       0.056090597 -0.11761445 -0.08650598 -0.025081333
000360 8d 4f 91 bd 40 8e 8c 3d a4 07 21 3d 72 af ca bd
       -0.07095251 0.068630695 0.039313927 -0.09896745
000370 f7 07 ea bd 75 10 da 3d b6 de b5 bd fb 2b 11 3c
       -0.114273004 0.1064767 -0.08880369 0.008860583
000380 b8 b1 99 3d 0a 8f e5 3d 50 2e 38 bd 0c d9 70 3d
       0.075046 0.11208923 -0.044966042 0.058800742
000390 37 76 bc bd 70 14 50 bc 62 34 ee 3c a4 57 f1 3d
       -0.09202235 -0.012700185 0.029077712 0.11784294
0003a0 ff bb a9 bd 4c 82 88 3d 5a df 2f bd f1 0a f9 bd
       -0.082878105 0.06665477 -0.042937614 -0.1216029
0003b0 47 3f f7 bd 79 13 5c 3d bb 6d df bd e8 25 22 bc
       -0.12072616 0.053729508 -0.10909601 -0.009896733
0003c0 e4 0a 69 3d 13 de 41 3d 09 7a dd 3d 41 07 1c bd
       0.05689515 0.047330927 0.10814292 -0.038092855
0003d0 26 7c 5a bc 4e a2 87 3d 8e a2 24 bd 32 09 47 bd
       -0.013335263 0.06622754 -0.040194087 -0.048592754
0003e0 e7 81 04 3d ad b6 a9 bd 73 d6 3a 3b 7e 48 e3 bc
       0.032350447 -0.08286796 0.002850917 -0.027744528
0003f0 d6 50 9f 3d c3 7e e9 3d dc 10 a9 bd 76 76 b4 bd
       0.0777909 0.11401131 -0.08255169 -0.08811657

fc2.bias f4 [64]
000000 df 26 21 3d d1 68 ab 3d 1d db c7 3d 12 79 a6 3c
       0.03934371 0.083696015 0.097585894 0.020321403
000010 1d 0d d0 ba 8a e6 26 bd 2b d8 3a 3d 1a 88 ad 3d
       -0.0015873049 -0.040747203 0.04561631 0.08473225
000020 bd 73 73 bd 0b 6c 41 bd 3d 87 9a bc 7b 6a 9b bb
       -0.05943655 -0.04722218 -0.018863315 -0.004742918
000030 61 35 a6 bd 36 2c d7 3d 9b a4 f2 3d af a7 47 3d
       -0.0811565 0.105064794 0.11847802 0.0487439
000040 c7 bc 54 3d b3 cb f9 3d 44 94 e8 bd b1 12 de bd
       0.051937845 0.12197056 -0.113564044 -0.10843409
000050 81 d1 58 bd ce f0 98 3d 15 4e f2 bd 7a 1e 99 3d
       -0.052934173 0.07467805 -0.11831299 0.07476516
000060 16 eb 80 bb 8f ae c7 3d 92 ea f3 bd 4f bb ff bd
       -0.0039342744 0.09750091 -0.11909975 -0.12486898
000070 db e9 f5 bb 3c 9c e6 bd e0 3e 9a 3d ea 75 88 bd
       -0.0075046844 -0.11260268 0.07531524 -0.06663115
000080 ec 2e b6 bd bd 88 59 bd 27 97 a2 bc 83 28 80 bc
       -0.088956684 -0.05310892 -0.019847466 -0.015644317
000090 34 d3 92 bb fe 5e af 3d a0 b0 92 3d 87 e4 d5 3d
       -0.004480744 0.0856304 0.07162595 0.10443979
0000a0 8f 7e d0 3d 98 be 91 bd 0f 4f dd 3d 6e 9f 1b 3d
       0.10180389 -0.07116431 0.10806095 0.03799384
0000b0 3f d6 c4 3c 57 bf 5a 3d 65 e9 90 bd d7 ae 00 be
       0.024027942 0.053405132 -0.070757665 -0.12566696
0000c0 49 8b 2b bd 09 a5 df 3d f9 d9 e0 bd 73 47 06 bc
       -0.04188088 0.1092015 -0.10979075 -0.008195746
0000d0 e5 e2 20 3d 1d 1d f8 3d 66 6e 15 3d 0c 06 39 3d
       0.039278883 0.12114928 0.036482237 0.045171782
0000e0 ed 2e 55 3c 59 03 94 bd 25 da 01 bd be af 0a bd
       0.013011676 -0.07227201 -0.03170218 -0.033859007
0000f0 fd f9 08 bd af 36 0b 3d 0d fa d2 3d e8 63 c4 3d
       -0.033441532 0.033987697 0.103016 0.09589368

fc3.weight f4 [64, 64]
000000 9a 39 d3 3d 83 19 83 3c b9 ab 3e bd fe 32 de bd
       0.10313721 0.016003376 -0.046550486 -0.1084957
000010 b5 1f 00 be 4d eb e6 bc c5 f9 d7 3d 68 e0 f9 bb
       -0.12512095 -0.028188372 0.10545687 -0.0076256283
000020 ee 0b 92 bc 7d 1a b7 bd 40 8a db 3d 58 b8 80 bd
       -0.017827954 -0.08940599 0.107197285 -0.06285161
000030 ba 03 b9 bd 58 7e ae 3c 4c a6 15 3e ff ae ee 3d
       -0.09033914 0.02130048 0.14614218 0.116544716
000040 25 a4 7b bc 17 4a d2 bd d1 7f 8f bd df 2a 85 bd
       -0.015358959 -0.10268038 -0.07006801 -0.06502318
000050 31 63 d8 bc d6 f2 b1 3d c2 57 ce 3d f1 77 d2 bd
       -0.026414486 0.086888954 0.10075332 -0.10276783
000060 d8 b2 b8 bd 9d bc da 3d 1b 6f d1 bd e2 53 ad 3b
       -0.09018487 0.106805064 -0.1022627 0.0052895406
000070 0c f3 8e bd a7 e6 04 3e 47 c5 45 3d f8 c0 8f 3c
       -0.06979951 0.12978612 0.04828384 0.01754807
000080 30 9e 33 bd 87 15 7d bc 75 df 6a bd e0 c2 14 3d
       -0.04385203 -0.015447027 -0.05734201 0.03631866
000090 97 1c fa bd 3b 8f c5 3d 85 4f 12 3e 1e fe a6 3c
       -0.12212484 0.0964646 0.14288147 0.020384844
0000a0 04 f3 13 3e 9a d1 36 bd a6 02 fd bc 4f 00 d9 bd
       0.14448172 -0.044633485 -0.030885052 -0.10595762
0000b0 65 de 6c bd 52 36 e3 bc 76 1b 0f 3d d4 df 8a bc
       -0.05782928 -0.027735863 0.0349383 -0.016952433
0000c0 f4 19 39 bd b0 d1 f9 3d 6c 9b a7 bd d1 a8 99 bc
       -0.045190766 0.12198198 -0.08183941 -0.018757256
0000d0 aa 7d 22 bd 50 9e a2 3d 31 9a 60 3d e5 99 28 bd
       -0.039670624 0.07940352 0.05483455 -0.04116239
0000e0 98 75 07 3e 1f 65 8c bd 31 0c bd 3b 97 8c c0 3d
       0.13228452 -0.06855225 0.0057692756 0.094018154
0000f0 4c 4c 45 3d 74 a0 c2 bd eb ea 92 bd 99 89 bd bd
       0.048168465 -0.0950326 -0.07173713 -0.0925476
000100 4a 04 c6 bd 72 3f b3 bd 0f a0 ea 3c 54 2d 93 bd
       -0.09668787 -0.087523356 0.028640775 -0.0718638
000110 e6 94 aa bd 56 ed 07 3e 69 61 42 3c 2d 97 a6 bd
       -0.083291814 0.1327413 0.011864045 -0.08134303
000120 c9 c4 b7 3d 46 4c d4 3c 17 d9 60 3d 94 6d 9a 3c
       0.08973081 0.025915276 0.054894533 0.018851079
000130 94 46 97 bd 82 f4 a9 3d ef 19 18 bc 43 69 0c bd
       -0.073865086 0.08298589 -0.009283527 -0.034280073
000140 12 fe 75 bd b4 e6 af bd 4a d0 89 3d 65 c5 09 3e
       -0.060056753 -0.08588925 0.06729181 0.13454206
000150 1e 27 a1 bc fb 55 d4 bd ef d8 ca 3d 4a 8d d7 3d
       -0.019671973 -0.10367962 0.09904658 0.105249956
000160 16 42 58 3d 5c 56 e0 bc e5 2b 93 3d 6b c4 8d 3d
       0.0527974 -0.02738493 0.071861066 0.069222294
000170 50 dd af 3d 9d 2a c1 3d 14 c0 a9 3c bf 34 b9 bd
       0.08587134 0.09431956 0.020721473 -0.09043264
000180 7b f8 8c 3d e1 8c 00 be 4a 9f 15 bd 2b 30 aa bd
       0.068833314 -0.12553741 -0.036528863 -0.083099686
000190 a6 ef 1d bd 3e ff f9 3b c4 b4 79 3d a1 aa f1 bd
       -0.038558625 0.007629304 0.060963407 -0.11800123
0001a0 79 79 a2 bb cd d8 c4 bb 48 f8 da 3d 14 88 bf bd
       -0.0049583283 -0.00600729 0.10691887 -0.09352127
0001b0 87 d0 4a bc f0 09 5a bd d5 94 02 3e bc b1 75 bb
       -0.012378818 -0.053232133 0.12752087 -0.003748997
0001c0 fa ca 05 bd f2 7c 29 3b 7d 7c e2 b8 19 d6 e4 3d
       -0.032664277 0.0025861827 -0.000107997075 0.111736484
0001d0 61 54 c1 bd dc 36 bc bd a4 32 fc 3d ac 2a ae 3d
       -0.09439922 -0.09190151 0.123143464 0.08504233
0001e0 d5 7b c3 3d e6 89 59 bd a9 9c b2 3d 30 a3 ac 3d
       0.095451035 -0.053110026 0.08721287 0.08429563
0001f0 d7 04 d6 3d 1d 0a e9 bc 5a c4 93 3c 36 71 f8 3d
       0.10450142 -0.028447205 0.018037964 0.12130968
000200 bd aa c3 3d 1e 3d 85 bd fa 34 ec bd c7 cb 93 bd
       0.0955405 -0.06505798 -0.11533542 -0.07216602
000210 5b 67 1e bc 45 f0 bf bd 13 05 2e bd 89 20 cb bc
       -0.009668197 -0.09372 -0.042485308 -0.024795787
000220 db eb d0 3d 9d ef 0d bd 01 b8 f1 3d 6d 5a 9d 3d
       0.10201236 -0.03465234 0.11802674 0.07683263
000230 06 2a 4f 3d 6c d1 f7 bd 25 df cc 3d db 18 13 3d
       0.050577186 -0.12100491 0.10003499 0.035912376
000240 1f 66 85 3d 7a e8 7b bd 4c 94 48 bd eb a8 90 bc
       0.06513619 -0.061501004 -0.048969552 -0.017658671
000250 7e 9c 72 3d 8c b8 c5 3d 60 f2 74 bd 7a be 2b 3c
       0.059231274 0.0965434 -0.05980146 0.010482425
000260 b0 ae 05 bd b5 1a 00 bd dd 09 e1 bd d7 ec 82 3c
       -0.032637298 -0.03127547 -0.109882094 0.015982075
000270 15 31 a0 3d 82 28 b2 3d df 37 d2 bd fa 4d fb 3d
       0.07821862 0.086991325 -0.10264563 0.12270732
000280 c7 81 f6 bd 73 da 55 3d 9c 98 4b 3c 21 72 0a bd
       -0.12036472 0.052210283 0.012426522 -0.033800248
000290 ae 99 f7 3d 3c bf 48 3c d4 f7 b6 3d fc b6 06 be
       0.12089859 0.012252625 0.08933988 -0.1315574
0002a0 4f d9 55 3c 87 ad 72 bd 22 0a 74 3d 4c 9d a4 bd
       0.013052299 -0.05924752 0.059579976 -0.080378145
0002b0 ac db cc ba 4c cd 0c 3d f6 be d7 3d e8 5b b7 3d
       -0.0015629432 0.034375474 0.1053447 0.089530766
0002c0 e8 2b 1e 3e 50 6b a7 bc 82 a1 94 3d 49 53 bc 3d
       0.15446436 -0.020436913 0.07257368 0.09195573
0002d0 b8 49 25 3d d4 46 01 3d eb e5 8d bd 52 3c d4 bd
       0.040353507 0.031561688 -0.06928619 -0.10363068
0002e0 79 77 65 3d cb 50 f9 b9 d9 05 04 3e 81 42 cc 3d
       0.05602214 -0.00047553176 0.12892856 0.09973622
0002f0 b5 e7 ab bc 5b 63 b9 bd d4 97 fe bd f5 77 1d bd
       -0.02098451 -0.09052154 -0.12431303 -0.038444478
000300 75 ab 4c 3d de 6d 2b 3d eb 1a bf 3d b8 c8 c5 3d
       0.0499682 0.041852824 0.09331306 0.09657425
000310 a3 ce 9b bc 9a 7c 85 3d 6c eb 86 3d ab 1c c5 bd
       -0.01901943 0.065179065 0.06587872 -0.096246086
000320 47 54 cd bd 9e e4 41 3d 64 a4 85 bc 67 3d 54 bd
       -0.1002584 0.047337167 -0.01631374 -0.05181637
000330 37 e7 25 3c 43 31 c2 3b 27 a5 2e 3d 2d 3f 85 bc
       0.010125927 0.0059262826 0.04263797 -0.016265476
000340 f1 6e 81 bd c8 2a aa bc 54 b9 fa bd 26 48 65 bd
       -0.063199885 -0.020772353 -0.1224238 -0.05597701
000350 7d e5 87 3d 63 60 86 bc 2b 56 7d bd c9 6e d4 3d
       0.06635568 -0.016403383 -0.061849754 0.10372693
000360 ff 66 bd bc 1b 6a ff bc 96 11 af bd 1e c8 d8 bd
       -0.023120401 -0.031178525 -0.08548276 -0.10585044
000370 a6 63 9c bd 37 d7 da 3d 71 b3 01 3e 35 46 eb bd
       -0.07636194 0.1068558 0.12666108 -0.11488
000380 e2 2b b3 bd b5 96 19 bd 79 b4 e3 3c 9e 37 f6 3d
       -0.08748604 -0.03749724 0.027796017 0.12022327
000390 c0 01 da bd e5 4a 21 bd 38 db 30 bc df 8b ac bd
       -0.10644865 -0.039378066 -0.010794453 -0.08425116
0003a0 26 c8 a1 3d 88 db af 3d 5c 41 2b 3d 05 c8 e3 bd
       0.078995034 0.08586794 0.04181038 -0.11122135
0003b0 d2 ae 9a bd c5 1b e5 bd ff dc 0c bc 64 74 03 3e
       -0.075528756 -0.11186937 -0.008597611 0.12837368
0003c0 28 1f f8 3c a4 1c ac 3d 39 fe d5 bd 0b d7 c2 3d
       0.030288294 0.084039 -0.1044888 0.095136724
0003d0 7e ca 92 3b 14 d8 ad 3d b1 01 bc bd a8 41 df 3b
       0.0044797054 0.08488479 -0.0918001 0.0068132468
0003e0 b0 cf cd bc 0a bb 01 be 37 5d 20 bc 42 9a e6 3d
       -0.025123447 -0.12669006 -0.009787849 0.11259891
0003f0 ea 26 54 3d 15 a7 a1 bd 57 3d bd bc 85 df f0 3d
       0.051794924 -0.078931965 -0.023100538 0.11761383

fc3.bias f4 [64]
000000 a8 b1 7b bc 8a c4 a3 bd 11 bb 2b 3c 4b ee b9 bc
       -0.015362181 -0.07996471 0.010481612 -0.022696635
000010 e4 86 cf 3d ad 3e 66 bd 99 f5 b5 bd f6 66 75 bd
       0.1013315 -0.056212116 -0.08884735 -0.059912644
000020 63 75 fc 3d 70 96 70 bd ff 44 cb 3d d3 01 3d bd
       0.12327077 -0.05873722 0.09925269 -0.046144318
000030 f4 ef 89 bd b8 fc 8e 3d a4 73 33 bd 5d 18 65 bc
       -0.067352206 0.06981796 -0.043811455 -0.013982859
000040 7c e8 aa bd 14 d1 db bc 7a 7d fa 3d 77 1a f5 bd
       -0.08345124 -0.026833095 0.12230964 -0.119679384
000050 8f 53 dd bd af 50 a4 bd b2 11 1a 3c dc 22 1a 3d
       -0.10806953 -0.08023202 0.009403633 0.0376309
000060 0d 90 f2 3c 2f da f7 bd 99 07 6a bc 72 93 be bd
       0.029609704 -0.12102162 -0.014284038 -0.09305467
000070 4c a6 8d 3d 61 94 34 3c a0 1a 10 3c 27 2a b8 3d
       0.06916484 0.011021704 0.00879541 0.08992415
000080 82 c1 65 3d 7c 50 1d bd 26 26 aa 3c b0 65 c7 bc
       0.056092747 -0.038406834 0.020770144 -0.02434048
000090 99 16 78 bd e5 8d 45 3d 40 44 51 3c 9e 9c c1 bd
       -0.060568426 0.048231024 0.01277262 -0.094537005
0000a0 98 80 cc 3d ca 3d b2 3d 99 5e 5f bc 46 fb c4 bd
       0.09985465 0.087031916 -0.013633394 -0.09618239
0000b0 b8 8d 69 bd 6d 57 be 3c 21 46 c1 3d 5b 50 fa bd
       -0.05701992 0.023235047 0.09437204 -0.12222358
0000c0 ff f1 e3 3d a9 14 ba bd 24 11 f8 3d 53 77 e1 3d
       0.111301415 -0.09085972 0.12112644 0.110090874
0000d0 cb 2f 83 3d 8b 71 93 bd 91 26 02 3d ca aa 8e bd
       0.064056 -0.07199391 0.03177506 -0.06966169
0000e0 12 3a c8 3d 2b 47 ad bd b3 c3 85 bc 39 e8 cc bd
       0.09776701 -0.0846084 -0.016328668 -0.100052305
0000f0 77 13 b8 3d 31 bb c1 3d a2 79 69 3d 8c 37 e4 3c
       0.089880876 0.09459532 0.057000764 0.027858518

fc4.weight f4 [27, 64]
000000 7e 08 bc 3d 27 c1 af bd 18 44 ae bc c9 bf 27 3d
       0.09181307 -0.08581763 -0.021272704 0.040954385
000010 92 5b 3a bd eb 7e 89 3d 40 49 a7 bc d8 77 c8 3d
       -0.045497485 0.06713661 -0.02042067 0.097884834
000020 58 00 d4 bd d3 9a ed bd 9b 6b e1 3d bf 04 22 3e
       -0.10351628 -0.11601796 0.11006852 0.15822123
000030 7e 60 c5 bd a2 be 87 bd 23 c6 d3 3d 9e f3 98 bd
       -0.09637545 -0.06628157 0.10340526 -0.07468341
000040 f3 c3 bf bd fe e5 03 3d 2e 03 05 bc 03 c5 fd 3d
       -0.09363546 0.03220176 -0.008118434 0.12391093
000050 49 34 ed 3d f8 ae 35 ba 14 d2 a1 3d 65 a2 ba 3d
       0.11582238 -0.00069306744 0.07901397 0.091130055
000060 76 65 96 bd ae b9 9b bd c0 28 0c bd 32 92 e4 bd
       -0.07343571 -0.07603775 -0.03421855 -0.11160697
000070 76 b7 c5 bd c2 b9 81 3d e6 5f ee bd 92 90 d6 3b
       -0.09654133 0.063342586 -0.11639385 0.006547996
000080 bc 4b fb bd 10 00 bb bc b4 4a c4 3d 5c 5e 0a 3e
       -0.122703046 -0.022827178 0.09584561 0.13512558
000090 9b ff c2 bc b0 39 a0 3d 30 a1 e9 bd 03 b3 1e bc
       -0.023803523 0.07823503 -0.11407697 -0.009686234
0000a0 44 c3 db bd 33 75 e2 3d b9 1a 3e bd 7b 67 1f be
       -0.10730603 0.1105751 -0.046412203 -0.15566818
0000b0 a5 fa af 3d 08 70 32 bd 94 d0 e0 3d e8 1d 42 bd
       0.085927285 -0.043563873 0.10977283 -0.047391802
0000c0 da a0 88 3d 07 52 7f bc 68 8f f1 bd 43 51 5c bd
       0.06671305 -0.015583522 -0.11794931 -0.053788435
0000d0 b0 76 c0 3d c6 47 ba bd 43 b3 5b bd f7 20 28 3d
       0.09397638 -0.09095721 -0.053637754 0.041047063
0000e0 18 ec c7 3c 70 5b 05 3d c9 c1 d6 3d 80 c5 53 bd
       0.02440457 0.032557905 0.1048618 -0.051702023
0000f0 fe 91 4e bd 44 13 83 3d 52 17 02 be 77 b7 1e be
       -0.050432198 0.06400159 -0.12704208 -0.15499674
000100 63 f2 18 3d 24 83 6a 3d e3 06 91 3d f2 46 58 bd
       0.037340533 0.05725397 0.07081392 -0.052802034
000110 e4 ec 4d bd 7c 9b a6 3c 0d 74 a6 bd 42 2f 8e 3b
       -0.050274745 0.020337813 -0.08127604 0.0043391297
000120 ad 16 d8 bd 48 7c a0 3d 74 e8 00 3e da 37 d2 bc
       -0.105512 0.07836205 0.12588674 -0.025661398
000130 2c 0d cf 3c 19 b7 18 3d 1e 50 f7 3d 1d c9 13 3d
       0.025274836 0.03728399 0.12075828 0.03608047
000140 12 eb b4 3d 71 49 ae 3b 7f 9c 84 3c 42 a4 27 3d
       0.088338986 0.0053188135 0.016187904 0.040928133
000150 4e ae 8e bd ed 9f 7a bd b8 dd 8b bd db 1f df 3b
       -0.0696684 -0.061187673 -0.06829399 0.0068092174
000160 0d aa 04 3d 4a 51 18 be d9 89 08 bd e5 79 b5 bc
       0.032388736 -0.1487476 -0.033334587 -0.02215285
000170 de c6 b3 3c 92 84 3f bd f8 e9 9f 3c 69 a6 1e bc
       0.021945413 -0.04675729 0.019520745 -0.00968323
000180 35 0a 12 bd 44 1d 10 bd 29 86 42 bd 6c 23 72 bd
       -0.035654265 -0.03518416 -0.047491226 -0.059115812
000190 64 af d6 3d 68 fd 08 3e e2 3d cf bd 3a f8 b7 bd
       0.10482672 0.13377917 -0.10119225 -0.08982892
0001a0 88 c8 5a bd 1d 71 6b 3c 34 63 ec 3d 3a 28 f1 3d
       -0.053413898 0.01437023 0.11542359 0.11775251
0001b0 4c da 0d bd b2 6f 16 bd 83 56 a5 bd d2 ec de bd
       -0.034632012 -0.036727615 -0.080731414 -0.10885014
0001c0 f9 89 d4 3d be 5e b0 bd c3 52 c6 bd d9 68 17 3e
       0.10377879 -0.08611821 -0.09683754 0.1478609
0001d0 fe 1f c0 3d 38 6e b7 3d 25 e6 a2 bd de 45 1b bd
       0.09381102 0.089565694 -0.07954053 -0.037908427
0001e0 f5 a4 b5 bd c5 1f 83 bd 25 47 3f bb ed 07 d8 bd
       -0.08869354 -0.06402544 -0.0029186693 -0.10548387
0001f0 e3 0d 1f bd 8f 42 db bd cb cb d7 bd 24 a4 e4 bb
       -0.038831603 -0.107060544 -0.10536917 -0.006977575
000200 06 11 52 3c 1a cf 13 be 4c 41 1f 3d 41 00 e4 3c
       0.0128214415 -0.14434472 0.03888063 0.027832152
000210 f5 d9 db 3d 7f 85 bb 3d 8c 9e 81 3d 10 b9 8c bc
       0.107349314 0.09156322 0.063290685 -0.017178088
000220 52 55 35 bd 9e 90 da bc 4c 1e d8 bc 6d f4 6d bd
       -0.04427082 -0.026680287 -0.026381634 -0.05809443
000230 b1 e5 1d be c2 1a 44 bd e3 0b 4d bd 02 ca 10 bc
       -0.15419652 -0.04787708 -0.050060164 -0.008837225
000240 5e a4 1b bd 4f dd de bd b3 2c e1 3c d4 d3 4c bd
       -0.03799855 -0.10882055 0.027487135 -0.050006703
000250 18 78 97 3d 09 cb b9 3d a7 1b 44 3d 1a f2 30 bc
       0.07395953 0.09071929 0.047877934 -0.010799909
000260 f8 e4 4d 3c a9 1b 5c 3d ca 7a ee 3b 2b be f4 bd
       0.012566797 0.053737316 0.007277821 -0.11950334
000270 0f 10 f0 3d 0d ad e7 3d 94 9b a6 3d f5 46 cb bd
       0.11721813 0.11312304 0.08135143 -0.09925643
000280 a1 5b a8 3d 34 6a 03 3e 3d ab 7e bd 69 e4 1c 3d
       0.08220602 0.12833482 -0.062175024 0.038303766
000290 a5 b5 0b 3e 83 66 cf bd 37 78 95 bd 56 ad de 3d
       0.1364351 -0.101269744 -0.0729832 0.10872905
0002a0 05 91 83 3b d4 8b d7 bd 9e 40 a1 3d c9 70 6c bb
       0.0040150904 -0.10524717 0.07873653 -0.0036077967
0002b0 ab ed a8 bd ed 49 1d bd 4d d0 0e 3d ab 9e 45 bd
       -0.082484566 -0.03840058 0.03486662 -0.04824702
0002c0 4c 75 51 bc 03 f1 d6 bd e7 70 ea bc 3b 76 ba bd
       -0.012784313 -0.10495188 -0.02861829 -0.09104582
0002d0 83 78 56 3d 57 60 71 3c 9c d0 fc bd ee af 8d bd
       0.052361023 0.014732442 -0.123444766 -0.069183215
0002e0 92 bb 13 3e ad ad b1 bd a5 77 97 bd c8 25 4d 3d
       0.14427021 -0.08675704 -0.07395867 0.05008486
0002f0 33 3d 09 3e ec 7c ed bd 2c 81 1a 3c f5 e5 d1 bd
       0.13402252 -0.115960926 0.009430211 -0.10248939
000300 94 71 7c 3d be f6 72 3d 6e 94 fb 3d 64 cb c6 3d
       0.061631754 0.059317343 0.1228417 0.097067624
000310 c8 1c 0e 3d 22 26 cf 3d da e0 af bd 45 ac 2d 3d
       0.034695417 0.10114695 -0.08587809 0.042400617
000320 f7 93 cf 3c 54 c2 0e 3d e2 10 d6 3d f0 77 e1 bd
       0.02533911 0.034853294 0.10452439 -0.110092044
000330 ba 3f dc bd e2 34 bb bb 72 38 6a bd 8c 09 09 3d
       -0.107543424 -0.005713091 -0.057182737 0.03345637
000340 94 bc f9 3d a6 e1 7f bd 18 cf 64 bc f5 68 98 bd
       0.121941715 -0.062471054 -0.013965391 -0.07441894
000350 a9 d7 77 bd b9 27 b0 bd d1 ff cd bd 6c 40 8a 3d
       -0.060508404 -0.086013265 -0.10058559 0.06750569
000360 e5 f6 77 3d ef 51 92 3d 2e f9 fe bd 25 63 9d 3a
       0.06053819 0.07144534 -0.12449871 0.0012007697
000370 1c 81 c2 3d 94 75 a0 bd d8 8d 08 3d f0 34 47 3d
       0.09497282 -0.07834926 0.033338398 0.04863447
000380 5d a7 ed 3d 2a 36 88 3c 5e e3 79 3d 64 f3 98 3d
       0.11604188 0.01662739 0.06100785 0.07468298
000390 dc a8 95 bd 71 18 22 bd 3c 12 b1 bd d4 95 ee 3d
       -0.07307598 -0.03957409 -0.08646056 0.11649671
0003a0 be a0 8d bd 6f f3 18 bd 73 cb 15 be 85 a7 a8 bd
       -0.06915425 -0.03734153 -0.14628391 -0.08235077
0003b0 71 72 d6 3d c7 7f 93 3d 0f 86 0d 3e e4 a3 03 be
       0.10471047 0.07202106 0.1382067 -0.12855488
0003c0 a9 a0 45 3d 4f 8b 8c 3d ef 2a e4 3b 70 58 72 bd
       0.04824892 0.068625085 0.006963126 -0.05916637
0003d0 ec 5a 0f 3e a3 4c fb 3c bd 95 37 bc 51 3b f2 3d
       0.13999528 0.030676192 -0.011205134 0.1182772
0003e0 8a 13 b3 bd ec 46 66 bd 89 72 db bc 7f 9a 1f bd
       -0.08743961 -0.05621998 -0.026788013 -0.0389657
0003f0 a3 38 a8 bd cf f8 01 39 fd 74 e3 bb 6d ea 00 3e
       -0.082139276 0.00012395087 -0.0069414363 0.12589426

fc4.bias f4 [27]
000000 05 55 50 bd ce f5 1d bd ca 51 0f 3d b0 34 09 bc
       -0.05086233 -0.038564496 0.03499011 -0.008374378
000010 c8 7b 92 bc 36 f8 96 3d 85 09 ee bd cc 01 9b bd
       -0.01788129 0.07371561 -0.116229095 -0.07568702
000020 82 d6 9a 3d 96 ec d3 3d 4a 16 aa bd 52 bb d6 3d
       0.07560445 0.103478596 -0.083050326 0.10484947
000030 14 0d ca 3d 0a 24 33 bd c4 53 15 bd fa 4d ba bd
       0.09865776 -0.04373554 -0.03645684 -0.09096904
000040 a7 2e ae 3d e6 fb e0 bd 85 ed 8f bc 7b 56 cb bd
       0.08504992 -0.10985546 -0.017569313 -0.09928604
000050 f4 bf 63 bd f3 22 55 3d 41 cb e1 3d a1 c4 f1 bb
       -0.055602983 0.052035283 0.11025096 -0.0073781763
000060 6d f8 f9 3d 64 85 4d 3d a7 36 e9 bd
       0.122055866 0.05017604 -0.11387377
