src/cached_data/trained_models/model_100_16_dim_6_5.pt (torch_old, 103166 bytes, 8 tensors)

fc1.weight f4 [64, 240]
0.071397476 0.056602404 0.053182054 -0.039349917 0.07654267 0.011910414 0.05951363 0.0571535
-0.038712617 -0.046622142 -0.046138417 -0.025269492 -0.032875706 0.06802597 -0.0037542775 -0.0334809
0.013815538 -0.013815661 0.011270761 0.012768131 0.071768515 -0.02736532 0.057749838 -0.025403125
0.027750056 -0.046867248 0.011128782 -0.04692906 0.017668728 0.0026132937 -0.044486616 0.027016401
-0.031799786 0.028127149 -0.0014705999 0.05192905 0.029637057 0.005577454 -0.008663605 0.0045918254
0.004641886 -0.037046283 0.047059283 -0.0056120264 0.0007478128 0.06089497 -0.033040844 -0.002645234
-0.040379565 0.010108245 0.041491587 -0.029344184 0.0017872135 0.0073273545 0.056918036 -0.032177813
-0.02273043 -0.03938471 -0.04254682 -0.02477951 -0.009903314 -0.024952248 -0.024542991 -0.042992547
-0.058020514 0.053489376 -0.026421428 0.019372482 -0.057805948 -0.009059368 0.057177834 0.045095038
0.043367032 0.01794731 0.03356149 0.037876934 0.03125076 -0.031925667 0.029827578 0.007995693
0.023580484 -0.013845298 0.014257325 0.029358024 0.06072659 0.030317534 0.05982895 -0.02356044
0.053855486 -0.042041883 -0.047327146 0.01667879 -0.046471383 -0.060112007 0.03747354 0.028884428
0.017347047 -0.06821012 -0.048940286 -0.026419166 0.037866477 0.026439553 -0.06303702 -0.06457397
-0.06327001 -0.029851386 0.028272184 0.0019122754 -0.04044714 -0.043741245 -0.0689513 0.035882782
-0.05083694 -0.0132258115 0.041489158 0.018827502 -0.018493108 0.009724552 -0.048014015 -0.0044011557
0.017435517 -0.032747503 -0.05037192 0.045425016 -0.03361874 -0.040661022 -0.004015458 -0.024581082
-0.012221061 -0.01544833 0.0075518815 0.05635743 -0.027194103 -0.017424999 -0.06893396 -0.041241024
-0.055826817 0.0025120003 0.02191384 0.021447364 -0.032793626 -0.001416955 0.0013749483 -0.039753072
0.008760257 -0.038897056 0.063702375 0.016349837 -0.04757869 -0.010773718 0.06436025 -0.046458274
0.05192672 -0.040697645 -0.007999658 0.04894015 -0.03726401 0.026897827 -0.0466892 0.027927393
0.020011391 -0.01467542 0.047741532 -0.0053680525 0.040902033 -0.062270567 -0.063686505 0.014392582
-0.06933197 -0.048163433 0.03429066 -0.055539697 -0.020559175 0.031818107 -0.05530653 0.0324205
0.020043913 -0.0018730101 -0.050347548 0.012118485 -0.038865976 0.019140864 -0.040727474 -0.006438508
-0.05502801 -0.061092313 -0.033639587 -0.00837076 2.2743197e-05 -0.038216434 0.042582605 -0.06298563
0.03620186 0.043493893 0.011132297 0.035607368 -0.04612559 -0.046534266 -0.03632532 -0.061919793
-0.052064627 -0.055059876 0.0037256093 -0.029991701 -0.05297813 0.025975745 0.033659082 -0.018757764
-0.023195399 -0.053728163 -0.018107237 -0.040787112 0.00042136663 0.0073814117 -0.026158089 -0.005582386
0.038919035 0.027724572 0.066122696 0.06973652 0.00635946 -0.026403759 -0.0014063725 0.07209752
-0.023917578 0.05142239 0.027113097 0.014173002 3.598842e-05 -0.05112984 -0.007642909 0.009543894
0.07466152 -0.01768061 -0.023646276 0.07715439 -0.027743874 0.033616554 -0.0015997764 -0.0378756
0.0037613856 -0.07387477 -0.07318586 -0.0737287 -0.07158425 -0.020766681 0.01950781 -0.09296694
-0.07525285 0.042877994 -0.02990452 -0.08032444 0.04617362 0.011643565 -0.06503723 -0.0024828764
00000000: d738 923d ecd7 673d 6dd5 593d 612d 21bd
00000010: 67c2 9c3d e623 433c 90c4 733d ca19 6a3d
00000020: 1f91 1ebd dcf6 3ebd a3fb 3cbd f701 cfbc
00000030: ada8 06bd 3351 8b3d 530a 76bb 4523 09bd
00000040: 915a 623c 155b 62bc ffa8 383c 6c31 513c
00000050: 5ffb 923d 3c2d e0bc 188b 6c3d 371a d0bc
00000060: 1654 e33c dff7 3fbd 7f55 363c b038 40bd
00000070: 02be 903c cb43 2b3b 9937 36bd 8051 dd3c
00000080: 7e40 02bd e86a e63c 25c1 c0ba 8eb3 543d
00000090: 6ac9 f23c 13c3 b63b cbf1 0dbc 0677 963b
000000a0: f61a 983b d8bd 17bd 3cc1 403d 17e5 b7bb
000000b0: de08 443a 016d 793d d655 07bd aa5b 2dbb
000000c0: 0b65 25bd 0d9d 253c 15f3 293d 3763 f0bc
000000d0: ef40 ea3a 4e1a f03b e322 693d e2cc 03bd
000000e0: 2b35 babc dd51 21bd 9345 2ebd 66fe cabc
000000f0: 8241 22bc a868 ccbc 620e c9bc f418 30bd
00000100: eba6 6dbd ad17 5b3d c071 d8bc 0ab3 9e3c
00000110: eec5 6cbd be6d 14bc 4e33 6a3d 93b5 383d
00000120: a1a1 313d 3d06 933c c677 093d d824 1b3d
00000130: cc00 003d 7dc4 02bd f758 f43c 5e00 033c
00000140: dc2b c13c 64d7 62bc 8e97 693c 3d80 f03c
00000150: 72bc 783d 7a5c f83c 330f 753d d301 c1bc
00000160: 9297 5c3d 1c34 2cbd 1cda 41bd f5a1 883c
00000170: c758 3ebd 0238 76bd db7d 193d 099f ec3c
00000180: 651b 8e3c bfb1 8bbd 9c75 48bd 026d d8bc
00000190: e119 1b3d c397 d83c 8e19 81bd 5c3f 84bd
000001a0: b593 81bd e58a f4bc 119b e73c 51a5 fa3a
000001b0: e6ab 25bd 052a 33bd 5736 8dbd d3f9 123d
000001c0: 653a 50bd 13b1 58bc 89f0 293d 223c 9a3c
000001d0: dc7e 97bc ba53 1f3c 58aa 44bd 9237 90bb
000001e0: eed4 8e3c 3f22 06bd c952 4ebd 950f 3a3d
000001f0: ceb3 09bd 2c8c 26bd 1a94 83bb 445e c9bc
00000200: d83a 48bc fe1a 7dbc c675 f73b 0cd7 663d
00000210: 2bc6 debc dfbe 8ebc 3f2d 8dbd 59ec 28bd
00000220: a9aa 64bd 5fa0 243b a784 b33c 62b2 af3c
00000230: 9c52 06bd 1fb9 b9ba 9c37 b43a 1ed4 22bd
00000240: 2e87 0f3c 8552 1fbd 6476 823d 18f0 853c
00000250: dfe1 42bd 4084 30bc 4fcf 833d 084b 3ebd
00000260: 1db1 543d 93b2 26bd ff10 03bc 7775 483d
00000270: 26a2 18bd d558 dc3c 2d3d 3fbd fdc7 e43c
00000280: eeee a33c 2c71 70bc a08c 433d 7de6 afbb
00000290: e488 273d 6c0f 7fbd 126e 82bd ddce 6b3c
000002a0: ebfd 8dbd 0547 45bd 5d74 0c3d 987d 63bd
000002b0: b76b a8bc b453 023d 1a89 62bd 5ccb 043d
000002c0: 2233 a43c ca7f f5ba 3b39 4ebd 9c8c 463c
000002d0: ee31 1fbd 4dcd 9c3c dad1 26bd 1ffa d2bb
000002e0: 0d65 61bd ef3b 7abd aac9 09bd 8325 09bc
000002f0: a5c8 be37 d688 1cbd 196b 2e3d 9cfe 80bd
00000300: 6748 143d a726 323d 3d64 363c 08d9 113d
00000310: 30ee 3cbd b79a 3ebd dcc9 14bd 9c9f 7dbd
00000320: b841 55bd 7786 61bd 5a29 743b 28b1 f5bc
00000330: 98ff 58bd 16cb d43c 1bde 093d e2a9 99bc
00000340: 4704 bebc 1012 5cbd a155 94bc 6310 27bd
00000350: dfea dc39 c5df f13b 7d49 d6bc 73ec b6bb
00000360: 9169 1f3d a41e e33c 566b 873d 05d2 8e3d
00000370: 0463 d03b b24c d8bc 0856 b8ba dda7 933d
00000380: ccee c3bc 49a0 523d 491c de3c e135 683c
00000390: 46f2 1638 866d 51bd 5e71 fabb fe5d 1c3c
000003a0: 24e8 983d edd6 90bc d6b5 c1bc 1f03 9e3d
000003b0: 1f47 e3bc 83b1 093d 97af d1ba 7223 1bbd
000003c0: 9481 763b a84b 97bd 78e2 95bd 13ff 96bd
000003d0: c39a 92bd e31e aabc d8ce 9f3c 7365 bebd
000003e0: 2b1e 9abd d6a0 2f3d 53fa f4bc 2481 a4bd
000003f0: 8d20 3d3d a7c4 3e3c 3d32 85bd c1b7 22bb

fc1.bias f4 [64]
0.0044542574 -0.03564229 -0.0021749984 0.043492924 0.049277883 0.021226658 0.058944687 0.020122316
-0.043361954 0.06413602 0.062652625 -0.02845925 0.0114175035 0.03177794 -0.028469138 -0.012921568
-0.06425283 0.033278223 0.025624214 -0.0033477317 -0.013498158 -0.010632538 0.013648834 -0.047889408
-0.043514173 0.045932446 -0.034829743 0.01104508 -0.03678103 0.053438358 -0.048232846 -0.023746828
-0.024414623 -0.04545515 0.031715203 0.012074339 -0.031382374 0.017408272 0.04421332 0.02802739
-0.011258657 0.025107196 -0.035218436 4.3182426e-05 -0.05764277 0.03231931 0.05332709 0.010701923
-0.014565192 -0.03880145 -0.0015473972 0.045944866 -0.012326344 0.0030515585 -0.008405048 -0.0105049675
0.040229514 0.033548545 -0.0028063501 -0.01274014 -0.038781703 0.03899797 0.053931907 -0.023313012
00000000: 05f5 913b a6fd 11bd 6b8a 0ebb a325 323d
00000010: 9bd7 493d 87e3 ad3c fc6f 713d 8ed7 a43c
00000020: 4e9c 31bd bf59 833d 0550 803d 6023 e9bc
00000030: 7b10 3b3c 9629 023d 1c38 e9bc fcb4 53bc
00000040: fd96 83bd bf4e 083d dfe9 d13c 9e65 5bbb
00000050: 6127 5dbc 1934 2ebc 5c9f 5f3c af27 44bd
00000060: eb3b 32bd a923 3c3d a2a9 0ebd 6cf6 343c
00000070: b5a7 16bd 2ee2 5a3d ce8f 45bd b588 c2bc
00000080: 2d01 c8bc 2e2f 3abd cde7 013d 73d3 453c
00000090: ce8a 00bd cb9b 8e3c 0719 353d b299 e53c
000000a0: 3b76 38bc 9bad cd3c 3541 10bd c71e 3538
000000b0: d31a 6cbd 4161 043d 826d 5a3d 1e57 2f3c
000000c0: d8a2 6ebc 45ee 1ebd 09d2 caba af30 3c3d
000000d0: 6ff4 49bc a8fc 473b 54b5 09bc 071d 2cbc
000000e0: b4c7 243d 336a 093d beea 37bb 05bc 50bc
000000f0: 90d9 1ebd 56bc 1f3d b4e7 5c3d eefa bebc

fc2.weight f4 [64, 64]
0.13450722 0.12821838 -0.11704876 0.014309617 -0.011981901 0.1038274 0.024712551 0.018891454
-0.008272584 0.022707274 0.0122327395 0.03888566 -0.06547499 -0.123742044 -0.14510094 0.090355106
0.028131632 0.005370641 -0.0641008 0.09295141 0.08520526 -0.007877715 0.094099745 0.083219066
-0.035813857 0.1194444 0.008695911 0.13027072 0.074828014 0.058753885 -0.12388232 -0.13310884
-0.040884856 -0.11926062 -0.075966075 0.101935595 0.06899141 -0.09079865 0.06327371 -0.05235115
-0.11183963 -0.03919858 0.20256288 -0.02639979 -0.05576551 -0.08097297 0.041782577 0.07027553
-0.03937567 -0.08406595 -0.119029 0.1307975 0.11461485 -0.06397491 -0.13281476 -0.046185352
0.067040265 0.07938032 0.058321744 -0.055219837 0.14611146 0.115601234 -0.06351296 0.08935942
0.052150376 -0.042591363 -0.06323508 0.14739488 -0.104233235 -0.038104348 -0.06205142 -0.02259208
0.11937264 0.13042505 -0.02274989 -0.06114537 -0.105765685 0.0688042 0.029140422 -0.11680044
0.029053178 0.010573907 0.06916484 -0.045666866 0.04235067 0.008767586 -0.043953653 0.055941798
-0.036909826 -0.22994599 -0.03078951 0.0770887 0.13733809 0.10191186 0.14125803 0.013362983
0.15168735 -0.056949057 0.09560926 -0.057071764 -0.02907534 0.19787209 -0.030139543 -0.03376344
0.15414043 0.0031321142 -0.050595757 -0.13201919 -0.13562204 0.016896706 0.091717735 -0.040544257
0.23158856 -0.0862779 0.07894695 -0.072205864 -0.03771062 0.12084605 -0.18057775 0.20770004
-0.13423721 -0.12047869 0.096358664 -0.068816245 -0.20815857 0.113018155 -0.14064391 -0.037976757
-0.045790754 -0.056462202 -0.13509111 0.027385311 0.016795471 -0.103767075 -0.019078404 -0.087500185
0.10152116 -0.019563394 0.037486676 -0.028227594 0.06524609 -0.005277316 0.045862358 0.10392212
0.029478531 -0.013956217 0.002770301 0.026209995 0.00966274 -0.059885774 -0.017341822 0.041590385
0.06592452 -0.07962921 0.10275755 -0.035124004 0.03700618 0.0060372977 0.15964796 -0.07865834
0.055568513 -0.00084841694 -0.06848769 0.0031598888 0.020059586 -0.06902692 0.05058523 0.009460418
-0.040208615 -0.08698549 -0.082639724 -0.051528502 -0.11101258 0.06675069 -0.051589377 -0.05707616
-0.108341515 -0.089270234 -0.036759675 -0.05008463 -0.10746911 -0.034280177 -0.035438552 -0.021137496
-0.09081023 0.01847443 -0.070930265 -0.015522385 -0.0066055316 0.023341626 0.0182149 -0.033869952
0.107841834 -0.042902444 0.11167809 0.13717087 0.13449453 0.17831543 0.019733088 0.15752286
0.11334966 0.028803486 0.039749738 0.1433934 -0.106582984 -0.037368175 -0.10224553 0.11352504
-0.07058102 -0.12076248 0.012945922 -0.1286247 -0.0063019125 0.16691263 0.052575264 -0.077709824
0.06698311 -0.025433268 0.0043336162 -0.19649664 -0.055376798 -0.06254095 -0.04864111 0.19920087
0.087800086 0.11599174 -0.07580707 -0.12618391 0.12623535 -0.058433626 0.11987774 0.13698357
-0.037354603 -0.044748988 0.06530988 0.1417775 -0.050791483 0.014198934 0.20333488 0.018108277
-0.08696645 0.09198502 -0.06093878 0.052345674 -0.10832899 0.15708472 0.085047334 -0.09177724
-0.0045293057 0.014199375 -0.025563495 -0.1636032 -0.0717897 -0.07634489 -0.05443099 -0.018214077
00000000: 43bc 093e ae4b 033e 43b7 efbd e272 6a3c
00000010: bc4f 44bc 76a3 d43d fa71 ca3c 40c2 9a3c
00000020: bb89 07bc 9b04 ba3c d46b 483c 9246 1f3d
00000030: c017 86bd 786c fdbd 5795 14be 190c b93d
00000040: 4f74 e63c 34fc af3b 4847 83bd 4f5d be3d
00000050: 1880 ae3d 8811 01bc 5eb7 c03d c26e aa3d
00000060: 8db1 12bd 449f f43d 4b79 0e3c b065 053e
00000070: 6e3f 993d eaa7 703d 04b6 fdbd af4d 08be
00000080: e176 27bd e93e f4bd 1a94 9bbd 9cc3 d03d
00000090: 5e4b 8d3d a5f4 b9bd a695 813d 296e 56bd
000000a0: 2d0c e5bd b18e 20bd a56c 4f3e 5f44 d8bc
000000b0: 606a 64bd 28d5 a5bd 3524 2b3d 9eec 8f3d
000000c0: 6248 21bd c52a acbd 7ac5 f3bd c8ef 053e
000000d0: 31bb ea3d 4705 83bd 9800 08be da2c 3dbd
000000e0: 684c 893d 2692 a23d c8e2 6e3d 322e 62bd
000000f0: 3e9e 153e 57c0 ec3d 1513 82bd 1202 b73d
00000100: a29b 553d 4874 2ebd 6581 81bd afee 163e
00000110: 3c78 d5bd 4e13 1cbd a129 7ebd 0713 b9bc
00000120: a579 f43d 258e 053e fa5d babc 9173 7abd
00000130: ae9b d8bd 37e9 8c3d e5b7 ee3c 1235 efbd
00000140: ee00 ee3c 2e3e 2d3c 4ca6 8d3d 2e0d 3bbd
00000150: e577 2d3d eca5 0f3c bf08 34bd 3a23 653d
00000160: c22e 17bd f676 6bbe 483a fcbc aee0 9d3d
00000170: 5ba2 0c3e 2ab7 d03d f2a5 103e 6af0 5a3c
00000180: ee53 1b3e 6a43 69bd cace c33d 15c4 69bd
00000190: 682f eebc fb9e 4a3e 34e7 f6bc 884b 0abd
000001a0: fdd6 1d3e 2844 4d3b 7f3d 4fbd 0a30 07be
000001b0: 81e0 0abe f66a 8a3c 82d6 bb3d bc11 26bd
000001c0: 8d25 6d3e 78b2 b0bd f0ae a13d abe0 93bd
000001d0: 7376 1abd 227e f73d 60e9 38be 52af 543e
000001e0: 7b75 09be 88bd f6bd b157 c53d 88ef 8cbd
000001f0: 8527 55be 1076 e73d f504 10be 848d 1bbd
00000200: 168f 3bbd e944 67bd 5355 0abe 2957 e03c
00000210: a896 893c d583 d4bd 504a 9cbc 4c33 b3bd
00000220: 53ea cf3d 6943 a0bc a18b 193d 8e3d e7bc
00000230: be9f 853d 56ed acbb 2bda 3b3d 1fd5 d43d
00000240: f67c f13c 9ea8 64bc f08d 353b 58b6 d63c
00000250: 7850 1e3c c94a 75bd 7010 8ebc ae5a 2a3d
00000260: 6f03 873d a414 a3bd 8d72 d23d 30de 0fbd
00000270: cb93 173d 86d4 c53b c17a 233e a017 a1bd
00000280: cf9b 633d 4c68 5eba 4643 8cbd 2316 4f3b
00000290: 0054 a43c fc5d 8dbd 7532 4f3d deff 1a3c
000002a0: cab1 24bd 7325 b2bd 043f a9bd 8d0f 53bd
000002b0: 905a e3bd 96b4 883d 624f 53bd b1c8 69bd
000002c0: 28e2 ddbd 50d3 b6bd 5091 16bd 8a25 4dbd
000002d0: c418 dcbd 5f69 0cbd 0428 11bd 8b28 adbc
000002e0: b7fa b9bd b057 973c e343 91bd 9a51 7ebc
000002f0: 3773 d8bb f036 bf3c 6a37 953c 38bb 0abd
00000300: 2edc dc3d 79ba 2fbd 7cb7 e43d 8576 0c3e
00000310: efb8 093e 5298 363e 49a7 a13c ac4d 213e
00000320: de23 e83d 4af5 eb3c 9fd0 223d b8d5 123e
00000330: 2e48 dabd 5f0f 19bd 1b66 d1bd d17f e83d
00000340: c88c 90bd 5252 f7bd 221b 543c 31b6 03be
00000350: 4680 cebb 25eb 2a3e 2959 573d 5426 9fbd
00000360: 712e 893d 6e59 d0bc 0201 8e3b 6a36 49be
00000370: c8d2 62bd 7815 80bd e73b 47bd 50fb 4b3e
00000380: 88d0 b33d 148d ed3d bd40 9bbd 5b36 01be
00000390: d743 013e 1958 6fbd 7682 f53d 6c45 0c3e
000003a0: 2401 19bd b74a 37bd 30c1 853d 1f2e 113e
000003b0: bb0a 50bd a5a2 683c 0537 503e cf57 943c
000003c0: 771b b2bd a462 bc3d f19a 79bd 6b68 563d
000003d0: 97db ddbd d1da 203e 4c2d ae3d b5f5 bbbd
000003e0: 926a 94bb 7fa4 683c 896a d1bc 9987 27be
000003f0: 7a06 93bd b65a 9cbd 08f3 5ebd b035 95bc

fc2.bias f4 [64]
0.09228619 0.12583598 -0.054876745 -0.07447239 -0.100361355 -0.07318089 0.011620125 0.093279086
-0.047218073 -0.07674559 -0.0019361109 0.014470927 0.12399693 -0.10719987 -0.003772689 0.059643205
-0.032574024 0.11308121 -0.10588257 -0.062163465 0.025227034 -0.10352018 -0.03519067 -0.08234806
-0.11607027 0.089012526 0.089596555 0.015958121 0.09347113 -0.005458366 -0.015493896 0.02603134
0.08166846 0.08129558 -0.01568447 0.034514885 -0.0367719 -0.10871027 -0.08829976 0.007039264
0.12013922 -0.07237635 -0.0759245 -0.08439227 0.0733404 0.06413406 0.1084344 0.04989654
-0.048953414 -0.11393355 -0.11436719 -0.023597041 0.08657327 0.0319272 -0.07921603 -0.007258027
0.1254572 0.04911205 -0.020958824 -0.09205079 -0.08739535 -0.11361256 -0.09659459 0.096587986
00000000: 8b00 bd3d 26db 003e 70c6 60bd fb84 98bd
00000010: 418a cdbd dddf 95bd 5662 3e3c 1b09 bf3d
00000020: bd67 41bd cb2c 9dbd 1ac5 fdba 7817 6d3c
00000030: 1af2 fd3d 9b8b dbbd 383f 77bb 6f4c 743d
00000040: 576c 05bd 1f97 e73d f6d8 d8bd 1e9f 7ebd
00000050: eda8 ce3c 6302 d4bd 1824 10bd 1aa6 a8bd
00000060: 40b6 edbd 334c b63d 667e b73d 9bba 823c
00000070: cb6d bf3d 18dc b2bb 1cda 7dbc ad3f d53c
00000080: cb41 a73d 4c7e a63d b87c 80bc 7b5f 0d3d
00000090: 229e 16bd 7da3 debd 81d6 b4bd a0a9 e63b
000000a0: 8d0b f63d 0d3a 94bd 4e7e 9bbd dbd5 acbd
000000b0: 7e33 963d b858 833d db12 de3d 5060 4c3d
000000c0: 6083 48bd fe55 e9bd 5839 eabd 954e c1bc
000000d0: 544d b13d 18c6 023d 043c a2bd bed4 edbb
000000e0: da77 003e b829 493d d7b1 abbc 2085 bcbd
000000f0: 55fc b2bd b4ad e8bd 62d3 c5bd eccf c53d

fc3.weight f4 [64, 64]
-0.106222376 0.09989593 -0.11228949 0.003996075 -0.10875854 -0.070857584 -0.04785036 0.039260104
0.053803425 0.11484614 0.08385188 -0.058942217 0.10930439 0.029189192 0.16972975 -0.09374087
0.054740638 -0.093923606 -0.036856238 0.035829954 0.08538874 0.10663024 -0.019018363 -0.088684
-0.111577734 0.039294865 0.03783072 -0.056127902 -0.15135182 0.28637102 0.09379168 -0.10011467
0.028364444 0.062474772 0.13011044 0.017347215 -0.06454651 0.03785501 -0.016355576 -0.091543935
-0.12667924 -0.012425885 -0.07305129 0.008596832 0.30343196 0.1325893 -0.17491741 -0.17875116
0.063306645 -0.06261733 0.12495064 -0.06280201 -0.22169372 -0.06562825 0.09178108 -0.2235915
-0.010846503 0.008383681 -0.12463087 0.056268197 0.05149804 -0.106316954 0.04849234 0.04444063
0.11180942 -0.13406059 -0.052005902 0.110378735 0.047432203 -0.033848833 0.010832602 0.11539559
-0.12863235 -0.041628484 -0.082907885 0.10034806 0.06274343 -0.084306955 -0.12914063 -0.03573405
0.19218788 -0.10379157 -0.011148765 -0.029611053 0.016387142 -0.15376437 -0.055519056 0.14367856
-0.1303328 0.076059416 -0.09900378 -0.02366606 0.098107636 -0.07862999 0.005091666 0.107744016
-0.18285747 -0.12293098 0.062927 0.040583774 0.08065124 -0.0039855917 0.03508 0.11479189
-0.03673054 0.08446235 -0.1084237 -0.026323428 -0.024794698 -0.065016314 0.030703783 -0.060516797
-0.037251234 0.119485006 -0.044578165 0.13731846 0.040174853 -0.062935226 -0.040645283 -0.13049601
0.10282951 -0.02237309 0.019063296 0.03673905 -0.065399855 -0.02886345 0.092897624 0.10729031
0.06455829 0.124966085 -0.106609136 -0.108886056 0.11995895 -0.051340368 0.121292315 -0.07340516
0.038098555 0.059688132 -0.09253348 0.13466069 0.08310215 -0.076986395 0.03763487 0.07244643
-0.003032569 0.096601926 0.055963486 0.0949117 -0.11641057 0.22352572 -0.14296 0.11913183
0.09365382 -0.048516314 -0.04508348 -0.062499873 0.0019833718 0.17029892 0.07560283 0.14680141
-0.052641578 -0.021762397 0.13785283 -0.0981632 0.2354919 -0.016720347 -0.08329973 0.035559103
0.14072476 -0.20469822 -0.08319787 -0.071802355 -0.011098883 -0.008822392 -0.095330805 -0.02469813
-0.04176685 -0.07713665 0.1634271 -0.10701823 0.16361116 -0.14398153 -0.063791744 0.08987757
0.18719085 -0.037268255 0.09296163 -0.05722713 -0.08520128 0.13325635 -0.11498236 -0.0075096404
0.02733691 -0.07623472 0.034082055 0.019167978 0.12551264 -0.024217641 -0.027453018 -0.1440909
0.029738741 0.16417722 -0.088295735 -0.13245408 0.094469205 -0.026213843 0.015279333 -0.030864263
0.13380313 -0.1536565 -0.02571508 0.016848955 0.16677462 0.004068644 -0.07055199 -0.11386564
0.14016499 -0.18053944 -0.04035872 0.003541829 -0.121145286 0.008284889 0.17572717 -0.088113174
-0.13174202 0.009175165 -0.0016023137 0.09030536 0.1061053 0.083411366 0.095584884 -0.14621462
0.1419758 -0.056936156 -0.13962983 0.13713537 0.061049927 -0.0033666259 0.1529466 -0.034495737
0.06476071 0.097944446 0.0074154157 0.03768284 0.13585635 -0.051001906 0.0079575535 0.038637694
-0.0691736 -0.122822724 0.02672674 -0.14399436 0.040919777 0.051320992 -0.16706938 0.025634853
00000000: 1e8b d9bd 3d96 cc3d 08f8 e5bd 82f1 823b
00000010: ccbc debd c81d 91bd bdfe 43bd 34cf 203d
00000020: fb60 5c3d 7434 eb3d 89ba ab3d 656d 71bd
00000030: fbda df3d 2c1e ef3c a3cd 2d3e 37fb bfbd
00000040: b837 603d 055b c0bd 91f6 16bd 6ec2 123d
00000050: 4be0 ae3d f560 da3d 66cc 9bbc f59f b5bd
00000060: de82 e4bd a7f3 203d 63f4 1a3d 5fe6 65bd
00000070: f9fb 1abe 399f 923e da15 c03d ec08 cdbd
00000080: 8d5c e83c 8ce5 7f3d ac3b 053e bf1b 8e3c
00000090: f630 84bd db0d 1b3d 21fc 85bc 637b bbbd
000000a0: 34b8 01be f095 4bbc ea9b 95bd bad9 0c3c
000000b0: 6f5b 9b3e 7dc5 073e 8d1d 33be 8b0a 37be
000000c0: eaa6 813d 843d 80bd 1fe6 ff3d 579e 80bd
000000d0: ae03 63be 1b68 86bd b8f7 bb3d 2cf5 64be
000000e0: 88b5 31bc b55b 093c 783e ffbd 7b79 663d
000000f0: 9cef 523d b4bc d9bd e79f 463d 6107 363d
00000100: 56fc e43d 2e47 09be 2404 55bd 3f0e e23d
00000110: 4548 423d 13a5 0abd 3a7b 313c 8654 ec3d
00000120: 33b8 03be a182 2abd 9ccb a9bd 4983 cd3d
00000130: a17f 803d 20a9 acbd 713d 04be de5d 12bd
00000140: e6cc 443e ad90 d4bd 4fa9 36bc e192 f2bc
00000150: 543e 863c 6874 1dbe f367 63bd 7920 133e
00000160: f675 05be 0ac5 9b3d 7ec2 cabd 53df c1bc
00000170: a8ec c83d c308 a1bd fdd7 a63b e5a8 dc3d
00000180: fd3e 3bbe 3dc3 fbbd dfdf 803d 2c3b 263d
00000190: 7a2c a53d 9199 82bb 0cb0 0f3d 0318 eb3d
000001a0: c372 16bd 99fa ac3d 3f0d debd 3ba4 d7bc
000001b0: 401e cbbc 4627 85bd 8086 fb3c 76e0 77bd
000001c0: c094 18bd 8eb4 f43d 9897 36bd 369d 0c3e
000001d0: 638e 243d 2fe4 80bd ab7b 26bd bfa0 05be
000001e0: 4798 d23d c547 b7bc a12a 9c3c b07b 163d
000001f0: 5cf0 85bd 0b73 ecbc 1c41 be3d 06bb db3d
00000200: 2337 843d 38ee ff3d e455 dabd a7ff debd
00000210: 0aad f53d 474a 52bd 1b68 f83d 7255 96bd
00000220: 3b0d 1c3d 8b7b 743d 3182 bdbd 7ee4 093e
00000230: 7631 aa3d 0bab 9dbd 0527 1a3d cb5e 943d
00000240: 11be 46bb 3bd7 c53d f839 653d 1161 c23d
00000250: aa68 eebd ede3 643e 1b64 12be 64fb f33d
00000260: 93cd bf3d 0bb9 46bd 75a9 38bd deff 7fbd
00000270: 75fb 013b d762 2e3e a8d5 9a3d 1c53 163e
00000280: b29e 57bd 0e47 b2bc 4b29 0d3e ca09 c9bd
00000290: ca24 713e 1cf9 88bc 0d99 aabd 6ca6 113d
000002a0: 271a 103e 699c 51be a563 aabd 1d0d 93bd
000002b0: 17d8 35bc cb8b 10bc cc3c c3bd bc53 cabc
000002c0: b713 2bbd d2f9 9dbd 6f59 273e 602c dbbd
000002d0: af89 273e e56f 13be 3fa5 82bd bb11 b83d
000002e0: f5ae 3f3e 99a6 18bd ab62 be3d ff66 6abd
000002f0: 027e aebd 5a74 083e df7b ebbd 6e13 f6bb
00000300: a8f1 df3c f320 9cbd a099 0b3d 2a06 9d3c
00000310: 6386 003e 1364 c6bc 27e5 e0bc 918c 13be
00000320: a99e f33c 131e 283e 65d4 b4bd 0ba2 07be
00000330: 1279 c13d 6abe d6bc 2b56 7a3c 0dd7 fcbc
00000340: b003 093e 2158 1dbe 6ea8 d2bc d206 8a3c
00000350: f7c6 2a3e 4252 853b 907d 90bd 6332 e9bd
00000360: 6987 0f3e 55df 38be 2f4f 25bd 081e 683b
00000370: 051b f8bd 58bd 073c d3f1 333e ae74 b4bd
00000380: 61e7 06be 6e53 163c ba04 d2ba 04f2 b83d
00000390: bc4d d93d 94d3 aa3d 02c2 c33d 49b9 15be
000003a0: 1b62 113e e335 69bd 1ffb 0ebe 376d 0c3e
000003b0: 7d0f 7a3d 9ca2 5cbb 099e 1c3e 674b 0dbd
000003c0: 43a1 843d 1997 c83d 04fd f23b 5259 1a3d
000003d0: ed1d 0b3e 60e7 50bd 6660 023c 8f42 1e3d
000003e0: e3aa 8dbd 7b8a fbbd 09f2 da3c 4273 13be
000003f0: 7f9b 273d f635 523d 3c14 2bbe 2f00 d23c

fc3.bias f4 [64]
0.058849107 0.017064666 0.061540958 -0.049290266 0.05827894 -0.07966487 0.007820739 0.06541249
0.012271418 0.05612438 0.08327343 0.11065081 -0.00029331134 -0.07930359 0.043235406 -0.02049443
-0.10656291 0.05109895 0.09705045 -0.07393465 -0.029215723 -0.027160434 -0.015346018 -0.028442841
-0.050142355 0.08870429 0.080826655 0.029996447 0.030002587 0.08924721 0.046948127 -0.06483884
-0.053528663 -0.05123619 0.016366934 -0.08467805 -0.05766428 -0.03083876 -0.04533597 0.06525934
0.022772508 0.09376844 -0.06883503 0.071601875 -0.09540946 -0.0019524745 -0.09411743 0.09788582
0.06363153 0.10429579 0.03958794 -0.11313348 0.013165029 0.090114646 -0.09967075 -0.1222617
-0.016838228 -0.08160408 0.10558551 -0.12065076 0.1037928 0.015978701 0.021380264 0.006878549
00000000: c30b 713d 33cb 8b3c 5f12 7c3d 97e4 49bd
00000010: e6b5 6e3d 5627 a3bd 8f22 003c fcf6 853d
00000020: 0f0e 493c aee2 653d 438b aa3d e49c e23d
00000030: 95c7 99b9 ec69 a2bd 9c17 313d efe3 a7bc
00000040: a83d dabd 224d 513d 63c2 c63d 0d6b 97bd
00000050: d055 efbc 8f7f debc dd6d 7bbc f600 e9bc
00000060: 1262 4dbd 98aa b53d 7288 a53d 1cbb f53c
00000070: fcc7 f53c 3ec7 b63d ae4c 403d 3aca 84bd
00000080: df40 5bbd 0add 51bd f313 863c af6b adbd
00000090: 6131 6cbd 91a1 fcbc 36b2 39bd b0a6 853d
000000a0: 698d ba3c ab09 c03d 61f9 8cbd 01a4 923d
000000b0: 0966 c3bd 2cea ffba a4c0 c0bd 5c78 c83d
000000c0: 3f51 823d 0899 d53d f726 223d 87b2 e7bd
000000d0: 22b2 573c 078e b83d 2e20 ccbd 5864 fabd
000000e0: 53f0 89bc 0a20 a7bd 373d d83d bf17 f7bd
000000f0: 5291 d43d c4e5 823c aa25 af3c 7365 e13b

fc4.weight f4 [27, 64]
-0.14792924 0.112891436 -0.098361485 -0.122274205 0.20311081 0.023123821 0.12105203 -0.16256447
0.11411021 0.09508929 0.005473261 -0.093997695 0.030801699 -0.14939259 -0.23387586 -0.036387604
0.02883552 -0.19195949 -0.19448785 -0.13433819 0.086632594 -0.093121015 -0.035316594 0.06495836
0.18484353 0.0359026 -0.07074317 0.078851804 0.110866584 -0.074522905 0.041007597 0.061320584
0.058638766 0.11020395 0.0098208515 0.04415373 0.056516033 0.25090486 0.14838746 0.17866051
0.053253558 0.21236339 0.1591457 0.07505715 0.0070079397 0.0535099 -0.03171456 0.014957414
0.056164477 -0.14188355 0.1197794 -0.12212007 0.14603263 0.11486245 0.033182424 -0.08030513
0.09029305 0.011991215 -0.24618539 -0.11715436 0.17719325 -0.21179835 0.010025973 -0.10985158
-0.23699017 0.053298388 0.0677996 -0.27461 -0.07614283 0.092991635 0.09530206 0.06991093
-0.09020534 -0.10446522 -0.017453687 0.07447698 0.047342822 -0.048251163 0.13450034 0.05599183
-0.078037485 0.25522068 0.041270453 -0.09338466 -0.030794434 0.17199802 -0.14726132 0.021415487
-0.18216793 -0.12231796 0.081975326 0.029907849 -0.08566671 -0.11841888 0.04617067 -0.18880208
-0.10933583 0.17429072 0.021961961 0.066050224 0.06359916 0.03812365 -0.16800644 -0.021497874
0.031966697 0.0377788 0.14746308 0.11227865 -0.007391006 0.054257587 -0.1460724 0.007963893
0.14386351 -0.037700858 0.12582645 -0.027985225 -0.037220124 0.04300549 -0.058977086 -0.083714284
0.019343505 -0.050117522 0.17609449 0.008753713 -0.100016475 -0.09658527 0.09265624 0.13212901
-0.09436469 0.06645753 -0.01487514 0.0077305767 0.09120391 0.09692051 -0.042272415 0.21679603
-0.13751855 -0.010394395 0.024995504 -0.11512584 0.10262197 0.1435441 0.19983089 0.048170842
0.06705846 -0.07195694 -0.043113943 0.04653389 0.04722335 0.05608774 0.0078332145 0.14146988
0.06600704 0.056488894 -0.17608604 0.0050454657 0.08712441 0.04913956 -0.13317981 0.024384627
-0.022338403 -0.030507589 0.073348805 -0.0024826357 -0.09128344 0.15618482 -0.09399083 -0.023492493
-0.011928372 -0.0825434 -0.020764813 -0.14176445 0.114682436 0.00835805 -0.06519376 -0.2339126
-0.12420959 -0.021897588 0.09516485 -0.018069878 0.089840725 -0.018513333 0.030573133 0.022545407
-0.06381221 -0.030973978 0.11198502 -0.07608791 0.103131935 -0.06791972 0.047486313 0.0022890756
-0.14286925 -0.121613316 0.031767517 0.0094547 0.017088667 0.023817433 0.062083308 -0.036913194
-0.09463773 -0.03680801 0.021842644 0.26442745 -0.05376347 0.19840793 -0.14811599 -0.15459725
-0.1328917 -0.06549349 0.111816235 0.0035564979 -0.22398181 0.23354131 0.10288744 -0.05564976
-0.035528474 -0.09962627 -0.022061184 0.09086711 -0.0640206 0.01848737 0.112766445 -0.0663865
-0.13181615 -0.1554873 -0.08100909 -0.07560489 0.1342297 -0.12311373 0.13117394 0.017400654
0.11354992 0.08409255 -0.12953588 0.036340803 0.022271175 0.1279637 -0.03188802 0.090576954
-0.07796399 0.030000685 -0.0058789677 -0.14753295 0.078115016 0.16749509 0.12878284 0.050744124
0.21013482 -0.14819656 -0.1419788 0.21990292 0.20061316 0.14305443 -0.059981473 -0.03517725
00000000: c37a 17be a033 e73d bf71 c9bd e66a fabd
00000010: 48fc 4f3e 2b6e bd3c 20ea f73d 4d77 26be
00000020: 9db2 e93d 2cbe c23d 0a59 b33b dd81 c0bd
00000030: d853 fc3c 5ffa 18be 277d 6fbe 2b0b 15bd
00000040: 7838 ec3c 0791 44be d327 47be f38f 09be
00000050: 6e6c b13d 3bb6 bebd 22a8 10bd e308 853d
00000060: 9f47 3d3e 9b0e 133d cce1 90bd 0e7d a13d
00000070: 050e e33d 779f 98bd 95f7 273d 4b2b 7b3d
00000080: 342f 703d 9cb2 e13d a3e7 203c 8bda 343d
00000090: 5b7d 673d 9a76 803e e2f2 173e c8f2 363e
000000a0: 6720 5a3d ca75 593e 17f7 223e 90b7 993d
000000b0: dca2 e53b 322d 5b3d 20e7 01bd f10f 753c
000000c0: b90c 663d ec49 11be e74e f53d 161a fabd
000000d0: 9489 153e 013d eb3d 4bea 073d 0477 a4bd
000000e0: 90eb b83d cd76 443c 0618 7cbe a0ee efbd
000000f0: 2672 353e abe1 58be fb43 243c ddf9 e0bd
00000100: 8dad 72be 694f 5a3d 84da 8a3d af99 8cbe
00000110: c6f0 9bbd 6672 be3d ba2d c33d 762d 8f3d
00000120: 94bd b8bd dcf1 d5bd 09fb 8ebc 6387 983d
00000130: 8cea 413d 03a3 45bd 75ba 093e b057 653d
00000140: 1ed2 9fbd 49ac 823e 350b 293d 7540 bfbd
00000150: 9c44 fcbc 4020 303e accb 16be 886f af3c
00000160: 3b8a 3abe d781 fabd aee2 a73d 4e01 f53c
00000170: 0772 afbd 9985 f2bd 751d 3d3d 5555 41be
00000180: 77eb dfbd 4479 323e 92e9 b33c 5745 873d
00000190: 4740 823d 8b27 1c3d e109 2cbe 4f1c b0bc
000001a0: 83ef 023d f1bd 1a3d 9000 173e 59f2 e53d
000001b0: 4130 f2bb 343d 5e3d 0194 15be fd7a 023c
000001c0: f550 133e 376c 1abd a6d8 003e 4541 e5bc
000001d0: 2174 18bd 8626 303d f591 71bd 6572 abbd
000001e0: 4576 9e3c 0848 4dbd 1d52 343e bc6b 0f3c
000001f0: 70d5 ccbd 7fce c5bd 8ec2 bd3d d44c 073e
00000200: 4642 c1bd e31a 883d dcb6 73bc c750 fd3b
00000210: 1ec9 ba3d 437e c63d d725 2dbd c7ff 5d3e
00000220: aad1 0cbe 414d 2abc 5fc3 cc3c 19c7 ebbd
00000230: 782b d23d 39fd 123e 78a0 4c3e ca4e 453d
00000240: f255 893d 295e 93bd 3f98 30bd 529a 3e3d
00000250: 456d 413d 42bc 653d e256 003c 7bdd 103e
00000260: b32e 873d e660 673d e64f 34be 6f54 a53b
00000270: 486e b23d 9046 493d 4a60 08be 45c2 c73c
00000280: 07ff b6bc 0deb f9bc e637 963d b7b3 22bb
00000290: d0f2 babd eaee 1f3e 447e c0bd 5473 c0bc
000002a0: 386f 43bc 840c a9bd f81a aabc b32a 11be
000002b0: a0de ea3d 34f0 083c 4e84 85bd c986 6fbe
000002c0: 9961 febd 9262 b3bc cae5 c23d 4807 94bc
000002d0: 6afe b73d 46a9 97bc 8274 fa3c 25b1 b83c
000002e0: faaf 82bd 24bd fdbc 6758 e53d fad3 9bbd
000002f0: d636 d33d 7f19 8bbd 0281 423d 5104 163b
00000300: 514c 12be 6710 f9bd a81e 023d e3e7 1a3c
00000310: 88fd 8b3c c71c c33c 114b 7e3d 4a32 17bd
00000320: 6dd1 c1bd ffc3 16bd 58ef b23c 0963 873e
00000330: 1637 5cbd 732b 4b3e b8ab 17be be4e 1ebe
00000340: c314 08be 7321 86bd e9ff e43d 2214 693b
00000350: 7d5b 65be 7425 6f3e a6b6 d23d 01f1 63bd
00000360: 4e86 11bd dc08 ccbd a8b9 b4bc 8918 ba3d
00000370: 3b1d 83bd d372 973c 18f2 e63d a5f5 87bd
00000380: d0fa 06be 1038 1fbe 18e8 a5bd bdd6 9abd
00000390: 8373 093e 0d23 fcbd 7652 063e d18b 8e3c
000003a0: dc8c e83d b738 ac3d 0ea5 04be 18da 143d
000003b0: 0a72 b63c eb08 033e 039d 02bd 6980 b93d
000003c0: 96ab 9fbd ffc3 f53c 5ba4 c0bb e112 17be
000003d0: c4fa 9f3d d583 2b3e a6df 033e 12d9 4f3d
000003e0: 952d 573e d7c0 17be e462 11be 3b2e 613e
000003f0: 896d 4d3e dc7c 123e 22af 75bd 0516 10bd

fc4.bias f4 [27]
0.058109615 -0.059821542 0.016316788 0.04907089 -0.0596335 -0.09426862 0.041940037 -0.030225713
0.05208016 -0.06224203 -0.03241313 0.028458573 -0.07253263 0.062169276 0.01113294 0.036396082
0.06409417 0.06021282 -0.09249166 0.0034312897 0.07359409 0.08041169 -0.10800339 -0.013757106
0.13425945 0.052452553 -0.07059973
00000000: 5904 6e3d 6f07 75bd c9aa 853c 8ffe 483d
00000010: 4242 74bd e80f c1bd 51c9 2b3d ea9b f7bc
00000020: 0152 553d 80f1 7ebd a1c3 04bd f421 e93c
00000030: fd8b 94bd 36a5 7e3d ef66 363c 0f14 153d
00000040: ce43 833d b8a1 763d 446c bdbd 7ddf 603b
00000050: 80b8 963d e2ae a43d e230 ddbd 7c65 61bc
00000060: 4f7b 093e 7dd8 563d 9796 90bd
