src/cached_data/trained_models/model_20_30.pt (torch_old, 78702 bytes, 8 tensors)

fc1.weight f4 [64, 144]
000000 41 0f a2 bd a3 47 21 bd 00 0d 61 bd 50 a9 83 bd
       -0.07913066 -0.03937496 -0.05494404 -0.06428778
000010 80 ae 91 bd e9 bd 4f 3b 1b 19 24 3c 5b d0 a6 3d
       -0.07113361 0.0031698889 0.010015751 0.081452094
000020 f8 30 f8 3b 9f f7 92 bd 6e dd c8 bc 2e f0 cd bc
       0.007574197 -0.07176136 -0.024519648 -0.02513894
000030 7a 54 80 3d 09 01 35 3d 73 03 99 bd 3b 4c ce 3c
       0.062661126 0.04419044 -0.07471361 0.025182834
000040 9b 11 72 3d 25 76 86 bd 3f 65 d9 3c 5c 00 ee 3c
       0.05909882 -0.06565503 0.026537536 0.029052906
000050 10 73 12 bd fd d3 72 bd 57 80 dd bc b4 af 86 3c
       -0.035754263 -0.0592842 -0.027038736 0.016441204
000060 7e 22 13 bd 97 27 95 3c 7c 29 9f bd b4 c7 2e bd
       -0.035921566 0.018207354 -0.077715844 -0.04267092
000070 81 db 51 bd 8b 13 62 bd da 0a 87 3d 0a 6c 08 bd
       -0.051234726 -0.05519442 0.06593867 -0.03330616
000080 9f b4 5d bd f9 2b 70 bd 69 92 8c 3d 53 2a 25 bc
       -0.05412733 -0.058635686 0.06863863 -0.010080892
000090 4b 29 0a bd 78 17 b2 bb 3e 8c b2 bc 15 5c 87 bd
       -0.033730786 -0.0054349266 -0.021795388 -0.0660936
0000a0 ae 40 08 3d b6 7b 42 bd 85 ff 98 bd 7a 19 07 bd
       0.03326481 -0.04748126 -0.074706115 -0.03298328
0000b0 0c be 8c bd f5 7c 25 bd 61 1a ff bc 8b c1 23 bc
       -0.06872186 -0.04040237 -0.031140508 -0.009994875
0000c0 d6 2d 73 bd 57 93 99 bd ad 7b 8a 3d 6c 68 56 bd
       -0.059369884 -0.07498806 0.067618705 -0.05234568
0000d0 95 9c 52 bd 8c ef ce 3c 42 54 be bc 43 c5 c6 bb
       -0.05141886 0.02526071 -0.023233537 -0.006065996
0000e0 da 1c 8b 3d 2b 3f b1 3d 41 ef ab 3d 17 57 9d 3d
       0.067926124 0.086546265 0.083952434 0.07682627
0000f0 db 77 b0 3d f1 f2 33 3d 6e 96 bf 3d 43 e7 09 3d
       0.086166106 0.04393286 0.09354864 0.033667814
000100 3f 16 91 bc b4 a2 95 bd fc 5e 8c 3d c6 b1 cb bc
       -0.017710803 -0.07306424 0.06854054 -0.024865042
000110 c3 08 a5 bd e9 14 a8 bd 00 f2 8b 3d 29 09 89 3d
       -0.08058312 -0.08207113 0.06833267 0.066912
000120 e2 4a 40 bd d1 3d 66 3d 34 5f dd 3c 2e 3b 81 bd
       -0.046946414 0.056211296 0.027022935 -0.06310116
000130 a8 96 50 bd 2f 13 dc bc 9b 8f 04 3d 6a dc 58 bd
       -0.050924927 -0.026864616 0.032363515 -0.05294458
000140 d6 4c 68 3d ed 45 4d bc 71 63 a7 3d 71 43 98 3d
       0.0567139 -0.012528879 0.08173264 0.074347384
000150 0b c5 82 bd a6 25 79 bd b8 ea 98 3d a9 63 d1 bc
       -0.06385239 -0.06082692 0.07466644 -0.025560217
000160 6e 5e 2a 3c d9 74 14 3d 3c e0 c3 bc 5e 42 9a bb
       0.01039849 0.036244247 -0.023910634 -0.0047076186
000170 b2 26 88 3d fb a5 42 bd 91 1a 8d 3d 0d e8 03 bd
       0.066480055 -0.047521573 0.06889833 -0.032203723
000180 5b 3a af bd aa 80 38 bc 02 bc 29 bd 85 b2 9b 3d
       -0.08556052 -0.011261145 -0.041439064 0.07602409
000190 26 36 7c bd 73 ef 3d 3c 0f 0e ac bd 75 18 bd bc
       -0.061575077 0.011592734 -0.08401119 -0.023082951
0001a0 1a 76 c4 3c 0c 27 64 bd 4a f6 9b bd 88 4c 0c bd
       0.023982096 -0.0557013 -0.07615335 -0.034252673
0001b0 16 42 0c bc 99 f4 83 3d 65 a4 6c 3d 60 77 23 bc
       -0.008560678 0.06443138 0.057773966 -0.009977192
0001c0 93 6f 07 bd b4 ea 0b 3c e4 74 33 3d 92 17 a1 bd
       -0.03306539 0.008539844 0.043812647 -0.07865824
0001d0 50 92 38 bd c0 3d 70 ba ec a6 3e bb 3b f7 43 bd
       -0.04506141 -0.0009164475 -0.0029091192 -0.0478432
0001e0 46 c3 aa 3d 5e ed 43 bc eb 87 7d bd 63 5c f8 bc
       0.08338027 -0.011958448 -0.0618972 -0.03031749
0001f0 a9 c6 1e bc 11 3d 0d bc c3 6f 2c bd 12 9c 84 ba
       -0.009690919 -0.008620516 -0.04209877 -0.0010117313
000200 8e 4a 19 bc 78 f9 88 3d 06 ec 77 bd 6d 47 52 3c
       -0.009356154 0.066882074 -0.060527824 0.012834412
000210 f7 74 bd bd ef df ab 3d 19 c5 51 3d 0c 9a 40 bd
       -0.09250825 0.08392321 0.051213358 -0.04702191
000220 e0 65 3f bd cd 54 6f bc 2b 86 4f 3d 56 83 d1 3c
       -0.046728015 -0.01460762 0.050665062 0.025575321
000230 e4 34 86 bd 3e b2 7f bd a4 cb 59 3d 62 5b 98 3d
       -0.06553057 -0.062425844 0.053172722 0.07439305
000240 91 8f 38 bd 69 98 a2 3a 5b 31 52 3c ee d6 d1 bc
       -0.04505879 0.0012405041 0.01282915 -0.025615182
000250 66 88 7a bd c9 13 71 3d c1 aa 97 bd 12 79 24 3d
       -0.061165236 0.05885676 -0.074056156 0.040154524
000260 ad c1 a5 3d 60 99 75 bd 01 67 54 3b b4 49 ae bb
       0.08093581 -0.059960723 0.0032410028 -0.0053188447
000270 6c a6 30 bc f5 87 8c bc 20 7d b1 bd 0f e8 7f 3d
       -0.010781866 -0.017154673 -0.08666444 0.062477168
000280 44 09 a4 bd 88 e5 8b 3d e8 24 28 3c b9 53 44 3b
       -0.0800958 0.06830889 0.010262705 0.002995713
000290 83 14 92 3c b0 33 99 3b d4 d1 26 bc 7a 40 3b 3d
       0.017832046 0.004675351 -0.010181863 0.045715787
0002a0 e2 31 6d 3c 0e 79 5f bd 89 d7 17 bd 40 84 87 3c
       0.014477225 -0.054558806 -0.037070785 0.016542554
0002b0 e7 a6 5a 3d 9f f9 3a bc 5c 4c 92 3d 6d 1d f3 bc
       0.053381827 -0.011412053 0.07143471 -0.029677117
0002c0 cd f5 9b 3d 90 bf a2 3d 5b 3a 82 bd 5a 55 6b bd
       0.07615242 0.07946694 -0.06358787 -0.057454444
0002d0 9f c4 97 bd fa 73 70 bd b4 31 72 3c 20 6a 9a bd
       -0.07410549 -0.058704354 0.014782358 -0.07539773
0002e0 53 eb a7 ba 31 f4 a6 3d 05 9d 79 bd a5 53 ce 3c
       -0.0012811221 0.081520446 -0.06094076 0.02518637
0002f0 53 6f 97 3d b6 ee 88 3d 6d ff 96 bc 07 85 4f 3d
       0.0739428 0.066861555 -0.018432343 0.050663974
000300 a7 62 11 3c 9e 04 49 bd 78 ff 76 bc b5 c5 27 3d
       0.008873618 -0.04907667 -0.015075557 0.040960032
000310 96 31 86 3c 38 21 27 3d 3b 37 52 bc e1 6f 4a bd
       0.016381066 0.040803164 -0.012830551 -0.049423102
000320 44 fd 40 3d b0 18 19 3d 8d 65 d3 3b 0e 4c 9f bd
       0.047116533 0.03737706 0.006451315 -0.07778178
000330 93 2c ce 3c 97 5f 5e bd 7b e9 27 bd 87 b0 24 3d
       0.025167739 -0.05429038 -0.04099415 0.040207412
000340 3c 0b 19 bc 07 6a 5a 3c 6f 25 88 bc 45 07 d4 bc
       -0.009341057 0.013330943 -0.016619412 -0.025882373
000350 58 e6 8f bd bc 75 54 3d 1a 15 80 bd 96 73 a8 3c
       -0.070263565 0.051870093 -0.06254025 0.020562928
000360 ff 0a 0b bd 8c 33 6b bd 82 f8 81 bd 71 8b 90 3c
       -0.033946034 -0.057422206 -0.06346227 0.017644616
000370 8c b9 4c bc f7 0b 8d bc cb d2 7d 3d 75 57 bb bc
       -0.01249541 -0.01721762 0.061968606 -0.022868851
000380 7a cb e3 3c a1 00 8f 3d b8 98 a4 bc ec 3c 1d bd
       0.027806986 0.06982542 -0.020092353 -0.038388178
000390 2d aa b8 bb 44 b8 47 3d 1b fa 99 bd 9d 73 3d bd
       -0.005635521 0.048759714 -0.07518407 -0.046252836
0003a0 bb 13 24 3d ac 06 a5 bd dc ee 05 3d 90 c3 2a 3d
       0.04005788 -0.08057913 0.032698497 0.04169041
0003b0 00 da 9e 3d cb 76 8e 3d 3d 97 bc 3d da 47 9f bb
       0.07756424 0.06956252 0.09208534 -0.0048608603
0003c0 23 cc 02 3d 5b 3c cb 3c 5a 15 bd bc ad fa 9e bd
       0.03193296 0.024809053 -0.02308147 -0.07762656
0003d0 59 43 5e 3b 97 5d 19 3b 77 96 13 3d 30 19 5c bd
       0.0033914654 0.002340173 0.036032166 -0.05373496
0003e0 96 78 14 bd 0c 03 1e 3d 58 27 13 3d d4 9e 52 3d
       -0.036247812 0.038577124 0.035926193 0.051421
0003f0 a3 46 17 3c c0 b3 c3 bc 3f 96 40 3a cb e3 5a bc
       0.00923315 -0.023889422 0.0007346607 -0.013359974

fc1.bias f4 [64]
000000 a0 3b 62 3c 51 fd 2c 3d 96 de 06 3d 83 76 48 3d
       0.013808161 0.04223377 0.03292712 0.048941147
000010 96 dd a3 3c aa 0a 17 3d b1 ef 91 3d 57 ec 79 bd
       0.020003121 0.036875404 0.07125796 -0.061016407
000020 62 bc 36 bd 79 86 04 3d 08 76 fb 3c 12 f0 5b 3d
       -0.04461325 0.032354806 0.03069593 0.053695746
000030 90 9b 3c bd 8c ac c0 bc 18 00 2a bd de b2 2a 3d
       -0.046046793 -0.023519777 -0.041503996 0.041674487
000040 8a 34 2d 3d 6f c4 9e 3d 9b 17 0d bd 83 56 a4 3d
       0.042286433 0.077523105 -0.03444634 0.08024313
000050 a8 6a 4d bd 22 6c 9c bd 39 8f b2 3c a2 f4 49 3c
       -0.050150543 -0.07637812 0.02179681 0.012326391
000060 c9 6c 4e bc 74 21 10 3d 1a b8 3f bd 9e a7 dd 3b
       -0.012599179 0.035188153 -0.046806432 0.0067643663
000070 f3 84 72 bd a3 ac a9 bb 40 17 71 3d 2d 85 56 3b
       -0.05920882 -0.0051780506 0.058860064 0.0032733188
000080 40 20 79 3d 7a ea 7f 3d 84 b3 00 3d 36 4b 7c 3d
       0.06082177 0.062479474 0.0314212 0.061595164
000090 dd e0 35 bc 49 52 9a bd 6c 10 3f 3a ac 59 61 bb
       -0.011100975 -0.07535226 0.0007288519 -0.0034385724
0000a0 26 e7 01 3d 1e a2 0c 3d 82 76 93 3a d9 c4 7c 3d
       0.03171458 0.034334294 0.0011250528 0.061711166
0000b0 3a fd a3 bc cf b8 a4 bd 86 32 9f bc b8 2c be 3b
       -0.020018209 -0.08043062 -0.019433271 0.0058036707
0000c0 5a 1e 8c bd 44 15 6c 3d a0 eb 96 3d 00 5c bd bc
       -0.068417266 0.057637468 0.07369161 -0.023115158
0000d0 d5 9f f7 3b 9d 43 0f bd 99 13 aa 3d 8e 59 a3 bd
       0.0075568953 -0.03497659 0.08304519 -0.079760656
0000e0 10 bd 83 3d 9e e9 59 bc 01 a9 13 3c 9c 0c 49 3d
       0.06432545 -0.013300328 0.009012462 0.04908429
0000f0 0a 8d dc 3b 36 a3 57 bd d5 a5 1c 3d e9 3c 61 3d
       0.0067306804 -0.052645884 0.038244087 0.05498973

fc2.weight f4 [64, 64]
000000 89 2b 27 3c c0 4c c0 bd b8 36 2f 3d 6d b3 9b 3d
       0.010203251 -0.09389639 0.042776793 0.07602582
000010 18 a5 ad 3c 68 0a 9e bb 12 55 5d 3d 18 76 69 bd
       0.021196887 -0.004823018 0.054036207 -0.05699739
000020 90 93 13 bd f5 41 09 3e 12 95 1e bd 6a 3d c9 3d
       -0.0360294 0.13404067 -0.038716383 0.09826167
000030 2f 95 28 bd f9 3d 39 3d 8b 40 ea 3d fb 33 b4 3b
       -0.041157898 0.045225117 0.11438092 0.0054993606
000040 3f 9d 23 3d 51 c5 42 bd 3b 93 ee bd d1 ff ef 3d
       0.039944883 -0.047551457 -0.11649176 0.11718715
000050 f6 06 8e bd e2 62 af bd 61 f3 9c bd 1a 41 a6 3d
       -0.069349214 -0.08563782 -0.07663608 0.08117886
000060 1b b3 11 be 70 95 a7 bd 12 5d a5 3b b9 70 1f 3d
       -0.1422848 -0.081828 0.0050464952 0.03892586
000070 1f b7 48 bd 7a d7 a2 bd 62 aa 9a 3c 2a 2e e3 3a
       -0.049002763 -0.07951255 0.018880073 0.0017332484
000080 1d 07 11 bd 94 b3 14 bd 2a 9b b5 bd d1 1e e5 bc
       -0.035407174 -0.03630407 -0.08867486 -0.027968796
000090 2e 57 71 3d ae 38 bd bd b5 6c 1f 3e 3b 46 c9 bd
       0.05892103 -0.092393264 0.15568812 -0.098278485
0000a0 12 87 e6 3d 83 74 a6 3d 3b 05 43 bd 81 66 e5 3c
       0.11256231 0.081276916 -0.04761241 0.02800298
0000b0 45 d2 03 bc 26 29 c8 bd 14 87 bf 3d b9 5f db bc
       -0.008045738 -0.097734734 0.09351936 -0.026779043
0000c0 0f e2 c2 3d 3e 00 3f bb 50 1b b9 3c ba 5c cd 3d
       0.095157735 -0.0029144431 0.022596031 0.10027452
0000d0 60 66 d6 3d 8f 45 0a 3e c6 48 0e bd 52 c3 d1 bd
       0.10468745 0.13503097 -0.03473737 -0.102423325
0000e0 b4 d3 09 be 9d a4 f1 bd 05 d1 cb 3c 4b 1b ed 3d
       -0.13459665 -0.117989756 0.024879942 0.11577471
0000f0 a8 a5 e4 3d c7 03 d7 3d 07 43 c7 3d 17 1a 45 bd
       0.11164409 0.10498767 0.09729581 -0.048120584
000100 f8 25 69 bd c2 72 bc bd 20 8b c9 bd 44 c5 07 3e
       -0.056920975 -0.09201576 -0.09840989 0.13258845
000110 e4 7a 9d 3d 6d 59 1e bd a4 4f 6a bd 53 95 f2 3b
       0.07689455 -0.0386595 -0.057204857 0.0074030547
000120 84 92 29 3d 19 0b 62 3c 00 5d c7 3d 49 15 41 3d
       0.041399494 0.013796591 0.09734535 0.04713944
000130 e7 3a ef 3d ca 8d aa 3d e9 4c 80 3d f7 76 03 be
       0.116811566 0.08327825 0.062646694 -0.1283835
000140 a1 30 34 3d e8 42 f7 bd ce a0 fe 3d fb 67 a3 bc
       0.04399169 -0.12073308 0.12433015 -0.019947043
000150 e9 ad fd bd 88 44 8f bd 1a 00 30 3d 67 89 c9 3d
       -0.12386686 -0.06995493 0.042968847 0.098406605
000160 a5 72 10 3d bc de d3 3d 29 de 9e 3d 90 0a 3f 3b
       0.035265584 0.103452176 0.077572174 0.0029150583
000170 97 35 a7 3d 46 c8 a0 bd 47 10 df 3d 87 c1 4c 3d
       0.08164518 -0.07850699 0.108917765 0.04998925
000180 37 49 d0 3d 08 3b 84 3d 9f 70 4f bd 43 3d 80 3d
       0.101702146 0.06456572 -0.050644513 0.06261685
000190 a3 39 f6 3d 94 82 37 bd 56 b8 00 bc 60 9f cf 3d
       0.12022712 -0.044802263 -0.007856449 0.1013782
0001a0 e8 a8 c4 3c a0 7c 68 bd 1f 1e 12 bd 2f 82 bb bb
       0.024006322 -0.056759477 -0.035673257 -0.005722306
0001b0 41 8a 51 3c 94 e3 7e bd db ee 58 bd b7 d5 69 3c
       0.01278931 -0.062228754 -0.052962165 0.014272145
0001c0 54 3f 7d bd 55 6f 86 3d fa 17 31 3d ed 25 a3 3d
       -0.061827973 0.06564204 0.043235756 0.07966218
0001d0 0d 99 b8 3d 5e 01 c4 ba e3 8f 93 3d c2 44 6a bd
       0.09013567 -0.0014954021 0.072051786 -0.05719448
0001e0 f1 72 9a 3d c4 e9 91 bd 97 72 cb 3d 40 57 a0 3d
       0.075414546 -0.071246654 0.09933966 0.078291416
0001f0 69 c5 4d bb 1b 0c 2d 3d 4d 29 4f 3b 20 6f f3 bd
       -0.0031398183 0.042247873 0.003161031 -0.1188643
000200 88 b8 b2 bd 4b 0a da 3d 7f ca e8 bc ab 51 bd 3d
       -0.08726603 0.106464945 -0.02841687 0.092440926
000210 0a 93 db bc 4f 87 6f 3d fe b2 cf 3d 55 5d 25 3d
       -0.026803512 0.05847865 0.10141562 0.04037221
000220 60 7d 08 bd 16 f1 29 bd c6 5f 4f 3d 13 cd f9 bd
       -0.033322692 -0.041489683 0.050628446 -0.12197318
000230 b8 f4 e3 bd 0e 2a 9c bb e4 d7 e5 3d 15 52 76 bd
       -0.11130661 -0.0047657555 0.112228185 -0.060136873
000240 39 c2 61 bd e5 2a d2 3b 3d 99 af 3c a1 00 a3 39
       -0.055116866 0.006413805 0.021435374 0.0003109025
000250 24 24 a5 3b 18 e7 f1 bb 32 53 0d 3d 36 0f 00 be
       0.0050397087 -0.007382285 0.03450317 -0.12505803
000260 a9 41 de bd 7d 61 df bd c2 36 94 3c 05 4a 00 bd
       -0.108523674 -0.10907266 0.018092517 -0.03132059
000270 9d 99 55 3d ff de 51 3d 5a 15 16 3c 8a 8b 60 bd
       0.05214845 0.051238056 0.009160364 -0.054820575
000280 22 62 81 3d 41 99 aa 3c 8b 97 1a 3b 8e 5a c7 bc
       0.063175455 0.02082503 0.0023588862 -0.024335172
000290 ae 95 b8 bc 6f 36 a5 3a e3 09 4c bd 7e e7 84 bd
       -0.02253231 0.0012604723 -0.049814116 -0.06489466
0002a0 bc 83 4c bd 32 da c0 3d 28 cc c4 3d e4 18 c7 bd
       -0.04993032 0.094166175 0.09609252 -0.097215444
0002b0 42 1b b9 3b 12 22 a5 bd 80 df 7f bc 6b bb dc bd
       0.0056490013 -0.08063139 -0.015617251 -0.10777935
0002c0 6a 6f f4 bc 6d 43 96 3d cc 5c 70 bd bf 5a 63 bd
       -0.029838283 0.07337079 -0.058682248 -0.055506464
0002d0 4a d3 3f 3d 33 ca ef 3d c9 14 be bc 6c 10 06 be
       0.04683236 0.11708488 -0.02320327 -0.13092202
0002e0 c2 d4 93 bc 19 21 9f bd b9 0b 8b 3d cd 36 85 3d
       -0.018045787 -0.07769985 0.06789345 0.06504593
0002f0 57 59 0e 3d 05 97 87 bc da d4 60 bd 61 f8 b5 bd
       0.03475317 -0.016551504 -0.05489049 -0.08885265
000300 a1 14 96 bc d0 0d bf 3d 57 3f f6 3a 02 97 96 3c
       -0.018320384 0.093288064 0.0018787187 0.018382553
000310 2b f0 35 3d 76 00 40 3d 51 30 d3 3d c0 6b d7 3c
       0.044418495 0.04687544 0.1031195 0.026296496
000320 2b 82 13 3d 4f 44 65 3d ea 1e 06 be 17 67 8f bd
       0.03601281 0.055973347 -0.1309773 -0.07002085
000330 a8 1b 31 bd 24 39 c0 bd 41 db f7 3c 90 57 47 3d
       -0.043239266 -0.09385899 0.030255916 0.04866749
000340 71 2e bb 3c cf 1f 3b bd ff 15 02 3d 71 ba c2 bd
       0.022849293 -0.045684632 0.03175926 -0.09508217
000350 45 b1 96 3d c3 1e a9 3c 17 a9 43 3d 66 bc 3b bd
       0.0735803 0.020644551 0.04776868 -0.045833968
000360 9f c0 d9 bd 49 0a c1 3c 97 33 4c bc d9 e3 c4 bd
       -0.10632443 0.023564475 -0.012463472 -0.09613771
000370 15 cb 44 3e ab ac 3f bd fd 32 49 3d d7 97 3e 3d
       0.19218095 -0.04679553 0.04912089 0.046531525
000380 0e ff a5 bd 50 a9 31 3d 6a 3d 6d bd 4f 5b c3 3d
       -0.081052884 0.04337436 -0.057919897 0.095389
000390 c6 6e fe 3c a7 07 19 bd 0b 7e 20 3d 06 af a8 3d
       0.03105868 -0.037360813 0.039182704 0.08236508
0003a0 50 c2 f1 bd 58 74 e6 bd ea bc 05 bd d8 b7 16 3d
       -0.1180464 -0.112526596 -0.032650866 0.03679642
0003b0 dc 8f 1a 3c d2 90 79 bd 5a f7 aa 3d bd 34 18 be
       0.009433713 -0.060929127 0.0834796 -0.14863868
0003c0 17 e2 df 3c 0f 22 c5 bc 2a 58 95 3d 01 ee f0 bd
       0.027329488 -0.024064092 0.072922066 -0.11764146
0003d0 5c 87 91 3d 90 f7 14 be a7 78 ef bd b4 8d 11 3d
       0.07105896 -0.14547563 -0.116929345 0.03553553
0003e0 6b df 27 bd 35 6e ed 3d 06 27 6e bd b0 45 f5 3d
       -0.040984552 0.11593286 -0.058142684 0.119761825
0003f0 f1 02 1d 3d da eb f2 bd 88 6e c8 3d 69 04 1c 3d
       0.038332883 -0.11861391 0.09786707 0.038090143

fc2.bias f4 [64]
000000 72 8b cd 3c e7 21 e7 3c b9 79 b9 3d 92 09 ba 3d
       0.025090907 0.028214408 0.0905642 0.09083857
000010 f6 08 3b 3d 69 6f ae 3c 06 6a 8c bd 2a 21 91 3d
       0.045662843 0.021293359 -0.0685616 0.07086404
000020 70 d8 d4 3d db 11 5c 3d 29 53 ed bd 4a 67 7b 3d
       0.10392845 0.053727966 -0.11588127 0.0613778
000030 4b 41 80 3d c5 52 ce 3c 59 e4 e8 3d af 85 84 bd
       0.06262454 0.025185952 0.11371679 -0.064708106
000040 c5 bd e3 bd f5 1d 5c bd 2f a0 83 bc 78 34 83 bd
       -0.1112018 -0.053739507 -0.016067592 -0.06406492
000050 17 8c 8a 3c 8a 79 62 3d eb 2d fb 3d ad 35 e3 3c
       0.016912503 0.05529169 0.122646175 0.027735556
000060 fa be ed 3d ae 59 f6 bd 95 5f 8a bd db b5 a9 bd
       0.116086915 -0.12028824 -0.06756512 -0.08286639
000070 70 3f 32 3d 91 94 13 3d c6 ab e1 bd cb e7 36 3d
       0.04351753 0.036030356 -0.11019091 0.04465465
000080 24 a4 de bd 17 6e 90 bd 81 f4 c5 bd 96 d8 41 3d
       -0.10871151 -0.07052248 -0.09665776 0.047325693
000090 3c 86 c9 3d ad 39 76 bd ce fc df bd e8 32 dc 3b
       0.09840056 -0.060113598 -0.109368905 0.0067199357
0000a0 96 41 5b bb 59 52 dc bd 1e 78 f5 bd 72 04 38 bd
       -0.003345584 -0.10757894 -0.11985801 -0.044926114
0000b0 85 87 fc bc eb 03 3f 3d 75 14 ce bd b7 54 a9 bd
       -0.03082634 0.046634596 -0.100624956 -0.08268111
0000c0 c4 de f5 bc 1f 34 e5 3d 50 2d db 3d 37 ff f7 bd
       -0.03001345 0.11191582 0.10702002 -0.12109225
0000d0 34 91 44 3d fc de 4e bd 83 6b 7e bd b1 87 41 bd
       0.04799004 -0.050505623 -0.06211425 -0.047248546
0000e0 b2 79 af 3c d2 3b 29 bd 10 6f 88 3d 1f 2c 3f bd
       0.021420334 -0.041316815 0.066618085 -0.046672937
0000f0 2e 84 db bd 16 cf 0c 3c 9a a7 25 3d 89 a3 d1 bd
       -0.10718571 0.008594295 0.04044304 -0.1023627

fc3.weight f4 [64, 64]
000000 a5 a6 af 3d a5 1e b3 3d 05 13 82 3d d5 09 27 3d
       0.08576707 0.08746079 0.06351284 0.04078086
000010 dd 9f 12 3e a2 ce 09 3d d9 91 67 3d bf f1 c9 3d
       0.14318796 0.033644326 0.056535576 0.098605625
000020 98 54 af 3d 67 b1 00 3d 82 48 b0 bc 1e 03 95 3d
       0.08561057 0.031419184 -0.02151895 0.07275985
000030 cf e4 b9 3d b5 e4 e6 bc 78 6a 5d bd 9b 82 da bd
       0.09076845 -0.028185228 -0.054056615 -0.10669442
000040 e2 6b 00 3e a9 fc 3b bc 3c a2 ae bd 70 3f 29 bd
       0.12541154 -0.011473813 -0.085270375 -0.041320264
000050 ef db f8 bb ab 9b e2 bd 6d a3 00 3e 78 40 17 3d
       -0.0075945775 -0.110648476 0.12562342 0.036926717
000060 f0 5a ae 3d 64 be 77 3d 44 a1 85 bd 71 3c 22 3e
       0.08513439 0.060484305 -0.065248996 0.15843369
000070 f6 01 78 bd 43 28 27 bd 4b c9 32 bd 8e 03 48 bd
       -0.060548745 -0.04080988 -0.043649 -0.048831515
000080 2c da e0 3d 9a 04 7d bd 1f d0 71 bd 13 d6 bc bd
       0.10979113 -0.061771967 -0.05903637 -0.09220519
000090 71 fa af 3c e4 4d e5 bd 8c a5 ef 3b ca d7 ee bd
       0.021481724 -0.11196497 0.007313436 -0.11662252
0000a0 a1 93 31 bd 00 f8 92 bd 6e 26 b4 3d 4d a3 41 bd
       -0.04335368 -0.071762085 0.087963924 -0.047274876
0000b0 37 21 0b 3d 85 67 74 bd 2b 81 a8 3d 0d fd 5c bd
       0.033967223 -0.059669036 0.08227762 -0.053952266
0000c0 f3 d7 ac bc a8 1a 98 3d 7f c0 81 3d 07 35 06 3d
       -0.021099066 0.07426959 0.06335544 0.032765415
0000d0 14 ba 04 be 10 d8 b7 3d 1f 3f 12 3e 91 1a f1 3d
       -0.12961608 0.089767575 0.14281891 0.11772645
0000e0 94 3f e3 3c 35 2d cd bd c4 de 02 bd cd e9 1a bd
       0.027740277 -0.10018388 -0.031950727 -0.037820626
0000f0 91 17 17 bd ab c8 85 bc 31 86 02 3d 62 a6 d7 bd
       -0.03688771 -0.016331038 0.031866256 -0.10529782
000100 6b 40 00 3e 22 a8 09 be 7e 3d ea 3d cc 70 20 bd
       0.12524574 -0.13443044 0.1143751 -0.03917007
000110 3a c4 80 bd 7e 80 2c 3d 72 11 72 bd 69 3d 60 3a
       -0.06287427 0.042114727 -0.05909867 0.00085540727
000120 0e d7 c7 bd 09 ad 84 bd 40 e8 a9 3d 6c 9e 3e bd
       -0.09757815 -0.06478316 0.08296251 -0.0465378
000130 30 cd 0e be 16 3d cb bd a1 db 82 3d b9 bb cd 3c
       -0.1394546 -0.099237606 0.06389547 0.025113927
000140 15 a8 e9 bd 46 86 a6 3d 5f 9b 6f 3d cc 4b b0 bd
       -0.11409012 0.081310794 0.058497783 -0.08608207
000150 04 6c 06 3d 8c 79 eb 3d ad 7a 3d 3b 7c be 62 bc
       0.032817855 0.114977926 0.0028912232 -0.01383936
000160 93 47 23 3d 1d e5 a7 3d 01 78 9d 3d ea 04 ae 3d
       0.03986318 0.08197997 0.076889046 0.08497031
000170 a7 b1 3b 3c b0 ce a2 3c 88 34 0c bd d8 ad 78 3d
       0.01145593 0.019873947 -0.034229785 0.060712665
000180 f7 8e 94 3c 71 8f 75 bb ee c8 d7 bd b3 c2 a4 bd
       0.018134577 -0.003746953 -0.10536371 -0.080449484
000190 9b b9 f9 3d 1c 0e 09 be 5f fa 08 3d 4f 63 f5 3c
       0.121936046 -0.13384289 0.033441897 0.02995458
0001a0 aa 0c 13 3d c7 e9 22 bd d0 37 c7 3d e5 48 3b 3c
       0.03590075 -0.03977373 0.09727442 0.011430954
0001b0 63 86 ac 3d 51 03 97 bd 0d 2e f5 3d 4b ea e0 3d
       0.0842407 -0.073736794 0.11971674 0.10982188
0001c0 0f c4 f6 3c be 8f bf bd c1 00 be 3d 19 61 bd bd
       0.030122785 -0.093535885 0.092774875 -0.092470355
0001d0 5b 41 04 3d a4 4a 8e 3d d3 71 2a bd b8 fa 32 bd
       0.03228889 0.0694783 -0.041612457 -0.043696135
0001e0 a4 c8 01 bd 05 6a f2 bd 49 e4 5a 3d 20 6b a2 3d
       -0.031685486 -0.11836628 0.053440366 0.07930589
0001f0 e7 7b a7 bc 54 eb bc bd 3e 4c fa bc bc 32 df 3d
       -0.020444823 -0.09224573 -0.030553933 0.10898349
000200 b6 19 55 bd 90 09 05 be d9 52 0f bd 90 b8 aa 3d
       -0.052026473 -0.12991929 -0.03499112 0.08335984
000210 cc e7 e8 39 30 18 d7 bd db 46 8c 3d 55 c1 c9 3d
       0.0004442319 -0.1050266 0.06849452 0.09851328
000220 da 6f 00 be e4 01 12 3b 5e 0f 09 bd 3c 7f e2 bd
       -0.12542668 0.002227896 -0.03346192 -0.11059424
000230 fe 2e 40 be f7 08 86 3d 06 ed 78 3c 7b 73 e1 3d
       -0.18767926 0.06544679 0.01519323 0.11008354
000240 43 49 43 3c af eb dd bd d6 d1 e8 bc a3 52 d4 3d
       0.011919322 -0.10835969 -0.02842037 0.10367324
000250 98 29 85 3c 88 c5 11 bd bc 5a 08 bd fa 3d 99 3d
       0.016255185 -0.03558877 -0.033289656 0.07482524
000260 75 80 be bd 80 b2 22 3d 59 82 6a 3c a8 b4 a6 bd
       -0.09301845 0.039721012 0.014313304 -0.08139926
000270 16 20 7b bd bc ab e6 3d ee 37 ec 3d 45 db b7 3d
       -0.061309896 0.112632245 0.11534105 0.08977369
000280 09 62 d2 bd 41 00 cd bc 0a 6f 91 bc b5 6b e3 bd
       -0.10272605 -0.025024535 -0.017753143 -0.11104528
000290 64 a6 7b 3d 5f e4 0d bd fa 8a d7 3c c0 51 54 bc
       0.06143798 -0.03464162 0.026311386 -0.012958944
0002a0 19 49 b0 3d 8e 06 c0 bb 56 5a 4e 3d e9 ef 22 be
       0.08607692 -0.0058601564 0.05037912 -0.15911831
0002b0 bc dc aa bd 3f fc 78 bd df 80 d2 3d 70 5a 8a 3d
       -0.08342883 -0.060787436 0.102784865 0.06755531
0002c0 46 d4 e1 bb fe a5 ad bd 93 37 ce 3d 1b 01 16 3e
       -0.00689176 -0.08478926 0.10069194 0.14648859
0002d0 72 15 ff bb 61 19 9d bd 78 51 59 3d d2 84 9c bd
       -0.007784539 -0.07670856 0.05305621 -0.07642521
0002e0 9e d5 a0 3d 86 c9 1a 3c 68 11 99 bb 55 e5 d7 3d
       0.07853244 0.009447461 -0.0046712644 0.105417885
0002f0 a6 51 4a bc 48 d5 0f 3d e8 ab 56 ba 96 44 f1 bd
       -0.012348568 0.03511551 -0.0008189068 -0.1178066
000300 85 f9 08 3d 27 64 18 3e 57 be a0 bc f2 20 a9 3c
       0.033441085 0.14881955 -0.019622011 0.020645592
000310 a1 c4 be 3c a8 c9 d4 3c 4b 25 ae bd 12 d1 d8 bd
       0.02328712 0.025975063 -0.08503207 -0.10586752
000320 c3 d4 fb bd b3 60 08 bc 0c 89 fe 3d 02 12 3c 3d
       -0.122964405 -0.008323836 0.12428483 0.04591561
000330 67 7c cf 3d 96 95 87 3d 0b fd 23 3c 22 5d 36 bd
       0.1013115 0.06620328 0.010009061 -0.044522412
000340 dc ad a1 bd 76 b6 16 bd cf 56 2f 3c e4 cd a1 bd
       -0.07894489 -0.036795102 0.010701849 -0.07900599
000350 41 d9 cd bd 57 bc 5e bd a3 2f e0 bc d2 8f 5e bd
       -0.100512035 -0.054378834 -0.027366465 -0.054336376
000360 a0 71 b9 bd 19 98 a7 3d 02 6b 93 bd b5 1a c5 bd
       -0.090548754 0.08183307 -0.071981445 -0.096242346
000370 e3 e2 dd bd db d8 e7 3d 42 d0 c9 bd 47 28 69 bd
       -0.10834291 0.11320659 -0.09854175 -0.056923177
000380 78 75 21 bd a5 02 86 3d bb 6b df bd 54 06 a5 3d
       -0.039418668 0.06543473 -0.1090922 0.080578476
000390 ce fb a9 bd 4a 08 80 3d ef 2b c9 3d a6 f7 bf bd
       -0.08299981 0.06251581 0.09822833 -0.09373407
0003a0 b3 bf de 3d 1d f1 dd bd a7 6b f0 bd 99 b6 bf 3d
       0.108764075 -0.10837004 -0.11739283 0.093609996
0003b0 67 27 3d 3c 1e 12 49 bc 07 78 fc bc cb 62 d5 bd
       0.011545039 -0.012272386 -0.030818952 -0.10419234
0003c0 d8 57 de 3d dc 16 9f bd 2f a4 5d 3d d8 be 31 3d
       0.108565986 -0.07768032 0.054111656 0.043394893
0003d0 a7 02 c2 3d e3 8b b1 3d 4f 9f 7d bd ba 8d 15 3a
       0.09473162 0.086692594 -0.061919507 0.0005705018
0003e0 26 2d a6 bd 2e f9 91 bd b0 dd b2 bc 83 6a b0 bd
       -0.0811408 -0.071276054 -0.021834224 -0.086140655
0003f0 fe 29 9b bd be d2 8d bc e4 dd 3f bd 3e 7c d2 3d
       -0.07576369 -0.017312404 -0.04684247 0.102776036

fc3.bias f4 [64]
000000 56 f9 7b 3d 92 82 84 bd a0 f2 d7 3d d2 e2 26 3d
       0.061517082 -0.06470217 0.10544324 0.040743656
000010 bb 74 b6 3d 2e ce 01 3e 07 ec 91 3d 28 b5 2c bd
       0.08908983 0.12676308 0.07125097 -0.04216495
000020 10 27 94 bd 53 3a cf bd bc 3d 8a bd 77 99 eb 3c
       -0.07234013 -0.10118546 -0.06750056 0.028759701
000030 87 66 a3 bd bd c3 17 bd cd 40 00 be de c6 6f 3d
       -0.0797854 -0.037051905 -0.1252472 0.058539264
000040 43 05 84 3d bc d3 d1 3c 94 67 23 3d 03 3f 55 3d
       0.06446316 0.025613658 0.0398937 0.052062046
000050 dd 92 c7 bc c4 5a f4 3c b6 9f 30 3d 7e 59 2c bd
       -0.024362022 0.029828437 0.043121062 -0.042077534
000060 8b 7c da bd b3 87 b1 3d 86 61 3e bd a9 92 dc bd
       -0.10668286 0.08668461 -0.046479724 -0.10770161
000070 f5 ab 13 b8 8b 22 e5 3c 69 47 ea bd 0c ce 0d 3d
       -3.520768e-05 0.027970573 -0.11439402 0.03462033
000080 d5 29 f2 3c 7e df a3 bd 50 ad e4 3c 4b 36 d5 bd
       0.029560963 -0.08001612 0.027914673 -0.10410746
000090 6c 92 55 bd 98 fb dc 3c d6 d5 fa bd e6 5a b7 3d
       -0.052141592 0.026975438 -0.12247817 0.089528844
0000a0 f6 39 f4 3d a6 e3 e3 3b 31 8e a5 bc a2 23 aa bd
       0.11925118 0.006954628 -0.020209404 -0.08307578
0000b0 f2 c4 f3 bd c8 82 8a 3d 3a 06 9a bd b5 d3 c8 3d
       -0.11902799 0.06763226 -0.07520719 0.09806005
0000c0 2e 01 3f bd 38 ba d0 bd fd 12 99 bd b3 22 97 bd
       -0.046631984 -0.101917684 -0.07474325 -0.07379665
0000d0 84 54 88 3c fc 7d 87 3d be c8 f8 3d 10 b8 a8 3d
       0.016641863 0.066158265 0.121476635 0.08238232
0000e0 36 e8 97 bd fe 5e 21 bd 15 5d ba 3d 8c 33 97 3d
       -0.074173376 -0.039397232 0.09099785 0.07382879
0000f0 51 20 e3 bd 71 77 ba 3d b1 30 3d 3d 9b 11 57 bd
       -0.11090148 0.09104813 0.046189014 -0.052507024

fc4.weight f4 [27, 64]
000000 a6 cd 0b 3e f5 ab c7 bd d1 96 1a 3d 92 dc 5f 3c
       0.13652667 -0.09749595 0.037741486 0.013663428
000010 4a a5 d2 bd 0b 42 2e bc e7 ca 87 3d 3e e2 44 3c
       -0.10285433 -0.010635863 0.066304974 0.012016831
000020 1a cc 1a be bf 90 5d bd ee eb 1a bd 9b 56 a6 bd
       -0.15116921 -0.05409312 -0.037822656 -0.081219874
000030 09 ae 62 bd 44 2f b7 3d f2 1a f7 bd 85 6f 33 bd
       -0.055341754 0.08944562 -0.12065686 -0.043807525
000040 c4 94 8a 3d a3 7c 98 3c 5a f7 ae 3d 2e 1d 26 3d
       0.06766656 0.018614119 0.08543272 0.04055517
000050 64 d6 bc bd bc de e1 3c a5 4c 6c 3c 16 54 97 3b
       -0.09220579 0.027572028 0.01442257 0.004618178
000060 f3 32 f5 3c 14 23 8a 3d f1 4d 86 3d f4 fc 6d bd
       0.029931521 0.06744972 0.06557835 -0.058102563
000070 ba 1b b0 bd 86 68 dc 3d 4f 70 89 3d 2c ac bd bd
       -0.085990384 0.10762124 0.06710874 -0.09261355
000080 2e f9 91 bc 65 37 47 3d 02 c1 4b 3d f4 2a 23 be
       -0.017819013 0.048636813 0.049744613 -0.15934354
000090 55 28 1b 3d 59 17 38 3d bc 85 6e 3d 73 11 06 3e
       0.03788026 0.04494414 0.058233008 0.13092594
0000a0 83 47 9f 3c 06 3c f8 bc 59 12 af 3c 78 af 81 3d
       0.01944328 -0.030302059 0.021371054 0.06332296
0000b0 37 bd 52 bd e3 b1 9d 3c bb 24 d2 bd f2 b6 88 bd
       -0.05144998 0.019249862 -0.10260912 -0.06675519
0000c0 a4 84 d8 3d 85 2d 18 bd 5f 31 13 3d e8 ee f7 bd
       0.10572174 -0.037152786 0.035935756 -0.121061146
0000d0 cf e0 11 3d 94 5b cd bd 7a 30 4d 3c 27 5f c9 bc
       0.035614785 -0.10027233 0.012523765 -0.024581505
0000e0 9d ea 9c 3d 55 3b 0d 3e 19 33 85 bc 22 3e c3 bd
       0.076619364 0.13792165 -0.016259717 -0.09533335
0000f0 1e 78 4a bd 0d 36 bc 3d 51 30 27 3d 1e 09 cc 3d
       -0.04943096 0.09189997 0.040817562 0.099626765
000100 0a 2f bb 3d ed f4 17 bd c5 df c3 3d a9 36 1f bc
       0.09139831 -0.037098814 0.09564165 -0.009717622
000110 e7 77 ab bc 8a 40 23 3d 9a 75 fc ba ff 62 c9 bd
       -0.020931197 0.03985647 -0.0019261122 -0.09833335
000120 74 3f ef bb 7d f3 9b 3d 35 78 f6 3c 01 92 b6 bc
       -0.0073012654 0.07614801 0.030086616 -0.022286417
000130 58 2f 3f bd 38 ff 72 3d 01 7d 6c 3d b1 30 f4 3d
       -0.04667601 0.059325427 0.0577364 0.1192335
000140 6c 2a c6 3c 4d bd 56 3d 94 81 f0 bc 6c 60 83 3d
       0.02419015 0.052426625 -0.029358663 0.064148754
000150 02 2a ea 3d cb c1 24 be 3c 30 e6 bd 11 08 31 3d
       0.114337936 -0.16089551 -0.11239669 0.043220583
000160 d9 50 8a bd ff a2 a8 3d 81 dc 48 bd 60 27 a7 bd
       -0.06753702 0.08234214 -0.049038414 -0.08161807
000170 93 a2 8c 3c f2 c0 92 3d e5 dc 7d 3d ec 96 9e 3d
       0.017167365 0.07165708 0.06197824 0.0774363
000180 7a d4 68 bd 01 5b 3e 3d 5b 0a 62 bd 06 d7 3c 3e
       -0.05684326 0.046473507 -0.055185657 0.184414
000190 c5 b1 8d bb 02 18 03 be 9d a0 bc bc ee 82 c0 bd
       -0.0043241703 -0.12802127 -0.023025805 -0.09399973
0001a0 11 89 ea bd ac 87 3b 3c b9 e0 ef 3b 1e 8e 1f bd
       -0.114519246 0.011445921 0.00732049 -0.038953893
0001b0 1f 75 6d bd 0a a7 55 bd e7 c1 82 3c e0 3f e3 3d
       -0.057973024 -0.052161254 0.0159616 0.110961676
0001c0 f5 aa 8e 3d 3a 84 89 bd fa dc ac 3d 22 ed c3 bd
       0.06966201 -0.06714673 0.084405854 -0.09566714
0001d0 99 b5 9c 3b 52 70 bf bd 8b b4 4f bc a4 20 bd 3d
       0.0047823903 -0.09347595 -0.012677322 0.09234741
0001e0 9b 59 76 bd bc c4 08 bc 1a 94 d3 bd ec 11 13 be
       -0.06014405 -0.008347686 -0.103309825 -0.14362305
0001f0 c0 63 94 bd da 29 b5 3d 01 1a f6 3c a9 a8 e9 bd
       -0.07245588 0.08845873 0.030041697 -0.114091225
000200 fb b2 91 3c 2a 73 32 3d b8 2f 11 be 3d 56 04 be
       0.01778554 0.04356686 -0.1417836 -0.12923522
000210 e0 e1 e6 3d 03 59 c7 bd 27 59 ac bd 17 09 0c 3d
       0.11273551 -0.097337745 -0.08415442 0.034188356
000220 79 0d 60 3d 2c 15 fc 3c 44 e2 e9 3d fd 09 16 be
       0.05470035 0.030771814 0.1142011 -0.14652248
000230 f3 02 2f bd 93 24 15 be 55 35 a8 bd 3c e2 8b 3c
       -0.042727422 -0.14564733 -0.08213297 0.01707565
000240 f5 f3 e8 bd 14 ac 55 bd 1c 1f c4 bd 55 54 3c 3d
       -0.11374656 -0.05216606 -0.09576246 0.045978863
000250 b1 f4 25 3d 2a d4 54 3d 64 27 2c bd da 87 18 3d
       0.04051656 0.051960148 -0.042029753 0.037238933
000260 4f 3a bf bc 38 46 ce bd bc 5a f7 bb 37 c5 2a bc
       -0.023343233 -0.10071987 -0.007548658 -0.010422996
000270 5d 6b 89 3d d9 f7 56 3d 41 c3 61 bc 86 1b c4 3d
       0.06709931 0.05248246 -0.013779462 0.09575562
000280 37 1b 72 bd 7f db ae 3d db 53 c6 3d 66 78 e5 3d
       -0.059107985 0.08537959 0.09683963 0.11204605
000290 6b 4b af bd 75 b9 dc 3d 39 e4 59 bb de 9b 1d 3d
       -0.08559307 0.107775606 -0.0033247604 0.038478725
0002a0 3e 0f 6a be b2 95 8b 3c 31 4b ea 3d 37 2d 24 bd
       -0.22857377 0.017039154 0.11440123 -0.040082183
0002b0 be d6 7b bd 9e c8 5b 3d aa 5e d3 3d 3f c8 94 bd
       -0.06148409 0.05365812 0.1032079 -0.072647564
0002c0 00 6f 1e 3d 4c 28 47 bb e4 c1 07 b8 d8 54 df 3d
       0.038680077 -0.003038901 -3.2367083e-05 0.109048545
0002d0 30 f6 1b bd 08 a3 92 bc 0f 47 05 3d f2 b4 65 3d
       -0.03807658 -0.017900005 0.03253847 0.056080766
0002e0 7a 24 95 bd eb 79 ab 3d 0f fa e8 bd c7 7d cc 3b
       -0.07282348 0.083728634 -0.1137582 0.0062405798
0002f0 49 4a 08 3e e9 e6 c0 3d 77 cc cf 3d c3 8b bd bb
       0.13309588 0.094190426 0.101464204 -0.005784483
000300 41 7b 33 3d a8 d2 e2 3d 6a 84 c2 3d 29 21 12 3d
       0.043818716 0.11075336 0.09497912 0.035676155
000310 07 1c 2d 3d ab 88 dc bd 7c 7e 41 bb 0a 19 f4 3d
       0.042263057 -0.10768255 -0.0029524853 0.11918838
000320 79 1b 8e bd 35 da fa 3c 8c 74 a2 bd c3 a5 7a bd
       -0.06938834 0.030621627 -0.07932386 -0.06119324
000330 80 98 68 3d 70 60 97 3a 3f f8 ff bd 1a cf 2b 3d
       0.05678606 0.0011549126 -0.12498521 0.041945554
000340 a5 5c 2f 3c d2 7f 52 3c 9e 07 0e 3d a7 b8 74 3d
       0.0107032405 0.012847858 0.034675233 0.05974641
000350 d1 c7 35 bd 8a f3 d0 3c 81 f2 c0 3c 62 d0 fe bb
       -0.044380013 0.025506753 0.023553135 -0.007776306
000360 b0 bf ad 3c c9 37 ae 3d 5f cd 09 be e6 a7 fa bd
       0.021209568 0.08506734 -0.13457249 -0.12239055
000370 26 c1 56 3d 55 9e 58 bc 8c 01 97 3d 3a 7a 00 be
       0.052430294 -0.013221343 0.07373342 -0.12546626
000380 d6 dc 1a bd aa 99 3f 3d 1d 92 c9 3d cb e8 de bd
       -0.03780826 0.046777405 0.09842322 -0.108842455
000390 9e 99 8a bd 3f 55 cf 3c 52 f1 06 bd 03 07 0b 3e
       -0.067675814 0.025309203 -0.032944985 0.13576894
0003a0 c0 5a 07 bd d4 d1 11 3d 3e de 24 bb 62 d1 e5 bd
       -0.03304553 0.0356005 -0.002515688 -0.11221577
0003b0 f7 f1 bb 3d 38 a7 d9 bd 8d bc 46 3d a1 0a 38 3e
       0.091770105 -0.106275976 0.04851966 0.17972805
0003c0 fc ce c3 bd 00 99 38 bd 3f ed b5 bd 15 23 eb bc
       -0.095609635 -0.045067787 -0.08883142 -0.028703252
0003d0 fa da 16 3b e6 f3 2f 3d 84 e5 0f 3e 3a 55 7c 3d
       0.0023018704 0.04295721 0.14052397 0.061604716
0003e0 e8 a4 ad bd c1 17 b0 bd ac ce 99 3d d2 1b e9 bd
       -0.08478719 -0.08598281 0.07510123 -0.113822594
0003f0 2f 4e c9 bd 22 3b 0a 3e 48 0c ef bd 40 55 ec bd
       -0.098293655 0.1349912 -0.11672264 -0.11539698

fc4.bias f4 [27]
000000 b4 52 55 bd 5e 45 66 bd f9 6d 08 3d 4e 18 7a 3d
       -0.052080825 -0.056218497 0.033308003 0.061058335
000010 d4 6d 94 bc 9d f1 e2 bc 0d bc d7 3b 94 a9 7e bc
       -0.018118776 -0.0277031 0.0065836967 -0.01554336
000020 3e 6a 5f 3c db 32 fa 3c 5c 73 d1 bb 7d 5b 21 3d
       0.01363617 0.030541828 -0.0063919257 0.03939389
000030 09 22 e7 bd a7 03 dd 3d da 8a 9a 3c 6e e7 a1 3d
       -0.112857886 0.10791712 0.018865038 0.0790547
000040 61 ae 18 bd ff 8e d0 3d 64 98 ca 3d 41 9d 53 3d
       -0.037275676 0.10183524 0.098923475 0.05166364
000050 e7 e9 0e 3e 3e fd 50 3d c7 8b e1 bd 34 3b c3 bd
       0.13956414 0.05102276 -0.110129885 -0.095327765
000060 28 a9 ce 3c 9d 4d ee 3d 36 4a 3d 3c
       0.025227144 0.11635897 0.011553338
