src/cached_data/trained_models/model_100_16.pt (torch_old, 78590 bytes, 8 tensors)

fc1.weight f4 [64, 144]
-0.0148096485 -0.07590593 0.007160794 -0.02704788 -0.080870315 0.019565636 -0.09674488 0.03955025
0.017993603 0.08576438 0.05069983 0.07195274 -0.00070960243 -0.040792264 -0.0513823 0.008042151
-0.04229761 0.044640727 0.07740241 0.050236795 0.0015647007 0.0122398315 -0.04650187 0.09897557
0.036503527 0.056375943 -0.048045486 -0.07971256 -0.04669537 0.07692973 0.026641993 -0.025557913
0.030078698 -0.015118827 0.04253924 0.023865381 0.009757693 -0.073785916 -0.10015899 -0.05905599
-0.07566758 -0.020472454 0.0016976383 -0.00052981055 0.07747877 0.068896346 -0.04842223 -0.0326353
-0.067802906 0.03520653 0.05146889 -0.020482497 0.097526364 0.0010778193 0.05024184 -0.012231139
-0.024483837 -0.041519452 0.047444474 0.0052364967 -0.042794473 -0.009850554 -0.021885972 -0.03832824
-0.042436387 0.062039826 0.076405704 -0.032511286 -0.021577096 -0.027300386 -0.071571924 0.025552459
-0.06091701 -0.032358013 0.017177373 0.03494888 -0.022079045 -0.094892204 -0.015172329 -0.11885334
-0.009293256 0.03686478 -0.065004066 0.0682716 0.04056378 -0.008303769 -0.055307016 0.0047177905
-0.061990436 0.062008332 0.059202805 0.07875749 0.0038869365 0.076433234 -0.011487617 0.07123268
-0.06229287 -0.06370152 0.00035991616 0.05335161 -0.050412353 0.08264358 -0.0688022 0.061997402
0.11825286 -0.025493816 -0.013243039 0.03621044 0.075946435 -0.015082644 0.083225496 0.108156994
0.016868679 0.019803585 0.020592928 -0.100069 0.030554872 -0.07435272 -0.08147311 -0.084799014
0.055784218 0.05093555 0.0066299355 -0.07122041 0.06186917 -0.048725553 -0.026414536 -0.069547646
0.028128307 0.028246166 0.014510605 -0.0035921645 -0.050496265 -0.07263789 -0.10526036 -0.08115571
-0.022018185 0.06987662 -0.051518768 0.0075235018 0.028516898 -0.07592412 0.0066529075 0.04194219
-0.01179142 0.052759327 0.0606799 -0.064702526 -0.0030852 -0.053295307 -0.062274486 -0.038944803
-0.07742997 0.015911086 -0.0056608375 -0.05625346 0.035966825 -0.052606948 -0.112554975 0.027785044
-0.027010208 0.0071768216 -0.09861737 0.009240458 -0.055189583 -0.07601278 -0.028552478 -0.011596798
0.04318102 -0.068760164 0.06558643 -0.055046957 -0.050614964 0.03923551 -0.060657784 -0.016166376
-0.03586621 -0.055308472 -0.08043419 -0.089756414 -0.08665643 -0.12492595 -0.0899995 -0.074742116
0.0029917152 -0.007651078 -0.0038382462 -0.112683505 -0.10447466 -0.06687347 -0.08936021 -0.12022579
0.012923923 -0.025367524 -0.059237808 -0.07986239 0.002942831 0.04836497 0.022501724 -0.08409697
0.05366754 0.03714256 -0.064713895 -0.093718424 0.030568099 -0.043142103 -0.0726694 -0.03920899
0.081612945 0.033219058 0.09642 0.014127251 -0.04125875 -0.05500536 0.08655748 -0.035672575
-0.027960932 -0.03661428 0.06388889 0.012586282 -0.036685087 0.08673892 0.017877432 0.08013999
0.099602096 -0.041501068 0.01832946 -0.01943778 0.021766799 0.0166361 0.1064683 0.107343994
0.013031421 -0.06076864 0.017809372 -0.053485885 0.01828806 -0.089731745 -0.09714814 -0.050026055
-0.07697668 0.008387749 -0.058945555 0.012355338 0.08161867 -0.08052715 -0.018878521 0.021088934
-0.0037294894 0.04273563 0.03647584 0.062104475 0.111897595 0.09138033 0.07872157 0.13922304
00000000: 2ba4 72bc 9174 9bbd 18a5 ea3b 8493 ddbc
00000010: 569f a5bd 1d48 a03c 2e22 c6bd 71ff 213d
00000020: 5267 933c 3ca5 af3d a0aa 4f3d f55b 933d
00000030: 9d04 3aba ca15 27bd 3f76 52bd 3ac3 033c
00000040: 4240 2dbd 32d9 363d 2885 9e3d 19c5 4d3d
00000050: a516 cd3a 9389 483c bf78 3ebd b4b3 ca3d
00000060: b984 153d 76ea 663d 58cb 44bd 5740 a3bd
00000070: a543 3fbd 568d 9d3d 4f40 da3c d45e d1bc
00000080: 9a67 f63c f5b4 77bc a03d 2e3d 5581 c33c
00000090: bbde 1f3c 121d 97bd 2820 cdbd b2e4 71bd
000000a0: 9bf7 9abd d9b5 a7bc 4a83 de3a fce2 0aba
000000b0: 30ad 9e3d 8719 8d3d 6356 46bd 98ac 05bd
000000c0: 40dc 8abd b934 103d 0bd1 523d e9ca a7bc
000000d0: e7bb c73d 9d45 8d3a 63ca 4d3d 1d65 48bc
000000e0: 5492 c8bc 4d10 2abd 2355 423d eb96 ab3b
000000f0: 4249 2fbd 3864 21bc 364a b3bc 13fe 1cbd
00000100: c7d1 2dbd 791d 7e3d 987a 9c3d 8e2a 05bd
00000110: 73c2 b0bc 0fa5 dfbc 4d94 92bd 6453 d13c
00000120: 1d84 79bd d689 04bd 90b7 8c3c 8f26 0f3d
00000130: 1ddf b4bc d856 c2bd 5c95 78bc 6169 f3bd
00000140: be42 18bc 86ff 163d da20 85bd fbd1 8b3d
00000150: 3526 263d 880c 08bc 9c89 62bd b297 9a3b
00000160: afe9 7dbd 73fc 7d3d a47e 723d 9b4b a13d
00000170: f9bb 7e3b 0789 9c3d 8f36 3cbc 70e2 913d
00000180: cf26 7fbd f175 82bd 21b3 bc39 3887 5a3d
00000190: 2f7d 4ebd 0a41 a93d 2be8 8cbd fdf0 7d3d
000001a0: 8e2e f23d 68d8 d0bc 55f9 58bc 6651 143d
000001b0: ce89 9b3d 321d 77bc 2172 aa3d 6a81 dd3d
000001c0: 2f30 8a3c 213b a23c 80b2 a83c faf0 ccbd
000001d0: 364e fa3c 3d46 98bd 60db a6bd 1bab adbd
000001e0: fe7d 643d cca1 503d ee3f d93b 02dc 91bd
000001f0: 876a 7d3d 7294 47bd 4c63 d8bc ff6e 8ebd
00000200: 566d e63c 8164 e73c e3bd 6d3c 856a 6bbb
00000210: 2cd5 4ebd 2dc3 94bd be92 d7bd f734 a6bd
00000220: 7b5f b4bc 791b 8f3d 5805 53bd b587 f63b
00000230: 459c e93c 1b7e 9bbd a200 da3b 93cb 2b3d
00000240: cd30 41bc 2a1a 583d 7d8b 783d c282 84bd
00000250: 1131 4abb 2e4c 5abd 8813 7fbd 9684 1fbd
00000260: 9b93 9ebd f757 823c 8c7e b9bb 076a 66bd
00000270: f351 133d 627a 57bd 3983 e6bd 769d e33c
00000280: 8344 ddbc 8b2b eb3b e7f7 c9bd 4a65 173c
00000290: 790e 62bd 97ac 9bbd e3e6 e9bc 7f00 3ebc
000002a0: 95de 303d 21d2 8cbd 2e52 863d eb78 61bd
000002b0: a351 4fbd 6ab5 203d 4c74 78bd 596f 84bc
000002c0: 72e8 12bd 238b 62bd aeba a4bd 36d2 b7bd
000002d0: ed78 b1bd 2dd9 ffbd a851 b8bd 6512 99bd
000002e0: a710 443b e5b5 fabb 168b 7bbb 9cc6 e6bd
000002f0: cff6 d5bd f5f4 88bd 7c02 b7bd f038 f6bd
00000300: ddbe 533c 8ecf cfbc 58a3 72bd e58e a3bd
00000310: 83dc 403b 591a 463d 8955 b83c 083b acbd
00000320: 7fd2 5b3d cc22 183d b888 84bd 72ef bfbd
00000330: f369 fa3c c6b5 30bd b2d3 94bd 9b99 20bd
00000340: b024 a73d b510 083d d977 c53d fc75 673c
00000350: effe 28bd 4d4d 61bd 0c45 b13d 681d 12bd
00000360: 530e e5bc dbf8 15bd 2ed8 823d b136 4e3c
00000370: 1a43 16bd 2da4 b13d b173 923c 6f20 a43d
00000380: 2ffc cb3d 06fd 29bd aa27 963c fb3b 9fbc
00000390: 4950 b23c 6e48 883c 0d0c da3d 2bd7 db3d
000003a0: be81 553c 8ae8 78bd f6e4 913c 0414 5bbd
000003b0: d7d0 953c 47c5 b7bd 9bf5 c6bd 1fe8 4cbd
000003c0: f3a5 9dbd c56c 093c e570 71bd 0b6e 4a3c
000003d0: b027 a73d 6beb a4bd 21a7 9abc b3c2 ac3c
000003e0: 736a 74bb 8e0b 2f3d b167 153d 4361 7e3d
000003f0: 912a e53d 9c25 bb3d c638 a13d 7c90 0e3e

fc1.bias f4 [64]
0.07428457 0.020173684 -0.022101348 -0.075976126 -0.046897896 -0.016749749 -0.06058904 -0.025659854
-0.053367905 -0.06045856 0.04803013 -0.04008581 -0.023770424 0.0023746814 -0.04714569 0.07068607
-0.0042774538 -0.02890808 -0.053661812 0.006440318 -0.019453928 -0.030584399 -0.050961882 0.058744594
-0.071660325 0.067505226 0.061200988 -0.050167497 0.021731272 -0.027798545 -0.06418823 0.04993241
0.040460564 0.061992817 0.066215046 -0.07489527 0.010409467 0.0074494863 -0.0056478316 0.05664613
-0.01063589 -0.016260127 0.06203145 -0.05617832 0.07312259 -0.037813514 0.05311241 0.027769601
-0.07136816 0.0014400783 -0.022346662 -0.07956069 0.023295555 -0.067310356 -0.0017300472 -0.05251624
-0.06620151 -0.05628987 0.012441368 0.04754916 -0.0014111 -0.037342522 -0.05046332 -0.049253732
00000000: 8222 983d 4843 a53c e30d b5bc 5f99 9bbd
00000010: 0218 40bd c536 89bc 372c 78bd 9d34 d2bc
00000020: 4e98 5abd 65a3 77bd 3ebb 443d 0531 24bd
00000030: 31ba c2bc 8ba0 1b3b d71b 41bd dcc3 903d
00000040: e229 8cbb a3d0 ecbc 7dcc 5bbd 4e09 d33b
00000050: d85d 9fbc 228c fabc 68bd 50bd 2c9e 703d
00000060: a6c2 92bd 2e40 8a3d e3ad 7a3d 6f7c 4dbd
00000070: c805 b23c c6b9 e3bc 1e75 83bd ed85 4c3d
00000080: fab9 253d 2eec 7d3d c19b 873d b162 99bd
00000090: 788c 2a3c d21a f43b 7211 b9bb c605 683d
000000a0: 2842 2ebc f533 85bc b114 7e3d 3d1b 66bd
000000b0: 4cc1 953d 58e2 1abd 668c 593d 137d e33c
000000c0: 7829 92bd 02c1 bc3a 5910 b7bc b7f0 a2bd
000000d0: 52d6 be3c 03da 89bd c0c2 e2ba 451b 57bd
000000e0: a894 87bd 3590 66bd e1d6 4b3c e8c2 423d
000000f0: a9f4 b8ba 79f4 18bd a0b2 4ebd 48be 49bd

fc2.weight f4 [64, 64]
0.07512959 0.039891448 0.031649716 0.23842847 -0.1646844 0.06625408 0.15121637 -0.16171658
0.061780054 -0.04652481 0.055908978 0.13223353 -0.03601291 -0.109938286 -0.017023757 0.098786175
0.23215291 0.04763059 -0.026888695 -0.034201447 -0.14718147 -0.05068805 0.060632337 0.07964
-0.009986778 0.09530011 -0.019646477 0.14907838 -0.07953211 -0.18112218 -0.062771395 -0.040009484
-0.089104764 0.048492163 0.19287658 0.09776802 -0.20117818 0.04936609 0.055373266 -0.015165575
-0.045345634 0.12630746 0.14050442 0.07341889 0.04896726 -0.11514086 -0.059968412 0.11409787
0.13002029 -0.13624981 0.09036968 -0.10829872 0.07985582 -0.16460675 0.14658102 -0.04596144
-0.04303856 0.13794667 -0.048288018 -0.08572477 -0.10515257 0.13093442 0.15935001 0.08788871
-0.011870996 0.021076301 0.02118861 -0.11071197 0.15864858 0.09734413 0.1475988 0.10197047
-0.22737516 0.13694152 -0.1259648 0.056599863 0.098681435 0.001955132 -0.08322783 -0.010072374
-0.093686454 0.14264815 0.093382366 -0.00058034057 0.027353873 -0.034353856 -0.1923064 0.098114915
0.025117708 -0.1124882 -0.057711624 0.18587922 -0.08183252 -0.13322034 0.1989942 -0.05526516
-0.21158248 0.012225847 0.038955517 -0.05163023 0.071340084 -0.030964494 0.17100206 -0.0092292065
-0.058273852 0.057518713 0.030401684 0.044652473 0.10146439 -0.033109818 -0.060282126 0.060036525
0.080763884 0.05675273 -0.18388925 0.12872025 -0.06956944 0.0761337 0.109669 0.18811674
0.09585273 0.034327056 -0.19404346 -0.14482504 0.014587919 -0.20861165 0.1966503 -0.018506233
-0.11565541 0.15201317 0.030186065 -0.15272778 -0.040994626 -0.014129902 -0.11258424 -0.090798646
0.21606864 -0.0833252 -0.0071042 -0.1584821 0.07102256 -0.10214613 -0.08910446 -0.14148009
0.11893938 -0.10775867 0.1163513 -0.14085567 -0.13985202 -0.054585814 -0.1972735 -0.22225995
0.0064431117 -0.004147288 -0.09981267 -0.0046453103 -0.060671978 -0.10874344 0.07259045 -0.054140303
0.12764153 0.009853874 0.08722022 0.115071796 0.103602506 0.025665997 0.24371561 -0.100743145
0.04848577 -0.116066046 -0.06462491 0.21271566 0.31535533 0.10164585 -0.05050221 0.047829952
-0.056957092 0.07403323 0.014066481 -0.12589467 0.0057286816 0.10625294 -0.07016658 0.09273185
-0.12139414 0.056865606 0.06843393 0.043449968 0.18458575 0.13333236 -0.03252263 -0.12740947
0.16102594 0.119187556 -0.18262973 -0.05647958 -0.13327183 -0.19733493 -0.019898536 0.030986255
-0.036937177 -0.07604102 -0.011999772 -0.103368476 0.06498311 0.06765459 -0.038083587 0.13138577
0.020984711 -0.050386194 -0.083510846 0.10611962 0.12562516 -0.16861407 -0.102277406 -0.19471481
0.1637331 -0.009001844 0.059414044 0.027226098 0.0787896 -0.0921623 -0.093269065 0.08605344
0.03049868 0.1980895 0.09212039 -0.045007333 0.010387174 -0.08184927 0.2059865 -0.073220566
-0.104046516 0.027873881 0.10043198 -0.07086814 0.0035926406 0.0869209 0.013115019 0.18693887
-0.10513182 0.1301454 -0.08204166 0.024039745 0.004173134 0.14576198 0.24215569 0.10901431
-0.09917829 -0.10198956 0.007328293 -0.038577113 0.1845184 0.09459244 -0.10118005 0.077089325
00000000: 8bdd 993d 3765 233d 22a3 013d 9826 743e
00000010: 07a3 28be 38b0 873d 77d8 1a3e 0899 25be
00000020: 150d 7d3d cd90 3ebd d000 653d 3a68 073e
00000030: 4682 13bd 5327 e1bd 6875 8bbc 6850 ca3d
00000040: 7eb9 6d3e 4b18 433d ae45 dcbc d116 0cbd
00000050: bdb6 16be 469e 4fbd 9d59 783d 4c1a a33d
00000060: 959f 23bc b42c c33d a6f1 a0bc 01a8 183e
00000070: bbe1 a2bd 1878 39be 4a8e 80bd fce0 23bd
00000080: 8f7c b6bd b89f 463d 7081 453e 9a3a c83d
00000090: a701 4ebe 1934 4a3d 14cf 623d 0879 78bc
000000a0: 58bc 39bd be56 013e 64e0 0f3e a55c 963d
000000b0: e591 483d f9ce ebbd 70a1 75bd 25ac e93d
000000c0: 0a24 053e 1285 0bbe bd13 b93d b8cb ddbd
000000d0: 738b a33d ac8e 28be 5619 163e 1042 3cbd
000000e0: 3349 30bd e441 0d3e a8c9 45bd 7890 afbd
000000f0: 3b5a d7bd ac13 063e a62c 233e fffe b33d
00000100: 917e 42bc 35a8 ac3c bc93 ad3c f5bc e2bd
00000110: c674 223e 5c5c c73d 2424 173e e5d5 d03d
00000120: 09d5 68be 663a 0c3e ebfc 00be 42d5 673d
00000130: 7e19 ca3d ac21 003b 5a73 aabd 9906 25bc
00000140: afde bfbd 5b12 123e 413f bf3d ff21 18ba
00000150: 3b15 e03c a1b6 0cbd f8eb 44be 79f0 c83d
00000160: a7c3 cd3c 3760 e6bd 0663 6cbd 1f57 3e3e
00000170: cf97 a7bd ea6a 08be 23c5 4b3e b85d 62bd
00000180: 14a9 58be eb4e 483c d28f 1f3d 387a 53bd
00000190: c01a 923d 40a9 fdbc 2a1b 2f3e 1936 17bc
000001a0: 90b0 6ebd be98 6b3d f40c f93c 83e5 363d
000001b0: 90cc cf3d 299e 07bd 64ea 76bd dce8 753d
000001c0: 8967 a53d 8d75 683d 774d 3cbe 3ecf 033e
000001d0: 6c7a 8ebd fceb 9b3d 249a e03d ada1 403e
000001e0: 704e c43d 879a 0c3d 54b3 46be 044d 14be
000001f0: 2b02 6f3c 4b9e 55be b25e 493e 629a 97bc
00000200: bedc ecbd 57a9 1b3e c448 f73c ac64 1cbe
00000210: fbe9 27bd 1b81 67bc 9192 e6bd a4f4 b9bd
00000220: 1941 5d3e 67a6 aabd 59ca e8bb 2249 22be
00000230: 4774 913d fd31 d1bd 667c b6bd 28e0 10be
00000240: 7d96 f33d 94b0 dcbd 9749 ee3d 783c 10be
00000250: 5e35 0fbe 6095 5fbd 1002 4abe 1d98 63be
00000260: bd20 d33b f9e5 87bb 966a ccbd b037 98bb
00000270: 2e83 78bd e1b4 debd 4daa 943d 39c2 5dbd
00000280: 76b4 023e 2572 213c 84a0 b23d c3aa eb3d
00000290: 8d2d d43d 7f41 d23c 9690 793e 6c52 cebd
000002a0: 0499 463d 09b4 edbd 115a 84bd 22d2 593e
000002b0: 4176 a13e b32b d03d 68db 4ebd 57e9 433d
000002c0: d74b 69bd bc9e 973d 1977 663c 88ea 00be
000002d0: aab7 bb3b 249b d93d 7fb3 8fbd 32ea bd3d
000002e0: 7e9d f8bd e9eb 683d 1727 8c3d 98f8 313d
000002f0: 0c04 3d3e 4788 083e 7336 05bd a177 02be
00000300: fce3 243e 9b18 f43d 4a03 3bbe 2257 67bd
00000310: 6978 08be 2b12 4abe 4102 a3bc e3d6 fd3c
00000320: 704b 17bd 65bb 9bbd b19a 44bc dab2 d3bd
00000330: dd15 853d 7d8e 8a3d 89fd 1bbd fe89 063e
00000340: 21e8 ab3c c161 4ebd bc07 abbd 3e55 d93d
00000350: e2a3 003e 2ba9 2cbe d176 d1bd 5263 47be
00000360: a6a9 273e 787c 13bc 245c 733d 4409 df3c
00000370: 715c a13d 97bf bcbd da03 bfbd c93c b03d
00000380: 5ed8 f93c f9d7 4a3e 9da9 bc3d 9c59 38bd
00000390: f72e 2a3c 97a0 a7bd 20ee 523e aaf4 95bd
000003a0: 5716 d5bd c457 e43c 48af cd3d 5123 91bd
000003b0: 8272 6b3b 9603 b23d 60e0 563c e76c 3f3e
000003c0: 5a4f d7bd d644 053e 7505 a8bd 00ef c43c
000003d0: c9be 883b a142 153e a9f7 773e e542 df3d
000003e0: fd1d cbbd e7df d0bd 2d22 f03b 0903 1ebd
000003f0: 64f2 3c3e aeb9 c13d 7c37 cfbd 02e1 9d3d

fc2.bias f4 [64]
0.061666947 -0.012602858 -0.0797494 -0.081013 -0.09420757 -0.112240575 0.0153181795 -0.09760299
-0.021046279 -0.07044164 0.097855166 -0.078821585 0.11465426 -0.12066754 -0.033992894 0.11084292
-0.010117025 0.023007687 -0.11751509 -0.11352191 -0.05180324 -0.024135772 0.040734578 -0.08321208
0.043642502 -0.0017066819 -0.032991074 0.05185894 -0.109921835 -0.053631756 0.0751754 0.053014915
-0.05922466 0.009546309 0.013170276 -0.04014353 -0.03771383 0.024075676 0.1268687 0.066765144
0.074047215 -0.044605147 -0.09143241 0.11560998 -0.007532908 -0.07533763 -0.11797621 0.11102918
0.09496903 0.049716406 -0.04767791 -0.020900557 -0.03286361 0.11310986 0.110380575 -0.03409771
-0.10829903 -0.095715635 0.10015888 0.018441338 0.050342817 -0.08086422 -0.07717044 0.05924315
00000000: 7b96 7c3d 387c 4ebc a753 a3bd 25ea a5bd
00000010: e6ef c0bd 63de e5bd 1af9 7a3c 14e4 c7bd
00000020: 3f69 acbc b543 90bd 4a68 c83d 366d a1bd
00000030: dacf ea3d 8b20 f7bd 223c 0bbd 9d01 e33d
00000040: e1c1 25bc 9e7a bc3c c0ab f0bd 2d7e e8bd
00000050: a22f 54bd 62b8 c5bc 4dd9 263d 186b aabd
00000060: 7bc2 323d beb2 dfba a621 07bd 0a6a 543d
00000070: b31e e1bd f9ac 5bbd 8ff5 993d 2b26 593d
00000080: 8f95 72bd 1f68 1c3c 24c8 573c 8b6d 24bd
00000090: d179 1abd 5a3a c53c dee9 013e 2abc 883d
000000a0: 11a6 973d e3b3 36bd ea40 bbbd edc4 ec3d
000000b0: 9dd6 f6bb 9e4a 9abd 839d f1bd 4463 e33d
000000c0: 1f7f c23d 6ea3 4b3d ea49 43bd a537 abbc
000000d0: fe9b 06bd 24a6 e73d 360f e23d 0aaa 0bbd
000000e0: e2cb ddbd 8f06 c4bd 1920 cd3d 4a12 973c
000000f0: 4534 4e3d 249c a5bd 890b 9ebd f2a8 723d

fc3.weight f4 [64, 64]
0.10707962 -0.033120286 0.095679864 -0.17984855 -0.11702464 0.051407143 0.07230933 -0.06852313
0.2007347 -0.016930375 -0.09053458 -0.05927302 -0.010234798 -0.01926898 -0.023147134 0.031349577
0.033399437 -0.051201973 0.054661028 -0.069767594 -0.028243676 0.024727095 0.08707912 -0.051631648
-0.051743113 0.17597121 0.031234454 -0.039053123 -0.030909032 0.10817317 -0.18640022 -0.11552452
-0.32670814 -0.1385453 -0.026883455 -0.18676102 -0.012999194 -0.107452855 0.085419774 -0.008924926
0.14958045 0.13718174 0.107739374 0.02191435 -0.19634582 -0.110928774 -0.00011444971 0.012338871
0.053448707 -0.024369389 0.018084673 0.1318437 -0.012534086 0.028027974 -0.09821052 0.019924898
0.15041238 0.14089482 0.07832119 -0.006905753 0.021418123 0.108020574 0.07121036 0.020146672
0.015522216 -0.08010903 0.011215938 -0.032218955 0.05658309 -0.09591533 0.049724877 -0.056910466
0.078422785 0.026085062 0.026801525 0.028861186 -0.023433339 0.07182317 -0.010254822 -0.035519436
-0.1306746 -0.123924226 -0.05285395 -0.1580328 0.06455991 0.15229313 -0.033015326 0.082556345
0.05557983 -0.03169989 0.026972186 -0.08674773 -0.06410017 -0.010045415 -0.17384441 -0.08356612
-0.15835495 0.053435244 0.05269948 -0.024629582 0.03805938 0.10327082 -0.024844272 0.0064327135
-0.07844656 -0.057825275 0.0010127437 -0.028534414 0.11501303 0.11887775 0.09142893 0.05000018
-0.073380396 -0.10215332 0.037406553 -0.118564025 0.12023836 -0.05586921 -0.049392458 -0.027365763
-0.121502586 -0.018781245 -0.054611985 0.09507181 0.010954646 0.12924825 0.13301606 0.013266518
0.100756355 -0.19210385 -0.1469763 -0.10416444 0.085847154 0.04666831 0.12582667 0.03427067
0.09739841 -0.09490145 -0.02082796 -0.1989236 0.08746498 0.11149839 0.007695043 0.13885511
0.032560244 -0.019859435 0.0142601095 -0.022708787 -0.07517726 -0.042462043 0.1129009 0.150864
-0.049377274 9.166875e-05 -0.12215071 -0.12565833 -0.0823056 0.11388893 0.042501044 0.16722475
-0.07050171 0.113022946 -0.020607948 -0.16356313 0.0011185746 0.06633334 -0.16261785 0.058032542
0.13795562 -0.06738809 -0.008063139 0.20660366 0.06601773 -0.10976784 -0.060738407 -0.0303717
0.10806905 0.1396644 0.106763035 -0.08666995 -0.026894266 -0.018015545 -0.11177534 -0.15539284
-0.031848244 -0.086730674 0.029953161 0.12266039 0.021583147 -0.17355505 -0.05083366 -0.0881022
0.035392407 0.07317659 -0.058295995 0.03566853 -0.06827959 0.049226843 -0.0143999085 0.0674066
0.019474788 -0.028859902 -0.0185514 0.058519978 -0.08975956 0.015773738 0.00045733975 -0.004487668
-0.09823301 -0.07150385 -0.062433664 -0.11777072 -0.11222509 -0.11614317 -0.15774585 -0.057276774
-0.016525054 0.096103 -0.031109683 -0.05954473 0.061562072 -0.014802362 0.099871546 0.025298502
0.052728795 -0.0010643648 0.0649225 -0.07909155 0.0028451344 0.12988909 -0.051637657 -0.09810149
0.012251556 0.07642922 -0.005898229 -0.05128224 -0.07795039 -0.09575704 -0.111549534 0.12171699
0.02613702 -0.08195967 -0.09090013 0.099632114 0.042499594 0.029922387 -0.04384172 0.023787728
-0.0337462 -0.094436 -0.11832685 -0.0024950113 -0.089862086 0.15411304 0.09273308 0.04962558
00000000: 8f4c db3d 23a9 07bd cef3 c33d 382a 38be
00000010: 9daa efbd 4c90 523d ea16 943d db55 8cbd
00000020: 668d 4d3e 92b1 8abc 326a b9bd 44c8 72bd
00000030: dbaf 27bc fbd9 9dbc 0f9f bdbc 6a68 003d
00000040: d9cd 083d 29b9 51bd 3ee4 5f3d 50e2 8ebd
00000050: 485f e7bc 7a90 ca3c 8a56 b23d b57b 53bd
00000060: 96f0 53bd cc31 343e 66df ff3c 2bf6 1fbd
00000070: f034 fdbc e589 dd3d b3df 3ebe 1f98 ecbd
00000080: 4a46 a7be d2de 0dbe b13a dcbc 483e 3fbe
00000090: 92fa 54bc 3e10 dcbd 90f0 ae3d da39 12bc
000000a0: 9e2b 193e 5f79 0c3e 76a6 dc3d b985 b33c
000000b0: e10e 49be a02e e3bd b804 f0b8 fa28 4a3c
000000c0: 08ed 5a3d 50a2 c7bc 4f26 943c 0902 073e
000000d0: c45b 4dbc ec9a e53c 9922 c9bd 8a39 a33c
000000e0: b405 1a3e bb46 103e dc66 a03d a849 e2bb
000000f0: 0f75 af3c e439 dd3d bdd6 913d a20a a53c
00000100: e550 7e3c 3410 a4bd 0ec3 373c 06f8 03bd
00000110: acc3 673d 426f c4bd 50ac 4b3d f31a 69bd
00000120: 209c a03d 57b0 d53c df8e db3c 4b6e ec3c
00000130: 46f7 bfbc 0718 933d d703 28bc d47c 11bd
00000140: 90cf 05be fccb fdbd 627d 58bd 5ad3 21be
00000150: fc37 843d bbf2 1b3e 143b 07bd 4d13 a93d
00000160: ada7 633d bed7 01bd c6f4 dc3c cba8 b1bd
00000170: f346 83bd 8695 24bc 4504 32be b724 abbd
00000180: cd27 22be eade 5a3d 69db 573d fac3 c9bc
00000190: 27e4 1b3d a77f d33d 3786 cbbc 83c9 d23b
000001a0: 97a8 a0bd 32da 6cbd 0abe 843a 01c1 e9bc
000001b0: f48b eb3d 2e76 f33d 173f bb3d fdcc 4c3d
000001c0: 7648 96bd c335 d1bd 9d37 193d b2d1 f2bd
000001d0: 873f f63d 1dd7 64bd bf4f 4abd 2a2e e0bc
000001e0: 59d6 f8bd 20db 99bc d1b0 5fbd 02b5 c23d
000001f0: 1e7b 333c a759 043e 5d35 083e cf5b 593c
00000200: 5959 ce3d dfb6 44be f580 16be 2a54 d5bd
00000210: a2d0 af3d 4527 3f3d b5d8 003e 675f 0c3d
00000220: d178 c73d b15b c2bd 669f aabc a1b2 4bbe
00000230: d720 b33d 4559 e43d b326 fc3b 0930 0e3e
00000240: e45d 053d 41b0 a2bc 3ca3 693c c707 babc
00000250: 89f6 99bd aeec 2dbd 9638 e73d 187c 1a3e
00000260: d33f 4abd 493e c038 272a fabd 94ac 00be
00000270: d78f a8bd 993e e93d 9315 2e3d f73c 2b3e
00000280: 3363 90bd 9378 e73d 00d2 a8bc 187d 27be
00000290: 239d 923a c6d9 873d 4b85 26be 88b3 6d3d
000002a0: 3d44 0d3e c402 8abd 421b 04bc e98f 533e
000002b0: 4e34 873d f6cd e0bd d6c8 78bd 12ce f8bc
000002c0: 4e53 dd3d 2f04 0f3e 94a6 da3d 0480 b1bd
000002d0: 5d51 dcbc 5695 93bc 78ea e4bd 4d1f 1fbe
000002e0: 4e73 02bd da9f b1bd 5560 f53c 5f35 fb3d
000002f0: 24cf b03c 6ab8 31be f536 50bd ed6e b4bd
00000300: a1f7 103d 9cdd 953d c8c7 6ebd 2a19 123d
00000310: 2bd6 8bbd 16a2 493d 98ed 6bbc 790c 8a3d
00000320: 9789 9f3c 9a6b ecbc 1bf9 97bc a5b2 6f3d
00000330: dcd3 b7bd ed37 813c 1ac7 ef39 4a0d 93bb
00000340: 632e c9bd 9c70 92bd 71ba 7fbd c631 f1bd
00000350: 45d6 e5bd 78dc edbd 2188 21be 0d9b 6abd
00000360: 8d5f 87bc a6d1 c43d bcd9 febc 2de5 73bd
00000370: 8328 7c3d 9b85 72bc 7489 cc3d ce3e cf3c
00000380: 26fa 573d 2882 8bba 16f6 843d c0fa a1bd
00000390: 6f75 3a3b a501 053e 0282 53bd 6fe9 c8bd
000003a0: c0ba 483c ec86 9c3d ee45 c1bb 530d 52bd
000003b0: 74a4 9fbd 441c c4bd 1574 e4bd c246 f93d
000003c0: 4e1d d63c 79da a7bd d929 babd ec0b cc3d
000003d0: 0e14 2e3d cb1f f53c 6093 33bd 7bde c23c
000003e0: 7539 0abd a967 c1bd 5955 f2bd 5883 23bb
000003f0: 9d09 b8bd cfcf 1d3e d7ea bd3d 3144 4b3d

fc3.bias f4 [64]
0.040107787 0.09913372 0.11036257 0.103066266 -0.009348432 0.09545118 0.019656686 0.008970414
-0.11621996 0.11913746 -0.060033426 0.09445809 -0.037238494 -0.0010739008 0.0037985602 -0.10712105
0.037183378 0.12985054 0.07723594 0.06729935 -0.09424486 0.08937304 0.033368837 -0.0009806685
0.10221319 -0.016909258 0.033834245 -0.120163776 -0.10064045 0.07735371 0.1139535 -0.05342122
0.0701811 0.0776794 -0.0952593 -0.10792878 0.040514514 0.09355955 -0.0053647277 0.0663203
-0.043374483 0.0097902035 0.017620472 -0.034899678 -0.11889839 -0.019359933 -0.07981793 0.0553731
0.07265953 0.0010648847 -0.124713935 0.06854975 -0.10172889 -0.0840533 0.07179319 -0.050684936
0.038413696 0.020141361 0.050208792 -0.016369529 -0.07629323 -0.052519802 -0.085983574 0.021698246
00000000: 1048 243d 9f06 cb3d c505 e23d 6814 d33d
00000010: 2a2a 19bc e97b c33d 0f07 a13c a5f8 123c
00000020: bb04 eebd 57fe f33d 9ce5 75bd 3e73 c13d
00000030: 6487 18bd 22c2 8cba 44f1 783b 4862 dbbd
00000040: 994d 183d 8af7 043e e02d 9e3d 3ed4 893d
00000050: 7303 c1bd 3609 b73d c3ad 083d c689 80ba
00000060: 2655 d13d 4985 8abc c795 0a3d 6d18 f6bd
00000070: 951c cebd 9f6b 9e3d 7460 e93d 36d0 5abd
00000080: 1cbb 8f3d 6116 9f3d 4f17 c3bd c409 ddbd
00000090: 8cf2 253d 269c bf3d 99ca afbb f0d2 873d
000000a0: 71a9 31bd 1767 203c cf58 903c f7f2 0ebd
000000b0: 0081 f3bd b998 9ebc 9577 a3bd e7ce 623d
000000c0: 85ce 943d 9a93 8b3a 056a ffbd d063 8c3d
000000d0: 3c57 d0bd 2324 acbd 4f08 933d 029b 4fbd
000000e0: ae57 1d3d 7fff a43c bca7 4d3d 6419 86bc
000000f0: a03f 9cbd 011f 57bd 2818 b0bd 85c0 b13c

fc4.weight f4 [27, 64]
-0.081701726 -0.13060847 0.021761427 -0.093024045 -0.078169234 -0.20361692 0.03215225 -0.12803735
0.12591973 -0.04542438 0.029576654 0.0031586208 -0.0073042344 -0.073781155 -0.019213839 0.11001593
-0.05365607 0.19852073 0.29040274 -0.13458303 -0.20424743 -0.12716386 0.08386524 -0.11519916
-0.19407377 -0.24310735 -0.09019848 0.0558038 0.057907123 0.16394193 0.025150262 -0.13843833
-0.03111842 -0.08640214 -0.12531044 0.24023724 -0.0417684 -0.10243685 0.1576931 0.048568793
0.001024 -0.13397434 -0.08032023 -0.05500098 -0.0032111628 -0.08361588 0.0012390196 0.18927298
0.04246045 -0.067412846 -0.028909473 -0.26374978 0.06763954 0.016124306 -0.03084396 0.10774385
-0.053043023 0.18100724 0.055571567 -0.07904596 0.07975943 0.16286916 0.12954226 0.20275836
-0.022279639 -0.08509847 -0.22416025 0.07732505 -0.0070909453 0.024426682 -0.023013342 0.11459162
0.091731586 0.20237112 -0.15566343 -0.106413774 0.15904015 -0.09352971 0.00811739 0.23062353
0.20975937 -0.112122715 -0.12641478 0.14531386 0.03988239 0.11800017 0.13344118 -0.10688652
0.08112781 -0.047819115 -0.054786857 0.07011708 0.027625807 -0.11808162 -0.20485516 -0.11246607
-0.252024 0.16666616 -0.0019166659 -0.05589222 -0.17857149 -0.07909892 0.11171442 0.13156566
0.018245036 0.12150573 -0.062158607 0.09710688 -0.18131052 -0.15028818 -0.25442243 -0.03440099
0.08647812 -0.13671574 0.22524203 0.013042677 -0.0723352 0.10403159 0.13561584 0.07659225
0.0505169 -0.20435718 -0.03756929 0.017973028 0.034546595 -0.021338858 -0.012926302 -0.22746703
0.015046323 0.08831028 0.11448561 -0.116087124 0.005364519 -0.15888375 -0.25908944 -0.07909071
-0.07853506 -0.21793367 0.09030977 0.26200697 -0.12491416 -0.10019669 0.11006606 -0.104259446
-0.06250632 -0.2803311 0.1135641 0.16806112 0.097605035 0.015878206 -0.13299836 -0.112057485
0.031487584 -0.13234308 0.13150163 -0.0656063 0.10229616 0.0599091 -0.2881892 0.07847279
0.025654541 0.12642045 -0.022556495 0.036753397 -0.064753205 -0.122477435 -0.03732516 -0.107764624
0.09469782 0.05555962 0.051307514 0.20815833 -0.02136267 -0.11697216 -0.08863406 0.18652235
0.0338841 -0.08969751 0.06998037 -0.0039806482 -0.037574254 -0.111119784 0.1184994 0.04646854
-0.04743155 0.11656108 -0.112672366 -0.045312375 -0.026106205 -0.009840668 -0.1866174 -0.012823849
0.114517786 -0.089981966 0.12857366 -0.1043952 -0.04342299 0.1270648 0.118291 0.10221548
-0.07126595 -0.22706185 0.13376762 0.032673888 0.11166592 0.0056540603 0.20478942 -0.2817455
-0.12733471 0.168411 0.1427061 0.02862916 -0.017568046 0.27917117 -0.24524806 0.051102452
0.018593308 0.20047413 -0.20205353 0.0048519177 0.062593855 0.09946424 0.16527559 0.04510037
-0.14775723 -0.1936896 -0.31265268 -0.09726836 -0.04005402 -0.050011754 0.009157061 -0.16005914
-0.11531783 0.019913826 -0.09589035 -0.2741257 -0.11039856 0.083832026 0.16861607 0.13194354
0.021053769 0.10524955 -0.0035756754 0.20261572 -0.1368746 -0.12031474 0.0371515 -0.12046018
-0.101673655 0.30686468 0.10218661 -0.03537511 0.0026629728 0.109682225 -0.0800485 -0.0072580595
00000000: 3c53 a7bd 3abe 05be 0545 b23c 6483 bebd
00000010: 3117 a0bd f480 50be 14b2 033d 391c 03be
00000020: 1af1 003e ea0e 3abd bd4a f23c dd00 4f3b
00000030: 5c58 efbb 931a 97bd 5766 9dbc 0850 e13d
00000040: 78c6 5bbd 0549 4b3e abaf 943e 22d0 09be
00000050: 3d26 51be 3e37 02be 8ac1 ab3d 8aed ebbd
00000060: 46bb 46be 22f1 78be fbb9 b8bd 8692 643d
00000070: 0530 6d3d 65e0 273e ec07 ce3c c7c2 0dbe
00000080: 0fec febc 9bf3 b0bd 6151 00be c000 763e
00000090: 5815 2bbd 69ca d1bd 4d7a 213e 12f0 463d
000000a0: bd37 863a 9230 09be ef7e a4bd b548 61bd
000000b0: 5f72 52bb cd3e abbd 9966 a23a c7d0 413e
000000c0: 02eb 2d3d bf0f 8abd 8fd3 ecbc 360a 87be
000000d0: 9986 8a3d 1f17 843c 79ac fcbc cfa8 dc3d
000000e0: a443 59bd f659 393e 039f 633d d9e2 a1bd
000000f0: e958 a33d 2cc7 263e baa6 043e e39f 4f3e
00000100: ca83 b6bc 1b48 aebd 448a 65be 995c 9e3d
00000110: 295b e8bb 771a c83c 7a86 bcbc 03af ea3d
00000120: c5dd bb3d 603a 4f3e 3c66 1fbe 77ef d9bd
00000130: 6cdb 223e 818c bfbd cdfe 043c 9328 6c3e
00000140: 29cb 563e 98a0 e5bd e072 01be 28cd 143e
00000150: b85b 233d 13aa f13d cea4 083e 52e7 dabd
00000160: 5626 a63d fadd 43bd 2f68 60bd 8b99 8f3d
00000170: 844f e23c c7d4 f1bd 8dc5 51be 9c54 e6bd
00000180: 4a09 81be 89aa 2a3e a338 fbba 3eef 64bd
00000190: 72db 36be 9dfe a1bd 88ca e43d 26b9 063e
000001a0: 9d76 953c ffd7 f83d 069a 7ebd f9df c63d
000001b0: 77a9 39be 25e5 19be a843 82be 0de8 0cbd
000001c0: 711b b13d 36ff 0bbe d9a5 663e f4b0 553c
000001d0: 7a24 94bd 840e d53d e1de 0a3e 66dc 9c3d
000001e0: cfea 4e3d 0243 51be 41e2 19bd 2c3c 933c
000001f0: bb80 0d3d d4ce aebc d7c8 53bc 1eed 68be
00000200: da84 763c 05dc b43d 6e77 ea3d 16bf edbd
00000210: d9c8 af3b 6cb2 22be 5fa7 84be 4ffa a1bd
00000220: fdd6 a0bd 012a 5fbe 54f4 b83d c725 863e
00000230: ffd2 ffbd ec33 cdbd 516a e13d fa85 d5bd
00000240: 5003 80bd 8f87 8fbe 4b94 e83d 3718 2c3e
00000250: 26e5 c73d 0313 823c b930 08be 657e e5bd
00000260: 20f9 003d f284 07be 5da8 063e 995c 86bd
00000270: a680 d13d 3f63 753d 898d 93be 58b6 a03d
00000280: 7929 d23c 5d74 013e 66c8 b8bc bb8a 163d
00000290: 549d 84bd 73d5 fabd 44e2 18bd b3b3 dcbd
000002a0: eef0 c13d 7c92 633d d427 523d 7527 553e
000002b0: c400 afbc 1a8f efbd c685 b5bd b7ff 3e3e
000002c0: 0eca 0a3d 54b3 b7bd de51 8f3d 1970 82bb
000002d0: 76e7 19bd c592 e3bd d0af f23d cc55 3e3d
000002e0: 9647 42bd 93b7 ee3d c5c0 e6bd 7899 39bd
000002f0: aedc d5bc c13a 21bc a218 3fbe 1f1b 52bc
00000300: 4d88 ea3d 7748 b8bd d0a8 033e 27cd d5bd
00000310: 4edc 31bd 461d 023e 8d42 f23d 5956 d13d
00000320: e2f3 91bd e782 68be 61fa 083e 0ed5 053d
00000330: 1ab1 e43d b245 b93b 51b4 513e f240 90be
00000340: 0864 02be ef73 2c3e 8c21 123e b387 ea3c
00000350: ddea 8fbc 86ef 8e3e 4f22 7bbe ce50 513d
00000360: fe50 983c 1749 4d3e 1fe7 4ebe d6fc 9e3b
00000370: 3531 803d e8b3 cb3d 013e 293e 2abb 383d
00000380: ac4d 17be 9156 46be 0314 a0be a234 c7bd
00000390: af0f 24bd 20d9 4cbd 7f07 163c 8be6 23be
000003a0: c12b ecbd 5222 a33c 2962 c4bd 345a 8cbe
000003b0: a418 e2bd 20b0 ab3d b1a9 2c3e 351c 073e
000003c0: f478 ac3c 138d d73d e155 6abb 7f7a 4f3e
000003d0: db28 0cbe 9367 f6bd 2c2c 183d d4b3 f6bd
000003e0: 473a d0bd 5e1d 9d3e 3747 d13d 7ee5 10bd
000003f0: 4585 2e3b 13a1 e03d 78f0 a3bd 04d5 edbb

fc4.bias f4 [27]
0.013330746 0.07851382 0.0764871 0.10357703 0.01254232 -0.060397945 0.118360296 0.008126199
-0.106455624 -0.024446648 0.078773014 -0.015525248 0.055412862 -0.045705374 -0.04634578 0.0024392197
-0.113879 0.036449585 0.106106125 0.024578156 0.03030465 -0.08783303 0.069469735 -0.10861948
-0.03480246 0.14367548 -0.041867863
00000000: 3469 5a3c dbcb a03d 45a5 9c3d 3220 d43d
00000010: 4e7e 4d3c d663 77bd e266 f23d c023 053c
00000020: 6805 dabd 5644 c8bc bf53 a13d 9c5d 7ebc
00000030: 99f8 623d 8f35 3bbd 13d5 3dbd 51db 1f3b
00000040: 6539 e9bd 294c 153d 2b4e d93d 2158 c93c
00000050: 7541 f83c cee1 b3bd 2646 8e3d e473 debd
00000060: 068d 0ebd aa1f 133e a37d 2bbd
