src/cached_data/trained_models/model_200_16.pt (torch_old, 78590 bytes, 8 tensors)

fc1.weight f4 [64, 144]
-0.01374164 0.007012504 -0.05920413 0.06762418 -0.08353498 0.050290883 -0.05738786 -0.033501826
0.2451114 0.21719801 0.10790554 0.15571083 0.12563711 0.18749547 0.17068714 0.15260713
0.019535797 0.01745149 0.052911825 0.009760331 -0.023422197 0.03544418 -0.015248375 -0.085683
0.04111182 0.01162326 -0.0010491471 -0.08144767 -0.0014309498 -0.08138922 -0.0049314494 0.017339421
0.09895398 -0.039018843 -0.014784974 0.0461405 -0.009020166 -0.031335045 -0.009262239 -0.0340948
0.071223795 -0.021454655 0.023837019 0.08452107 0.032949537 0.034917835 -0.016050821 0.06423758
-0.083499014 -0.033974733 -0.0940178 -0.10067052 0.04656332 -0.057828564 -0.05081075 -0.06586681
-0.12812762 -0.106985696 -0.08320369 -0.12191244 0.019360669 -0.057361852 -0.14994785 -0.02231252
0.12702242 0.08070917 0.17793213 0.17456919 0.18825305 0.21509077 0.14142749 0.18987094
-0.041928314 -0.06380324 -0.020569216 -0.06803918 -0.0673183 0.012046037 -0.011872602 -0.025962641
-0.06509071 0.07958946 -0.0030684604 0.033821367 -0.01664514 -0.1090015 -0.005418642 -0.040273875
0.057085782 0.071850896 0.0054228557 -0.014895659 -0.07796931 -0.0094236145 0.071463816 -0.030225772
0.05943105 0.0685322 -0.004744553 0.010874248 0.0039900565 0.05363381 0.08308021 -0.0015905183
-0.099192746 -0.013779116 -0.055737503 0.046667695 -0.02664958 -0.04526882 -0.11489577 -0.07191947
-0.020820031 -0.010729932 0.00053395686 -0.03577842 -0.14707908 -0.050388668 -0.06035268 -0.12139019
-0.020656792 -0.1251172 -0.12734228 -0.009403078 0.048188187 -0.11300288 0.041241497 -0.07117468
0.018871618 0.10202916 0.115490355 0.113488205 0.16050693 0.1190126 0.027172709 0.13896379
-0.15817524 0.03232091 -0.080836676 0.01047365 -0.09414143 -0.012380805 -0.022285815 0.046303235
-0.1450345 -0.105929986 -0.12922238 0.031100867 -0.12414658 0.023210647 -0.054433323 -0.052923594
0.018079631 0.0019469904 0.013635106 0.021365238 -0.0035252115 -0.025673296 0.01516735 0.05574401
-0.09727299 0.026949022 -0.08888395 -0.042051073 0.020829307 -0.03392397 -0.04766739 0.07199719
0.034436513 0.10293764 0.035930548 0.060737263 0.096163355 0.05139747 0.13294466 0.005814551
0.10198174 0.10440995 0.110837586 -0.005696802 0.10338858 0.02028287 0.061755538 -0.047696695
-0.11015343 -0.035881355 -0.06595412 -0.010548031 -0.13625339 -0.05391101 -0.12681206 -0.11727901
0.100390725 0.11486817 -0.021152014 0.013182487 0.1445881 0.08075765 0.003724718 0.1442456
-0.06734393 0.06019419 0.026625875 0.035327137 -0.041724164 0.07518766 0.037897553 -0.10459493
0.086361386 0.026764015 0.0133245075 0.1121954 0.10146119 0.041803747 0.034703128 0.13899806
-0.0056773415 0.09173551 -0.02842733 0.04946049 0.010673275 0.07949143 0.026647424 0.015842611
0.0743595 0.023399748 0.09649812 0.08478046 0.10611876 0.0888578 -0.019226007 0.11961242
0.0215093 -0.054187905 -0.12882552 -0.12887166 -0.007036484 0.0006476899 -0.0836083 -0.1282293
0.101234816 -0.010972011 -0.022734614 0.041282415 -0.024223402 0.028050704 -0.03294847 -0.008008959
0.07878252 -0.012807307 0.024739996 -0.030339656 -0.0783394 0.040211327 0.014462132 -0.024227753
00000000: 9e24 61bc 26c9 e53b 0880 72bd 8c7e 8a3d
00000010: 6314 abbd d0fd 4d3d 880f 6bbd 3639 09bd
00000020: 7cfe 7a3e 2869 5e3e 94fd dc3d a972 1f3e
00000030: 04a7 003e d0fe 3f3e 9cc8 2e3e 0b45 1c3e
00000040: 8909 a03c 6df6 8e3c 12ba 583d cce9 1f3c
00000050: e8df bfbc eb2d 113d 52d4 79bc 927a afbd
00000060: de64 283d 7c6f 3e3c 8983 89ba 09ce a6bd
00000070: b58e bbba 64af a6bd ff97 a1bb 670b 8e3c
00000080: 62a8 ca3d 39d2 1fbd ad3c 72bc d2fd 3c3d
00000090: 51c9 13bc 2d59 00bd a5c0 17bc fda6 0bbd
000000a0: c8dd 913d acc1 afbc da45 c33c 6219 ad3d
000000b0: 18f6 063d 0106 0f3d 037d 83bc fe8e 833d
000000c0: 8801 abbd 1729 0bbd 688c c0bd 582c cebd
000000d0: 2eb9 3e3d a5dd 6cbd ef1e 50bd 2ee5 86bd
000000e0: e333 03be 511b dbbd b266 aabd 3bad f9bd
000000f0: 449a 9e3c 43f4 6abd ee8b 19be bfc8 b6bc
00000100: 2a12 023e d94a a53d d733 363e 44c2 323e
00000110: 68c5 403e c140 5c3e 5ed2 103e 876d 423e
00000120: 06bd 2bbd 46ab 82bd c680 a8bc 2058 8bbd
00000130: 2dde 89bd be5c 453c 4d85 42bc 9baf d4bc
00000140: 474e 85bd ccff a23d 3918 49bb 4688 0a3d
00000150: 635b 88bc 2e3c dfbd dd8e b1bb 38f6 24bd
00000160: c8d2 693d 9026 933d 36b2 b13b ec0c 74bc
00000170: 60ae 9fbd 8165 1abc 9f5b 923d 0a9c f7bc
00000180: f96d 733d 9c5a 8c3d 3278 9bbb e729 323c
00000190: 05bf 823b 20af 5b3d f525 aa3d f078 d0ba
000001a0: 9125 cbbd cdc1 61bc 024d 64bd a026 3f3d
000001b0: 3850 dabc cc6b 39bd 794e ebbd 844a 93bd
000001c0: c58e aabc 99cc 2fbc 3df9 0b3a 648c 12bd
000001d0: e69b 16be 5964 4ebd 5f34 77bd 6c9b f8bd
000001e0: 6f38 a9bc b91e 00be 0466 02be 5e0f 1abc
000001f0: fa60 453d 0e6e e7bd d8ec 283d 08c4 91bd
00000200: a798 9a3c aaf4 d03d 3586 ec3d 816c e83d
00000210: ee5b 243e e1bc f33d 4d99 de3c 864c 0e3e
00000220: b1f8 21be ee62 043d b38d a5bd ac99 2b3c
00000230: 39cd c0bd dcd8 4abc be90 b6bc 76a8 3d3d
00000240: ed83 14be d2f1 d8bd df52 04be 3fc7 fe3c
00000250: 9040 febd 4124 be3c 7af5 5ebd 69c6 58bd
00000260: bc1b 943c 2832 ff3a c865 5f3c 2706 af3c
00000270: 3c07 67bb ce50 d2bc 7a80 783c d553 643d
00000280: 1037 c7bd 32c4 dc3c ca08 b6bd bf3d 2cbd
00000290: 39a2 aa3c dcf3 0abd e23e 43bd 4373 933d
000002a0: 4d0d 0d3d f8d0 d23d e92b 133d a3c7 783d
000002b0: 4bf1 c43d 2786 523d a522 083e fd87 be3b
000002c0: cddb d03d e2d4 d53d d1fe e23d 3dac babb
000002d0: 64bd d33d 4328 a63c 60f3 7c3d 9c5d 43bd
000002e0: 1f98 e1bd 54f8 12bd f412 87bd a6d1 2cbc
000002f0: 0286 0bbe cbd1 5cbd 05db 01be fa2f f0bd
00000300: a799 cd3d 0140 eb3d fd46 adbc 5cfb 573c
00000310: e70e 143e 4464 a53d 661a 743b 1eb5 133e
00000320: 9deb 89bd 2f8e 763d 821e da3c 30b3 103d
00000330: f5e6 2abd fdfb 993d 773a 1b3d de35 d6bd
00000340: 3dde b03d 3540 db3c 094f 5a3c b4c6 e53d
00000350: e2ca cf3d 683a 2b3d de24 0e3d 8255 0e3e
00000360: fe08 babb d4df bb3d 6fe0 e8bc 1597 4a3d
00000370: f6de 2e3c 67cc a23d b34b da3c 5dc8 813c
00000380: cb49 983d d4b0 bf3c cea0 c53d 61a1 ad3d
00000390: cb54 d93d 14fb b53d dc7f 9dbc 5bf7 f43d
000003a0: 4634 b03c 23f4 5dbd d6ea 03be eff6 03be
000003b0: 4e92 e6bb bcc9 293a d43a abbd 8b4e 03be
000003c0: 3354 cf3d f3c3 33bc f13d babc c017 293d
000003d0: 2870 c6bc 97ca e53c faf4 06bd 0238 03bc
000003e0: bb58 a13d bdd5 51bc 88ab ca3c df8a f8bc
000003f0: 6870 a0bd a2b4 243d 94f2 6c3c 4879 c6bc

fc1.bias f4 [64]
-0.041138172 -0.024275657 0.052532356 -0.02436278 -0.07110146 -0.057730418 0.049785767 -0.05041023
-0.015438412 0.0018943922 -0.01036496 0.06725577 0.06203144 0.05771987 0.07226277 0.05946198
0.002230777 0.06918022 0.015750991 0.019357141 -0.06588408 -0.07153944 0.039947048 0.021520415
0.06664575 0.041564934 -0.042242993 -0.0030569886 -0.049114738 -0.028328935 0.022371752 0.0689985
-0.047518633 -0.01623327 -0.049714997 -0.079638 0.0031007598 -0.012442646 0.051830035 -0.07104496
0.0065866136 0.07592702 0.08397722 0.014604654 0.056613874 -0.046889644 0.055111904 0.06895984
0.029444106 0.009000672 -0.05327414 0.08286585 0.025550833 0.06779817 -0.0423984 0.019520938
-0.004036186 -0.036668114 0.07930159 -0.06915586 0.072158664 -0.073684484 0.05760934 0.052563503
00000000: 8080 28bd bedd c6bc 2b2c 573d 7494 c7bc
00000010: a49d 91bd bb76 6cbd 29ec 4b3d f57a 4ebd
00000020: 65f1 7cbc 414d f83a cbd1 29bc 65bd 893d
00000030: ae14 7e3d ac6b 6c3d 81fe 933d 688e 733d
00000040: 3a32 123b 5cae 8d3d 3908 813c de92 9e3c
00000050: 3cee 86bd 4583 92bd 849f 233d 954b b03c
00000060: 917d 883d fe3f 2a3d fd06 2dbd c257 48bb
00000070: 892c 49bd 1512 e8bc f744 b73c 164f 8d3d
00000080: e6a2 42bd a2fb 84bc f4a1 4bbd 3f19 a3bd
00000090: 1e36 4b3b 3ddc 4bbc bb4b 543d 0580 91bd
000000a0: 85d4 d73b a07f 9b3d 40fc ab3d 5c48 6f3c
000000b0: f3e3 673d 5b0f 40bd 05bd 613d d13a 8d3d
000000c0: c434 f13c 8e77 133c fc35 5abd 92b5 a93d
000000d0: fb4f d13c c4d9 8a3d f2a9 2dbd 60ea 9f3c
000000e0: fb41 84bb 4e31 16bd df68 a23d 96a1 8dbd
000000f0: ecc7 933d e4e7 96bd c5f7 6b3d d44c 573d

fc2.weight f4 [64, 64]
-0.05755154 0.012201861 0.028913686 -0.024915569 -0.007862289 0.03556848 -0.0186271 -0.10408779
0.06581399 0.1342921 -0.00503737 -0.06829796 -0.101353854 -0.022644272 -0.021058049 0.08596451
-0.052970193 -0.10916298 0.03704773 -0.0987066 0.10234153 -0.07921142 -0.07921723 0.053032953
-0.037336547 -0.026964962 -0.119530626 -0.09016614 -0.05832213 0.10102908 -0.060124483 -0.059795156
-0.031494934 -0.026354041 -0.0838029 -0.014442443 -0.087768055 -0.041454658 0.09266381 -0.085226886
-0.123083614 -0.12642042 -0.120323725 0.0064442717 0.15314113 -0.07024395 0.109512195 0.010020435
-0.0819599 0.13741198 -0.07866148 0.00051600736 -0.032153223 -0.08385993 -0.09840215 0.031027636
0.11216859 -0.07078973 -0.037454065 0.10019507 -0.068060406 -0.04645798 -0.042625286 0.059398763
-0.15672077 0.074681476 0.0009877179 -0.043451242 0.18527295 -0.016233139 -0.0657079 0.025525609
-0.024849528 0.07012367 0.058046777 0.08464285 -0.117634386 0.04563524 -0.08019396 0.08846223
-0.0738136 -0.1569069 -0.11230702 -0.0386523 0.21997337 0.056978036 -0.11626072 -0.106766164
-0.20498432 -0.2203398 -0.1835557 -0.060346995 -0.0040978147 0.08938148 -0.07613401 -0.10877366
0.1848645 0.15126501 0.17613438 -0.07687911 0.025380814 -0.20662409 -0.15516306 0.13672383
-0.098361395 -0.04258274 -0.006794606 0.00032844176 0.03605901 0.0016064721 0.022704585 0.013165525
-0.17180102 -0.030738045 0.18799484 0.18666606 0.08334906 0.10164376 0.03904508 0.008839828
0.0076059927 -0.17982557 -0.132535 -0.10963674 0.07059117 -0.0592853 0.06191926 0.07990469
0.19756404 0.045486506 0.04533476 0.030584607 -0.08702028 -0.01890625 0.024078194 -0.10709776
0.112704046 -0.22261415 -0.14922985 -0.24907778 0.11676426 -0.008569519 0.25121784 -0.08111692
0.048299562 -0.113053456 0.06980182 0.04043553 0.014246295 0.06076266 0.006666626 0.1707777
-0.08916249 -0.036419984 0.07038142 -0.08338567 -0.11315128 0.031759 0.064152375 -0.07454465
-0.07484216 -0.06341932 0.027536096 -0.0064748884 -0.10330126 0.13406283 -0.083190314 -0.0470376
0.048662458 -0.04659573 0.16819094 0.022321668 -0.13744962 -0.003234189 -0.0076774405 0.018578531
0.10703168 -0.14884813 -0.044676423 0.05471937 -0.09296855 0.028524617 -0.032414176 0.16012211
-0.07801576 0.0332592 0.14201006 0.15544891 0.043451034 -0.014372799 0.062118597 -0.11620264
-0.062083375 -0.16616036 -0.090140365 -0.05276377 0.04219335 -0.03363347 -0.21135111 -0.06735439
0.028060649 -0.102329515 0.09712438 0.09370992 0.020389209 -0.03300018 -0.0008492575 -0.14615294
-0.12901022 -0.010380568 -0.0773951 -0.12898721 0.016048456 -0.0714499 0.024030048 0.2266668
0.085804455 -0.106257476 -0.005831226 -0.10877465 0.024353595 0.076806985 0.07951336 0.091653965
0.02848063 -0.00079540955 -0.0025222632 -0.054555863 0.14410421 0.1331192 -0.14285183 -0.09474096
-0.033513498 0.12754259 0.05367876 -0.07613875 -0.10979233 -0.020793984 0.037215635 0.030805197
-0.21542111 -0.042573456 -0.16721062 0.18492706 0.008567044 0.018415773 0.10754513 -0.004789698
-0.10181637 -0.11144776 0.13945533 0.17473331 0.07388145 -0.047276173 -0.14579016 -0.1318735
00000000: 2abb 6bbd 50ea 473c 65dc ec3c bc1b ccbc
00000010: d5d0 00bc 41b0 113d dc97 98bc fb2b d5bd
00000020: 7cc9 863d de83 093e 8610 a5bb cddf 8bbd
00000030: 9c92 cfbd 7b80 b9bc ee81 acbc 290e b03d
00000040: 46f7 58bd d790 dfbd 5cbf 173d b026 cabd
00000050: 7098 d13d 9939 a2bd a53c a2bd 1539 593d
00000060: 35ee 18bd a0e5 dcbc 79cc f4bd 06a9 b8bd
00000070: 30e3 6ebd 56e8 ce3d 1745 76bd c4eb 74bd
00000080: d500 01bd 6ee4 d7bc dba0 abbd ff9f 6cbc
00000090: bdbf b3bd 5ccc 29bd 86c6 bd3d 6f8b aebd
000000a0: 4313 fcbd 5b74 01be 496c f6bd 782a d33b
000000b0: 07d1 1c3e 0fdc 8fbd ee47 e03d c02c 243c
000000c0: 98da a7bd bab5 0c3e 4519 a1bd ab44 073a
000000d0: 19b3 03bd c1be abbd 1187 c9bd ab2d fe3c
000000e0: a5b8 e53d 35fa 90bd 6f69 19bd 1333 cd3d
000000f0: 4163 8bbd b94a 3ebd da97 2ebd 1e4c 733d
00000100: 697b 20be 9af2 983d 5076 813a eef9 31bd
00000110: 31b8 3d3e 5cfb 84bc dd91 86bd 151b d13c
00000120: 3d91 cbbc 009d 8f3d 75c2 6d3d 3b59 ad3d
00000130: 4cea f0bd 04ec 3a3d bb3c a4bd b02b b53d
00000140: 962b 97bd 34ac 20be 3901 e6bd e051 1ebd
00000150: b340 613e cd61 693d 1a1a eebd 38a8 dabd
00000160: 69e7 51be c2a0 61be 07f6 3bbe 692e 77bd
00000170: f646 86bb a30d b73d 26ec 9bbd bac4 debd
00000180: 1f4d 3d3e 37e5 1a3e 925c 343e cb72 9dbd
00000190: 6deb cf3c 4495 53be 11e3 1ebe 5501 0c3e
000001a0: b371 c9bd 3d6b 2ebd 49a5 debb b532 ac39
000001b0: 9db2 133d 4290 d23a f7fe b93c 37b4 573c
000001c0: 9bec 2fbe 5ace fbbc b881 403e 6325 3f3e
000001d0: e9b2 aa3d 9b2a d03d bced 1f3d edd4 103c
000001e0: b13b f93b 3224 38be 41b7 07be 3a89 e0bd
000001f0: 1a92 903d 25d5 72bd 0d9f 7d3d 12a5 a33d
00000200: 3a4e 4a3e 0f50 3a3d f1b0 393d 928c fa3c
00000210: b037 b2bd 48e1 9abc a23f c53c 1256 dbbd
00000220: 61d1 e63d f7f4 63be b6cf 18be 3f0e 7fbe
00000230: 1a22 ef3d 2b67 0cbc a09f 803e a120 a6bd
00000240: c3d5 453d 9288 e7bd 42f4 8e3d ba9f 253d
00000250: 4b69 693c 44e2 783d b673 da3b 59e0 2e3e
00000260: d39a b6bd 1f2d 15bd 2224 903d 1bc6 aabd
00000270: dcbb e7bd ba15 023d 5262 833d deaa 98bd
00000280: d946 99bd fde1 81bd 6193 e13c 4d2b d4bb
00000290: 9c8f d3bd c447 093e af5f aabd 80aa 40bd
000002a0: 4952 473d 2adb 3ebd 3f3a 2c3e eedb b63c
000002b0: 98bf 0cbe b0f4 53bb 0a93 fbbb 0132 983c
000002c0: 6d33 db3d a56b 18be a0fe 36bd 6b21 603d
000002d0: 4c66 bebd 75ac e93c bac4 04bd 0df7 233e
000002e0: bac6 9fbd cd3a 083d 166b 113e 002e 1f3e
000002f0: b6f9 313d e37b 6bbc 1270 7e3d a6fb edbd
00000300: 234b 7ebd f125 2abe 839b b8bd d31e 58bd
00000310: efd2 2c3d 40c3 09bd 6d6c 58be 19f1 89bd
00000320: 72df e53c 2392 d1bd 26e9 c63d fdea bf3d
00000330: 4507 a73c 322b 07bd b5a0 5eba 1ea9 15be
00000340: 411b 04be 4213 2abc 5281 9ebd 3915 04be
00000350: 0d78 833c 5354 92bd aada c43c 571b 683e
00000360: 3fba af3d 859d d9bd de13 bfbb 3ec5 debd
00000370: 3181 c73c fb4c 9d3d e7d7 a23d 13b5 bb3d
00000380: 3650 e93c 0883 50ba 8e4c 25bb f875 5fbd
00000390: 0e90 133e 6650 083e c047 12be 8c07 c2bd
000003a0: 7345 09bd 869a 023e 42de 5b3d a2ee 9bbd
000003b0: cdda e0bd 2558 aabc 6c6f 183d 2e5b fc3c
000003c0: 5a97 5cbe 8161 2ebd 4339 2bbe 855d 3d3e
000003d0: c95c 0c3c addc 963c 9f40 dc3d e6f2 9cbb
000003e0: 1a85 d0bd b93e e4bd 61cd 0e3e 4aed 323e
000003f0: 284f 973d a9a4 41bd 044a 15be d909 07be

fc2.bias f4 [64]
-0.0005570885 0.026530275 0.00033470706 0.07776304 -0.046346318 0.08675531 0.08820123 -0.05801387
-0.088839464 -0.003912321 -0.11157159 -0.035208374 0.0110195065 0.092532136 -0.12423868 -0.041852415
0.0037748073 0.09266765 0.02415457 -0.095308855 0.1134803 -0.1010849 0.09310907 0.03202098
-0.014568576 0.06412779 0.094749965 -0.037366126 -0.09462476 0.0075299772 -0.020241287 0.041424826
-0.06369562 0.0048356387 0.12118706 -0.0630566 0.11541582 -0.094319746 -0.06342547 0.10482242
-0.024686258 -0.036394674 -0.08100502 0.05373925 0.066831835 -0.06395713 0.021568416 -0.05315056
0.10011436 -0.04276761 0.08369462 -0.12468361 0.04027864 0.1044735 0.060414687 0.1018918
0.102655 0.020550553 0.03767951 -0.11761821 -0.041987393 0.009766411 -0.03956887 -0.10487392
00000000: 9409 12ba 0556 d93c 9f7b af39 3b42 9f3d
00000010: a3d5 3dbd c5ac b13d d9a2 b43d f49f 6dbd
00000020: 77f1 b5bd ed32 80bb a57f e4bd a836 10bd
00000030: 298b 343c 7d81 bd3d d970 febd 706d 2bbd
00000040: c262 773b 89c8 bd3d cedf c53c 4a31 c3bd
00000050: 5c68 e83d 9a05 cfbd f8af be3d 6e28 033d
00000060: 09b1 6ebc 6e55 833d 450c c23d 390d 19bd
00000070: a0ca c1bd 07be f63b 0ed1 a5bc 14ad 293d
00000080: d972 82bd 4774 9e3b ec30 f83d d223 81bd
00000090: 215f ec3d b62a c1bd 36e5 81bd 23ad d63d
000000a0: d63a cabc 9512 15bd f6e5 a5bd b01d 5c3d
000000b0: 21df 883d f5fb 82bd 3fb0 b03c 67b4 59bd
000000c0: c208 cd3d 172d 2fbd 1668 ab3d 1f5a ffbd
000000d0: 37fb 243d 34f6 d53d 6475 773d a6ac d03d
000000e0: c93c d23d a259 a83c d455 1a3d d1e1 f0bd
000000f0: f9fa 2bbd 4c03 203c f812 22bd 23c8 d6bd

fc3.weight f4 [64, 64]
-0.14007597 0.096455686 0.15603934 -0.10962077 -0.024731133 0.02209827 0.05952381 -0.0099682845
0.08043563 0.06433217 -0.093222335 0.0039628483 -0.2119624 0.21080104 -0.012276969 0.115028486
0.16114345 0.17530689 0.052646957 -0.15651189 0.09784939 -0.068692744 0.16228461 -0.053138606
-0.10097942 0.0577685 -0.082199186 -0.005225402 -0.059451163 -0.08066225 0.08484492 0.08058828
0.005791109 0.023951406 -0.025403056 -0.057696965 0.06943067 0.033600576 -0.084115945 -0.053948108
-0.25488707 0.08328715 0.09455744 0.0612086 0.00916982 0.18237893 -0.0775537 0.15997693
0.027941415 0.1734691 0.123736314 0.033530943 0.05525797 0.1394633 0.012196308 0.014543681
0.10039921 0.12901135 -0.20621552 -0.040420335 0.1680216 0.034582466 0.018658567 0.015610252
-0.009446233 0.030965246 0.09933661 0.01641457 0.025653673 0.21958207 0.17295654 0.004782547
-0.1367705 0.013106794 -0.04371643 0.20410188 0.0068709212 0.25516522 0.06597394 0.01184012
0.15054238 0.07661032 0.018522508 0.018316032 0.08844026 -0.11923873 0.06864391 -0.06457041
-0.027946306 -0.13803685 -0.090253495 -0.21923481 0.16404964 -0.14061607 0.1800686 0.03357879
0.20696189 -0.014918175 -0.0442618 0.02075038 -0.15244251 -0.04147045 -0.040875833 -0.37924653
0.18717532 0.039501764 0.12617898 -0.10820011 0.11224596 -0.08327628 0.05284333 0.23393416
-0.12173586 -0.1429837 -0.10660679 0.14060424 0.08074506 0.053521674 -0.031977598 0.061244152
-0.0044454318 0.11526775 -0.1680212 0.123296 -0.02473993 -0.019438993 -0.13999058 0.13518347
0.011607596 -0.031049408 0.05924109 0.07319694 -5.2582734e-05 -0.0042661466 0.0705137 0.095335715
-0.049230978 0.09971875 -0.07306877 0.18508428 0.20213461 0.07705065 0.010020276 -0.007683145
0.13452545 -0.09881073 -0.07290527 0.14393869 -0.09894295 -0.041650534 -0.10593795 0.070905045
-0.190669 -0.16772334 -0.06892733 0.10764226 0.10910868 0.041052036 0.05448692 -0.075811975
0.01498923 -0.046625122 -0.0678175 -0.04944483 0.15750442 -0.16520937 -0.09769336 0.095366724
-0.01450243 -0.043498956 -0.046392072 0.11266964 -0.012469427 0.1018193 -0.089139536 -0.11833085
-0.03153024 0.040913332 -0.040331744 -0.06624109 0.0039929287 -0.08048196 0.07236076 -0.06561457
-0.025755405 -0.0962881 0.011251956 0.07669332 0.10128468 -0.05149388 0.16014586 -0.089465044
-0.023726376 -0.07031392 -0.07859684 0.20638731 0.12744394 -0.052001104 -0.071148336 -0.013574566
-0.1231452 -0.08613552 0.1466433 -0.046629064 -0.14405657 -0.118186906 0.0074807494 -0.0027504794
0.1445968 0.058187004 -0.10284326 0.3022203 -0.00047977496 -0.18678442 -0.24286272 -0.10404474
0.095157996 -0.052895844 0.13542826 -0.19098735 0.031239841 -0.07968886 -0.08042728 0.1374769
-0.15832213 -0.0010944295 -0.08151994 -0.08557917 0.12571117 -0.027646847 0.076023124 -0.1550507
-0.00879413 -0.11396311 -0.043839455 -0.09282895 -0.11299228 -0.064823195 0.030205678 0.08060163
-0.07368916 0.06755913 -0.113709696 0.0526844 0.085308865 0.12497464 -0.06633024 0.08735921
0.15785098 -0.1104933 -0.12656777 -0.18698941 0.10613693 -0.089080274 0.06947057 -0.1637266
00000000: 1370 0fbe 8f8a c53d c7c8 1f3e db80 e0bd
00000010: f298 cabc 6e07 b53c 3dcf 733d 0452 23bc
00000020: 70bb a43d 96c0 833d 5aeb bebd c8da 813b
00000030: ac0c 59be 3adc 573e 5725 49bc 0e94 eb3d
00000040: ca02 253e a683 333e 56a4 573d a744 20be
00000050: 4365 c83d c8ae 8cbd f02d 263e dea7 59bd
00000060: 4cce cebd aa9e 6c3d 0c58 a8bd d939 abbb
00000070: 1083 73bd 4032 a5bd 2cc3 ad3d 780b a53d
00000080: 58c3 bd3b bd35 c43c 121a d0bc a753 6cbd
00000090: ab31 8e3d c2a0 093d fb44 acbd b1f8 5cbd
000000a0: 8f80 82be 7492 aa3d 55a7 c13d deb5 7a3d
000000b0: 033d 163c 8bc1 3a3e 79d4 9ebd fed0 233e
000000c0: 65e5 e43c e2a1 313e 7769 fd3d be57 093d
000000d0: 2e56 623d 78cf 0e3e 06d3 473c 9f48 6e3c
000000e0: 1a9e cd3d 8d1b 043e 292a 53be cb8f 25bd
000000f0: db0d 2c3e 58a6 0d3d dad9 983c 24c2 7f3c
00000100: 5fc4 1abc d4aa fd3c fe70 cb3d d977 863c
00000110: a727 d23c 1fda 603e 851b 313e e9b6 9c3b
00000120: 910d 0cbe e1bd 563c 0010 33bd 1500 513e
00000130: 7725 e13b 04a5 823e 581d 873d 10fd 413c
00000140: c827 1a3e dfe5 9c3d 84bc 973c 810b 963c
00000150: 2b20 b53d 6f33 f4bd 2e95 8c3d 7e3d 84bd
00000160: a7ef e4bc 8859 0dbe d3d6 b8bd 177f 60be
00000170: a1fc 273e a9fd 0fbe e763 383e ea89 093d
00000180: d1ed 533e 5c6b 74bc dc4b 35bd b3fc a93c
00000190: e419 1cbe ebdc 29bd 6b6d 27bd 9a2c c2be
000001a0: e3aa 3f3e 9acc 213d 1035 013e 0598 ddbd
000001b0: 36e1 e53d c18c aabd 3f72 583d 708c 6f3e
000001c0: a750 f9bd 526a 12be a954 dabd 8ffa 0f3e
000001d0: ab5d a53d 8b39 5b3d f1fa 02bd 26db 7a3d
000001e0: fcaa 91bb 8011 ec3d c00d 2cbe 9d82 fc3d
000001f0: 65ab cabc 863e 9fbc b159 0fbe 896d 0a3e
00000200: c92d 3e3c 545b febc c9a6 723d 47e8 953d
00000210: 488c 5cb8 08cb 8bbb 7d69 903d 5f3f c33d
00000220: 6ca6 49bd 5839 cc3d 14a5 95bd bc86 3d3e
00000230: 60fc 4e3e bbcc 9d3d 152c 243c e4c2 fbbb
00000240: 0ac1 093e 485d cabd 5c4f 95bd aa64 133e
00000250: 9aa2 cabd c099 2abd fff5 d8bd aa36 913d
00000260: bc3e 43be abbf 2bbe c629 8dbd 8c73 dc3d
00000270: 5f74 df3d 2e26 283d ad2d 5f3d 4f43 9bbd
00000280: 6395 753c fcf9 3ebd e7e3 8abd a986 4abd
00000290: d748 213e a52c 29be 7513 c8bd a14f c33d
000002a0: 9a9b 6dbc f62b 32bd 9d05 3ebd 57bf e63d
000002b0: 914c 4cbc a386 d03d ca8e b6bd 7257 f2bd
000002c0: da25 01bd bd94 273d e632 25bd 69a9 87bd
000002d0: 1dd7 823b bad3 a4bd e131 943d ef60 86bd
000002e0: 00fd d2bc b232 c5bd 205a 383c 6311 9d3d
000002f0: 586e cf3d 3feb 52bd 47fd 233e 7339 b7bd
00000300: d15d c2bc bf00 90bd 61f7 a0bd 3257 533e
00000310: aa80 023e 1cff 54bd 38b6 91bd db67 5ebc
00000320: 8d33 fcbd d267 b0bd a929 163e 1efe 3ebd
00000330: 9183 13be fa0b f2bd 1321 f53b 6341 34bb
00000340: 2f11 143e 7f55 6e3d 7d9f d2bd 9fbc 9a3e
00000350: 4e8a fbb9 6a44 3fbe 01b1 78be 6915 d5bd
00000360: 32e2 c23d 50a9 58bd b5ad 0a3e 3092 43be
00000370: b2ea ff3c ea33 a3bd 0fb7 a4bd bfc6 0c3e
00000380: 321f 22be f672 8fba edf3 a6bd 2244 afbd
00000390: 6eba 003e a47b e2bc 03b2 9b3d 9cc5 1ebe
000003a0: 4115 10bc 7e65 e9bd 0091 33bd 1b1d bebd
000003b0: 7f68 e7bd 06c2 84bd e671 f73c 7812 a53d
000003c0: 58ea 96bd 715c 8a3d a1e0 e8bd 99cb 573d
000003d0: 6ab6 ae3d b4f2 ff3d 26d8 87bd 63e9 b23d
000003e0: b0a3 213e 504a e2bd fb9a 01be 277a 3fbe
000003f0: 525e d93d b86f b6bd 9646 8e3d f2a7 27be

fc3.bias f4 [64]
-0.09468001 0.07820891 0.03318281 0.08968046 -0.08316696 -0.05203145 -0.12681808 -0.014573196
0.025597855 0.07843763 0.058437556 0.007753311 -0.02083741 -0.13000508 0.06160186 -0.06546738
0.0956513 -0.07298685 -0.008715762 -0.004702555 -0.0424204 0.02964446 0.056021947 -0.05140687
-0.09799243 -0.11028707 -0.10897928 -0.087021925 0.0018466308 0.006012537 0.003211612 -0.017727178
0.021280192 -0.04690928 -0.035382237 -0.07881859 -0.10549773 0.020436589 -0.11907448 0.10534855
-0.010261371 0.07159393 -0.03898534 0.0015970484 0.029841274 -0.050981004 -0.061483614 -0.051812682
0.10245409 -0.091488056 0.115760595 0.057661124 0.04781928 0.03766355 -0.049024496 0.038622037
0.014909189 -0.11563768 0.07003568 -0.12029376 -0.002668181 -0.048804488 -0.05209481 -0.07284437
00000000: 98e7 c1bd fe2b a03d b3ea 073d 64aa b73d
00000010: 7053 aabd ee1e 55bd 99dc 01be 6ac4 6ebc
00000020: 98b2 d13c e8a3 a03d 385c 6f3d 7d0f fe3b
00000030: 37b3 aabc 0d20 05be 3b52 7c3d c313 86bd
00000040: d4e4 c33d 217a 95bd 8ecc 0ebc e417 9abb
00000050: 03c1 2dbd f0d8 f23c 4577 653d 0390 52bd
00000060: 41b0 c8bd 30de e1bd 8730 dfbd 8d38 b2bd
00000070: a60a f23a d104 c53b e979 523b 9638 91bc
00000080: cc53 ae3c f223 40bd f7ec 10bd a46b a1bd
00000090: 320f d8bd a26a a73c 52dd f3bd fbc0 d73d
000000a0: 4f1f 28bc d79f 923d 18af 1fbd 0d54 d13a
000000b0: b075 f43c 75d1 50bd 3ed6 7bbd 8939 54bd
000000c0: 73d3 d13d 175e bbbd e413 ed3d 122e 6c3d
000000d0: 26de 433d 1845 1a3d e9cd 48bd 2432 1e3d
000000e0: ac45 743c 73d3 ecbd de6e 8f3d 935c f6bd
000000f0: a6dc 2ebb 37e7 47bd 5e61 55bd 6e2f 95bd

fc4.weight f4 [27, 64]
0.13932103 0.006439158 0.032510187 0.17752346 -0.07588534 0.19308001 -0.15664503 -0.121028334
0.1856975 -0.087314315 0.052861515 0.1649444 0.185916 0.019552482 0.158095 0.07035836
0.05091276 -0.10666234 -0.109271795 -0.11578497 0.062390324 0.012176944 0.1439501 0.16623898
-0.10929866 0.17544422 -0.098341234 -0.07129869 0.14458747 -0.07629141 -0.12840022 0.35555083
-0.06131875 -0.024135971 -0.16770926 0.038115535 -0.025567403 -0.14036 0.012599272 -0.09617033
-0.10734999 -0.06327694 0.15074362 0.1185867 -0.08104182 0.1713941 0.107517235 0.18046732
-0.030833682 -0.18930128 -0.1537034 -0.08610965 -0.05408764 0.08264688 -0.12311323 -0.09993092
-0.18483698 0.095911756 0.09511757 0.19323783 0.0055197547 -0.0815245 0.1346419 0.093411766
-0.17389865 -0.029456578 0.056304738 -0.070932 0.18817055 0.15234376 0.06104597 0.16677725
-0.25829 0.012393001 -0.17949 -0.22060327 0.03561189 -0.062848896 0.024124091 0.31518918
0.08999383 0.08105519 -0.08000194 0.09678479 0.031066068 0.08481858 -0.09123698 -0.06658232
0.13887066 -0.07036567 -0.18675938 -0.04081089 -0.006626396 0.3023005 -0.05186098 -0.041250665
-0.08157653 -0.03656464 -0.096783385 -0.010804533 0.11190466 0.16411407 -0.08072583 0.13414098
-0.04426434 -0.0341505 0.23548281 0.1647182 0.010783531 -0.0038565623 -0.25812986 -0.15686487
0.09287304 -0.110176176 0.0005569815 0.105520524 -0.12849216 -0.014525471 -0.058882583 -0.006882305
-0.0042244066 0.19667222 -0.11369938 -0.13786016 -0.20301779 0.033328697 0.020695524 -0.03813215
-0.17175545 -0.03831863 0.047392 0.059047867 -0.12050556 0.15776697 0.14575662 -0.24151164
0.09780635 -0.086008444 0.18066926 0.1579111 -0.044727307 -0.029743914 0.037166387 0.18194188
-0.0206609 0.0857045 -0.027148241 -0.11059826 0.21432512 0.012141871 -0.11970207 0.005129524
-0.05784107 -0.35124832 0.028709298 -0.07237853 0.039790597 0.029750928 -0.013488103 0.047595743
-0.09193948 -0.18031514 0.0755037 0.045409873 0.15405509 0.065301806 -0.121296905 -0.23107457
0.028737249 0.13384211 -0.13472909 -0.13016292 -0.19625987 0.008314391 -0.11844317 -0.2762355
0.032522567 0.2958522 0.12390601 -0.04246432 0.06100231 0.07603114 -0.017576981 -0.14130542
-0.33725774 -0.121801116 0.22067681 0.07779417 0.0025189808 -0.26051036 0.084146515 -0.07108817
-0.13978873 0.12943542 -0.12549305 0.28783402 -0.015766555 0.08627918 -0.14054467 0.023934241
-0.05849085 0.22504655 0.12569971 -0.020616617 0.058786273 0.021951692 0.06358867 0.05730217
0.08687398 -0.13978548 0.15351537 0.065867744 -0.14817241 0.01371703 0.06958505 -0.05164081
-0.2907748 0.017298978 -0.008432042 -0.06574749 -0.07631868 -0.1937204 0.17286427 0.089263596
0.024315061 -0.009187918 -0.18916947 -0.116018206 0.21375468 -0.18735883 -0.15155633 0.07818347
-0.055910684 -0.17153999 0.09570294 0.32749242 0.23538087 -0.011457236 -0.002873544 -0.21274783
0.03593205 0.11824486 -0.19918166 0.093661696 0.15586288 -0.060642317 0.13924825 0.088967025
-0.042990528 -0.2771135 -0.14653924 -0.051866136 0.2014705 0.08168029 0.12632263 0.02043831
00000000: 2caa 0e3e 93ff d23b 6729 053d b6c8 353e
00000010: c669 9bbd c4b6 453e 8e67 20be b4dd f7bd
00000020: 7c27 3e3e d9d1 b2bd 5185 583d 2fe7 283e
00000030: c460 3e3e 872c a03c a8e3 213e 0b18 903d
00000040: e689 503d c971 dabd e4c9 dfbd ac20 edbd
00000050: ff8c 7f3d ce81 473c a867 133e 8d3a 2a3e
00000060: fad7 dfbd a6a7 333e 2167 c9bd 0c05 92bd
00000070: bd0e 143e ac3e 9cbd 597b 03be c20a b63e
00000080: 5f29 7bbd cdb8 c5bc fabb 2bbe 091f 1c3d
00000090: bb72 d1bc 88ba 0fbe 2d6d 4e3c f3f4 c4bd
000000a0: 50da dbbd 5797 81bd 895c 1a3e 95dd f23d
000000b0: 41f9 a5bd ef81 2f3e ff31 dc3d 6dcc 383e
000000c0: eb96 fcbc 32d8 41be 6d64 1dbe 425a b0bd
000000d0: 008b 5dbd c442 a93d ca22 fcbd 95a8 ccbd
000000e0: e845 3dbe 626d c43d 00cd c23d 23e0 453e
000000f0: 0fdf b43b 51f6 a6bd 91df 093e ab4e bf3d
00000100: 7d12 32be ec4e f1bc cc9f 663d cc44 91bd
00000110: c8af 403e 0100 1c3e 570b 7a3d a8c7 2a3e
00000120: 963e 84be 030c 4b3c 3acc 37be d3e5 61be
00000130: c6dd 113d ecb6 80bd e39f c53c 7a60 a13e
00000140: af4e b83d 4300 a63d 0fd8 a3bd 1b37 c63d
00000150: 447e fe3c 5db5 ad3d 74da babd 505c 88bd
00000160: 1c34 0e3e e01b 90bd da3d 3fbe 5229 27bd
00000170: 3d22 d9bb 22c7 9a3e 2e6c 54bd 75f6 28bd
00000180: 9911 a7bd cec4 15bd 5e36 c6bd 7f05 31bc
00000190: 452e e53d 850d 283e 9553 a5bd 415c 093e
000001a0: 864e 35bd 65e1 0bbd 6822 713e e3ab 283e
000001b0: 68ad 303c 61be 7cbb 9929 84be 2fa1 20be
000001c0: 3834 be3d 0ca4 e1bd 6502 123a 251b d83d
000001d0: 7393 03be 3efc 6dbc dd2e 71bd f584 e1bb
000001e0: e46c 8abb 7164 493e 38db e8bd 372b 0dbe
000001f0: e5e3 4fbe ac83 083d a989 a93c 7530 1cbd
00000200: a9e0 2fbe fff3 1cbd 1d1e 423d 2ddc 713d
00000210: 9ecb f6bd aa8d 213e 3941 153e d44e 77be
00000220: b24e c83d 3225 b0bd 5d01 393e 73b3 213e
00000230: fb33 37bd 82a9 f3bc c83b 183d f94e 3a3e
00000240: 0c41 a9bc d785 af3d fd65 debc 5781 e2bd
00000250: 0b78 5b3e b3ee 463c 5c26 f5bd 9115 a83b
00000260: c2ea 6cbd d2d6 b3be c32f eb3c 323b 94bd
00000270: 77fb 223d 38b8 f33c 34fd 5cbc c1f3 423d
00000280: c44a bcbd 88a4 38be afa1 9a3d b4ff 393d
00000290: 9ec0 1d3e f4bc 853d 836a f8bd d09e 6cbe
000002a0: 616a eb3c e80d 093e 6cf6 09be 6e49 05be
000002b0: 59f8 48be 1539 083c 5592 f2bd bd6e 8dbe
000002c0: 6236 053d f179 973e 6fc2 fd3d 11ef 2dbd
000002d0: 8fdd 793d 37b6 9b3d 9afd 8fbc 5eb2 10be
000002e0: 0cad acbe dd72 f9bd 1af9 613e 8d52 9f3d
000002f0: 7c15 253b 9d61 85be 0255 ac3d ad96 91bd
00000300: c724 0fbe b88a 043e 4081 00be fb5e 933e
00000310: dd28 81bc 24b3 b03d f1ea 0fbe be11 c43c
00000320: 1a94 6fbd 9a72 663e 6db7 003e 2ee4 a8bc
00000330: e0c9 703d 09d4 b33c c73a 823d aeb5 6a3d
00000340: fcea b13d ed23 0fbe 2233 1d3e abe5 863d
00000350: 82ba 17be 65bd 603c 9b82 8e3d 5085 53bd
00000360: 6fe0 94be 96b6 8d3c 8c26 0abc 9fa6 86bd
00000370: f84c 9cbd a45e 46be 5503 313e d5cf b63d
00000380: 6130 c73c ec88 16bc a4b5 41be f49a edbd
00000390: 82e2 5a3e feda 3fbe 9531 1bbe a81e a03d
000003a0: 9a02 65bd 2ea8 2fbe e7ff c33d 16ad a73e
000003b0: af07 713e 21b7 3bbc 1252 3cbb 91da 59be
000003c0: 7c2d 133d 5c2a f23d 47f6 4bbe b4d1 bf3d
000003d0: 859a 1f3e 1464 78bd 1897 0e3e 5834 b63d
000003e0: d616 30bd d2e1 8dbe 620e 16be 9671 54bd
000003f0: 484e 4e3e ff47 a73d b85a 013e 3e6e a73c

fc4.bias f4 [27]
-0.015647234 -0.0118017215 -0.124140464 -0.09540908 0.11163689 0.037185095 0.047930337 0.03205636
-0.00377139 -0.09027473 -0.014800731 0.051446054 0.04754535 -0.08137863 0.08894568 -0.087306716
0.045342956 -0.05968909 -0.016113952 0.017815975 -0.085851446 0.0889891 0.11159727 0.0490564
0.056383386 0.12727064 0.064785056
00000000: a12e 80bc 025c 41bc 5b3d febd d665 c3bd
00000010: e2a1 e43d 664f 183d 9a52 443d 884d 033d
00000020: 6d29 77bb f5e1 b8bd c47e 72bc 19b9 523d
00000030: eabe 423d d7a9 a6bd 2729 b63d ddcd b2bd
00000040: 89b9 393d 8c7c 74bd 6801 84bc cff2 913c
00000050: e2d2 afbd eb3f b63d 1c8d e43d 5def 483d
00000060: 44f2 663d 3c53 023e 07ae 843d
