src/cached_data/trained_models/model_200_16.pt (torch_old, 78590 bytes, 8 tensors)

fc1.weight f4 [64, 144]
0	0x3d305400	0.04304886
1	0xbd9cad36	-0.07650225
2	0xbe0dd6e3	-0.13851504
3	0xbe04dd98	-0.12975156
4	0xbcc5d06d	-0.024147237
5	0xbc8d851f	-0.017275391
6	0xbd9f0321	-0.07764269
7	0xbe0099de	-0.12558696
8	0xbd6f15eb	-0.058370512
9	0xbd5882f6	-0.05285927
10	0xbd8b95e4	-0.06815699
11	0xbc8a4ffb	-0.01688384
12	0xbe10a60f	-0.14125846
13	0xbd49a856	-0.049232803
14	0xbe07a63f	-0.13247012
15	0xbe00928c	-0.12555903
16	0x3e1ecf33	0.15508728
17	0x3d92fb90	0.07176888
18	0x3e2605ec	0.16213197
19	0x3e1d48c3	0.15359788
20	0x3dde5c0f	0.108574025
21	0x3df08fe6	0.117461964
22	0x3d512483	0.05106021
23	0x3de07a96	0.109608814
24	0xbda552a6	-0.080724046
25	0x3d69fc65	0.057125468
26	0xbd9d1ea1	-0.076718576
27	0x3d9b3531	0.07578505
28	0xbc9b3c86	-0.018949758
29	0xbd8d62bc	-0.06903598
30	0x3d80426d	0.0626267
31	0x3d56797b	0.052361947
32	0x3d318d5b	0.043347698
33	0x3cb55587	0.02213551
34	0xbd6a87b7	-0.057258334
35	0x3b51fdef	0.0032042225
36	0xbc7d22ce	-0.015450193
37	0xbd3656d5	-0.044516403
38	0xbd588199	-0.05285797
39	0xbd98e61d	-0.074657656
40	0xbc12653b	-0.008935268
41	0x3da95a39	0.08269162
42	0xbd1d8ec1	-0.03846622
43	0x3d3b680d	0.045753527
44	0x3cb89fe1	0.022537174
45	0x3d49779e	0.04918634
46	0x3df531e6	0.11972408
47	0x3de81bff	0.11333465
48	0x3d8f6e01	0.070034035
49	0xbca6a804	-0.020343788
50	0x3d98544b	0.074379526
51	0x3d896ce2	0.06710221
52	0x3de47020	0.11154199
53	0x3e001ee4	0.12511784
54	0x3d1b272e	0.03787916
55	0x3def8338	0.1169495
56	0xbdc32862	-0.09529187
57	0x3c8cb6c2	0.01717699
58	0xbdebb53a	-0.115091756
59	0xbd8ae495	-0.0678188
60	0xbdf00e98	-0.117215335
61	0xbcd9d60b	-0.026591321
62	0xbdc4956d	-0.09598813
63	0xbd5c20be	-0.053742163
64	0xbd9b151d	-0.075723864
65	0x3d8d845c	0.06910011
66	0xbcfa2eef	-0.030539958
67	0xbcfac74e	-0.030612614
68	0x3d43df99	0.04782066
69	0x3d45eef8	0.0483236
70	0x3d1170e9	0.03550807
71	0x3d300b44	0.042979494
72	0x3d895748	0.06706101
73	0xba522629	-0.00080165506
74	0xbd600f3b	-0.054702025
75	0xbd3685d6	-0.04456123
76	0x3cbea4ee	0.023272004
77	0xbd023b4b	-0.031794827
78	0xbd6f8fed	-0.058486868
79	0x3d778775	0.060431916
80	0x3e0698c4	0.13144213
81	0x3dc364cc	0.0954071
82	0x3d624e0e	0.05525022
83	0x3c315a7d	0.010824797
84	0x3e21c73c	0.15798658
85	0x3e2692e2	0.16266969
86	0x3e23c3ee	0.1599271
87	0x3e387728	0.18014205
88	0xbd8f0e1b	-0.06985112
89	0xbdc58855	-0.09645144
90	0xbcc23368	-0.023706153
91	0xbdc98a77	-0.09840863
92	0xbd5ed95d	-0.054406513
93	0xbd8533fc	-0.06504056
94	0xbd0afdfe	-0.033933632
95	0xbd6f5181	-0.058427338
96	0xbcc0aa1a	-0.02351861
97	0xbdb6660d	-0.089061834
98	0x3d3e9e0a	0.046537437
99	0xbd76022d	-0.06006067
100	0xbc2a9ed5	-0.010413845
101	0x3a068127	0.00051309395
102	0x3d8fd255	0.070225395
103	0x3d4c23f9	0.049838994
104	0x3cc307f8	0.02380751
105	0x3d9ded86	0.077113196
106	0xbb407f02	-0.0029372578
107	0x3d81ec8b	0.06343945
108	0xbda0c230	-0.07849538
109	0x3d81f79e	0.06346057
110	0xbce44a8b	-0.027867576
111	0x3d22c4b4	0.039738372
112	0xbd8862fd	-0.066595055
113	0x3daadd18	0.083429515
114	0x3d8d31cd	0.06894264
115	0x3ddf8b77	0.10915273
116	0x3e05bf7e	0.1306133
117	0x3d115414	0.035480574
118	0x3dbca046	0.09210257
119	0x3de70039	0.11279339
120	0x3c48688c	0.012231957
121	0x3c124c64	0.008929346
122	0xbd63a902	-0.0555811
123	0x3c4db8a0	0.012556225
124	0x3b86dd01	0.004115701
125	0xbd6f84a7	-0.058476117
126	0xbbe03762	-0.0068425396
127	0x3b239df5	0.0024965976
128	0xbd17d5d1	-0.037069146
129	0x3d823153	0.06357064
130	0xbda8edd9	-0.08248491
131	0x3b4e5d2d	0.0031488643
132	0xbde3d605	-0.11124805
133	0xbc813449	-0.015772002
134	0xbb5e70bb	-0.0033941704
135	0xbd5679ed	-0.05236237
136	0x3ccf9c47	0.025343074
137	0x3d93691c	0.071977824
138	0x3dcb97de	0.09941076
139	0x3d62bb30	0.055354297
140	0x3d0febf2	0.035137124
141	0x3c95b7fd	0.018276209
142	0xbd3c7c0e	-0.046016745
143	0x3d9051d1	0.07046855
144	0xbd7a95e7	-0.061178114
145	0xbbd257d2	-0.0064191604
146	0x3d0c1c01	0.034206394
147	0x3a54fa40	0.00081244484
148	0xbdb449b0	-0.08803117
149	0xbde264d0	-0.11054385
150	0xbddd2d94	-0.10799709
151	0xbdfbc5e9	-0.12293608
152	0xbd9ee0db	-0.077577315
153	0x3d09edeb	0.033674162
154	0x3d519f0a	0.051177062
155	0xbdfc10fd	-0.12307928
156	0xbba78054	-0.0051117335
157	0xbdf68887	-0.12037759
158	0xbd9c49dd	-0.07631276
159	0x3ba78d8b	0.005113309
160	0x3e2c7b55	0.16843922
161	0x3cef5ac4	0.029218085
162	0x3cfef352	0.031121884
163	0x3dac5cff	0.08416175
164	0x3dcf07fd	0.101089455
165	0x3e0661fd	0.13123317
166	0x3da5f2a4	0.08102921
167	0x3e0186d6	0.12649092
168	0x3d04275e	0.032264106
169	0x3de55572	0.11197938
170	0x3db33c4f	0.08751737
171	0x3c88ac37	0.016683681
172	0x3cc0b747	0.023524893
173	0x3dd7ac84	0.105309516
174	0x3c1313f6	0.008976927
175	0x3cc6507b	0.024208298
176	0x3da0ce00	0.078517914
177	0x3dacbe4d	0.084347345
178	0xbcc8a0e3	-0.02449078
179	0x3d24eded	0.040265966
180	0x3cd5ae5e	0.026084121
181	0x3d7a2773	0.061072778
182	0xbdad329b	-0.08456918
183	0x3cbb7d61	0.022886934
184	0xbd9c4d38	-0.07631916
185	0xbdbc55f7	-0.09196084
186	0xbdfcf59a	-0.12351532
187	0xbd29767e	-0.04137277
188	0xbe0f9697	-0.14022289
189	0xbd4c14e6	-0.049824618
190	0xbe2b8028	-0.16748106
191	0xbdd66ffa	-0.104705766
192	0xbd9ac96b	-0.07557949
193	0x3e060658	0.13088357
194	0x3ceadefb	0.028670778
195	0x3db75183	0.08951094
196	0xbc4a5cff	-0.012351274
197	0x3bc4e9d8	0.0060093217
198	0x3d7d895e	0.06189858
199	0x3dd75e29	0.105160065
200	0xbdb94b25	-0.09047536
201	0x3bf411f4	0.0074484292
202	0xbd1e88ee	-0.038704805
203	0x3c9b0cba	0.018926967
204	0xbd2150fe	-0.03938388
205	0xbc88d756	-0.016704243
206	0x3d99345b	0.07480689
207	0xbd271b37	-0.04079744
208	0xbd2b9705	-0.04189207
209	0xbdce3883	-0.100693725
210	0xbca9f4f8	-0.020746693
211	0xbd4a5a07	-0.049402263
212	0xbccef42f	-0.02526292
213	0xbc749ffe	-0.014930723
214	0x3c8edfa0	0.017440617
215	0x3d10c9a9	0.035348568
216	0xbe17052e	-0.1474807
217	0xbc924229	-0.017853813
218	0xbd81a886	-0.063309714
219	0x3c88e269	0.016709523
220	0xbd44acf5	-0.048016507
221	0x3c8524f4	0.016252972
222	0xbde0b220	-0.10971475
223	0x3ca7d932	0.020489309
224	0x3dddc52f	0.108286254
225	0x3e0abe70	0.13549209
226	0x3dcdf3b7	0.100562505
227	0x3db38202	0.087650314
228	0x3e097240	0.13422489
229	0x3c90115d	0.017586404
230	0x3c423f60	0.01185593
231	0x3c8600bb	0.01635777
232	0x3e17be8e	0.14818785
233	0x3dc431a0	0.09579778
234	0x3df83e7f	0.12121295
235	0x3d49960b	0.049215358
236	0x3e0bf8e2	0.1366916
237	0x3c31c304	0.010849718
238	0x3dc86b7e	0.097861275
239	0x3ddd18d0	0.10795748
240	0x3a8125f0	0.0009853225
241	0xbd47ab78	-0.04874751
242	0xbdb216bb	-0.08695742
243	0xbd52dd25	-0.05148043
244	0xbd8a4358	-0.06751126
245	0xbda76a55	-0.08174578
246	0xbdad56ca	-0.08463819
247	0xbd845490	-0.064614415
248	0xbd1063cb	-0.03525142
249	0xba0aab3e	-0.00052897993
250	0xbdaf26af	-0.085523
251	0x3c85f24a	0.016350884
252	0xbb84c701	-0.0040520434
253	0xbd69d8b5	-0.057091434
254	0xbdf6a0f3	-0.120424174
255	0xbdf2cdfc	-0.11855695

fc1.bias f4 [64]
0	0xbd8242e1	-0.063604124
1	0xbc80a064	-0.01570148
2	0x3d4b4a62	0.049631484
3	0x3c2bb015	0.010478993
4	0x3d870488	0.06592661
5	0x3c262dbb	0.010142739
6	0xbc8a5ed6	-0.016890924
7	0xbcba0731	-0.022708507
8	0x3d2f75ac	0.04283683
9	0x3d9e8e5a	0.07741995
10	0xbd66bc85	-0.05633213
11	0x3d67008c	0.056397006
12	0x3d88e847	0.066849284
13	0x3bba4fbf	0.005685776
14	0xbd8bebc0	-0.06832075
15	0xbd393486	-0.045216106
16	0xbd0ce4de	-0.034397952
17	0xbcf2c0b2	-0.0296329
18	0x3d86f477	0.06589597
19	0x3d07da46	0.033167146
20	0xbce99de3	-0.028517669
21	0x3d4afd7a	0.04955814
22	0xbd14a226	-0.03628745
23	0xbc5bb00b	-0.013408671
24	0xbd97af5b	-0.07406493
25	0xbcd21b49	-0.025647776
26	0x3b17cc85	0.0023162675
27	0x3cc25b91	0.023725303
28	0x3ca7d3f5	0.020486811
29	0xbc1d3ff3	-0.009597766
30	0x3cbda1ae	0.023148384
31	0x3cb99a0a	0.02265646
32	0xbcd31dea	-0.0257711
33	0x3d2e0a8f	0.04249054
34	0xbcbcd78d	-0.023052001
35	0xbd9a894f	-0.07545721
36	0x3d4c2091	0.049835745
37	0x3cfb1127	0.030647827
38	0x3d92d752	0.07169975
39	0x3d54d870	0.051964223
40	0x3b0dc8d4	0.0021634595
41	0xbce3b778	-0.027797446
42	0xbc6b84da	-0.014374936
43	0xbc809ef0	-0.015700787
44	0x3cffc3ea	0.031221349
45	0xbb804436	-0.0039143814
46	0x3d851b48	0.06499344
47	0xbcbdec06	-0.023183834
48	0xbd2ae0b4	-0.0417182
49	0xbd983148	-0.07431275
50	0xbda85f55	-0.08221308
51	0xbd64ec27	-0.055889275
52	0xbda493c5	-0.08035997
53	0xbd7e1264	-0.062029257
54	0x3d22e2dc	0.03976713
55	0x3d552790	0.052039683
56	0xbd52eb7f	-0.051494118
57	0xbd95377e	-0.07285975
58	0x3d13eb3d	0.036113013
59	0xbd4edd8f	-0.050504263
60	0x3d912db9	0.07088799
61	0xbcfe9db5	-0.03108106
62	0x3d308983	0.04309989
63	0xbd5c6d5a	-0.053815223

fc2.weight f4 [64, 64]
0	0x3d839617	0.06425112
1	0x3e7eecdf	0.24895047
2	0x3dfefdcf	0.12450754
3	0x3c5b2a86	0.013376838
4	0x3df1fa52	0.11815323
5	0x3e6418b4	0.22275048
6	0x3df26fef	0.11837756
7	0xbe2584c7	-0.16163932
8	0xbcb0d2b5	-0.021584848
9	0xbd988aac	-0.074483246
10	0xbdc8ba99	-0.09801216
11	0x3d407738	0.046988696
12	0x3c70f90b	0.014707814
13	0xbd868654	-0.0656859
14	0xbd8629de	-0.06550954
15	0xbcab7b50	-0.020932823
16	0x3d356790	0.044288218
17	0xbd3c272a	-0.045935787
18	0x3da50dda	0.080592826
19	0xbd76bd72	-0.060239263
20	0xbe4c0bd2	-0.19926384
21	0x3d0ae083	0.033905517
22	0xbb519a14	-0.0031982707
23	0x3d995d4d	0.07488499
24	0x3e4273c5	0.18989475
25	0xbcc5fdad	-0.024168814
26	0x3e238739	0.15969552
27	0xbb9a223c	-0.004703788
28	0xbd22cca6	-0.03974595
29	0xbce3fcfa	-0.02783059
30	0x3cad3f4c	0.021148346
31	0x3d293bbd	0.041316736
32	0xbdff6ba6	-0.12471704
33	0x3d66e3cc	0.056369588
34	0x3e5c781a	0.2153019
35	0xbe2ebbc6	-0.17063817
36	0xbd8b8327	-0.06812125
37	0xbdde0f3e	-0.10842751
38	0xbe1e7e54	-0.15477878
39	0xbe21f099	-0.15814437
40	0xbc859d31	-0.016310306
41	0x3d015583	0.03157569
42	0xbc0d5ff4	-0.008628834
43	0x3d6c6bc6	0.05771997
44	0xbcb216e4	-0.02173943
45	0xbdd95568	-0.10611993
46	0x3c13ef85	0.009029274
47	0x3d95fdb5	0.073237814
48	0xbe640929	-0.2226912
49	0xbd901ce3	-0.0703676
50	0x3d54da81	0.051966194
51	0x3e428d0e	0.1899912
52	0xbdb154b9	-0.08658738
53	0x3d4edb4e	0.050502114
54	0x3df5cf2b	0.12002405
55	0x3cf9a488	0.030473962
56	0xbd902d2b	-0.07039865
57	0x3db0b57d	0.08628366
58	0x3d8773f0	0.0661391
59	0x3d5d58e3	0.054039847
60	0xbe2b71fb	-0.16742699
61	0xbe11c43d	-0.14235015
62	0xbd5ac0f1	-0.05340666
63	0xbd53e36d	-0.051730562
64	0xbdc0884c	-0.094009966
65	0xbdb7d4d9	-0.08976144
66	0x3e589446	0.21150312
67	0xbdbae0b7	-0.09124892
68	0x3d09257e	0.03348302
69	0x3cb5f409	0.022211092
70	0x3dcd0032	0.10009803
71	0x3d0c4162	0.03424204
72	0x3d35763c	0.04430221
73	0x3e19af3f	0.15008257
74	0xbdebcddb	-0.11513873
75	0xbe041421	-0.12898304
76	0xbe09be96	-0.13451609
77	0x3df4371d	0.119245745
78	0x3e848610	0.25883532
79	0x3bcbce40	0.0062196553
80	0x3e571f0c	0.21007937
81	0xbcefa3e7	-0.02925296
82	0x3be68571	0.0070349504
83	0xbcd8dae9	-0.026471572
84	0x3e7b89df	0.24564312
85	0x3c0d978d	0.00864209
86	0x3db94790	0.090468526
87	0x3d95857d	0.073008515
88	0x3d6a36e5	0.057181258
89	0xbd9cc24b	-0.07654246
90	0xbd3b7576	-0.045766316
91	0x3ceb63e7	0.02873416
92	0xbd8ee2cd	-0.069768526
93	0x3c9c7883	0.019100433
94	0xbd9248c4	-0.07142785
95	0x3de7deef	0.11321818
96	0x3d85dcdb	0.065362655
97	0xbda10e38	-0.0786404
98	0x3e85f69f	0.2616472
99	0x3dfca547	0.12336212
100	0xbd98c6f1	-0.0745982
101	0x3d8570e7	0.06515675
102	0x3dbc7cf0	0.092035174
103	0x3de8f6ff	0.11375236
104	0x3d7c07ad	0.061530758
105	0x3d5dd9df	0.054162856
106	0x3e3e0d51	0.18559767
107	0x3db94a70	0.09047401
108	0x3dbf59c2	0.09343292
109	0xbd495d45	-0.049161214
110	0xbe298e37	-0.16558157
111	0xbac31036	-0.001488215
112	0x3c414bbc	0.011797842
113	0xbe289ea4	-0.16466767
114	0xbda78758	-0.08180112
115	0xbdbb136f	-0.09134566
116	0xbde40849	-0.11134393
117	0xbd4b8976	-0.04969164
118	0xbde00bd9	-0.1093976
119	0xbe81ec49	-0.25375584
120	0x3d43185d	0.047630657
121	0xbd5486ab	-0.051886242
122	0x3ddeef05	0.10885433
123	0xbc77d397	-0.015126131
124	0x3d6941d6	0.05694755
125	0xbe362ea5	-0.17791231
126	0x3c743886	0.014906054
127	0xbde6a9a2	-0.11262824
128	0xbe376a7d	-0.17911716
129	0x3e474513	0.19459943
130	0xbe24c912	-0.16092327
131	0xbc56592f	-0.013082786
132	0xbe315a42	-0.17319587
133	0xbe33f316	-0.17573199
134	0xbcd56d32	-0.026053045
135	0xbd067b0d	-0.032832194
136	0x3b407893	0.0029368743
137	0xbe36769f	-0.17818688
138	0x3df78bfc	0.12087247
139	0x3e3bad8a	0.18327919
140	0x3e64b4e4	0.2233463
141	0xbe370c64	-0.1787582
142	0x3c9ed1c7	0.019387139
143	0x3c3023b0	0.010750696
144	0x3e08cb39	0.13358773
145	0x3d9fe72e	0.07807766
146	0x3e37e3fc	0.17958063
147	0xbe2bfcea	-0.16795698
148	0xbdcaafa2	-0.098967806
149	0x3d21133b	0.03932498
150	0x3e0b46f5	0.13601287
151	0xbcb799e5	-0.02241225
152	0xbc97f8c0	-0.01855123
153	0x3e3e73e9	0.18598904
154	0x3d3bb198	0.045823663
155	0xbd6b9d23	-0.057522904
156	0xbde5dc8d	-0.11223707
157	0x3d183b21	0.037165765
158	0x3df56cad	0.11983619
159	0x3dd3bc2a	0.10338624
160	0xbd61b138	-0.05510065
161	0x3e11bd16	0.14232287
162	0xbd53d884	-0.051720157
163	0x3d7c2ea8	0.061567932
164	0xb8da8c98	-0.00010421238
165	0x3dc7cd33	0.097559355
166	0x3e3b59ba	0.18295947
167	0x3d224187	0.039613273
168	0xbd2c6074	-0.042084172
169	0x3e316722	0.17324498
170	0x3c2bee76	0.010493865
171	0x3e381e16	0.17980227
172	0xbc814860	-0.015781581
173	0x3d97c2b5	0.07410184
174	0x3c9f611f	0.01945549
175	0x3dc01826	0.09379606
176	0x3d16a5a4	0.03677906
177	0xbd06fcc3	-0.032955896
178	0xbd5ea9e7	-0.05436125
179	0xbe8dcfcc	-0.276976
180	0x3e081f17	0.1329311
181	0xbdb91961	-0.09038044
182	0xbde227be	-0.110427365
183	0xbc747d0c	-0.014922392
184	0xbe0b3157	-0.1359304
185	0x3e1449d6	0.14481291
186	0x3d95ecdb	0.07320567
187	0xbe36392d	-0.17795248
188	0xbcf69186	-0.030098688
189	0x3db5fc2d	0.08885989
190	0x3c859164	0.01630468
191	0xbd8d7629	-0.06907303
192	0x3d6459a6	0.055749558
193	0xbe08a23c	-0.13343138
194	0xbd08c927	-0.03339496
195	0x3d478f81	0.04872084
196	0x3d35675c	0.044288024
197	0x3d66c32d	0.056338478
198	0x3ce42bd9	0.02785294
199	0xbe21214c	-0.15735358
200	0xbb7b1436	-0.0038311607
201	0xbd3b0366	-0.045657538
202	0x3c629642	0.01382977
203	0x3ddf8626	0.10914259
204	0x3d547f76	0.05187937
205	0xbdd51d9e	-0.1040604
206	0x3ded0c01	0.11574555
207	0x3bd79860	0.006579444
208	0xbe18e8ce	-0.14932558
209	0xbcd81635	-0.026377777
210	0x3cc17cdc	0.023619108
211	0xbd070a8d	-0.032969046
212	0xbe426bcd	-0.18986435
213	0xbcca73aa	-0.024713356
214	0x3e471dfc	0.19445032
215	0x3e9a6064	0.30151665
216	0xbe3c1ee7	-0.18371163
217	0x3dad4221	0.08459879
218	0x3e026d72	0.12737063
219	0x3c20fdff	0.009826182
220	0x3db0d197	0.08633726
221	0xbc6a42d3	-0.014298159
222	0x3e2f46a5	0.17116793
223	0x3d7bf21a	0.061510183
224	0x3e086ddc	0.13323158
225	0x3cfcc49d	0.030855471
226	0x3d76c45d	0.06024586
227	0x3e4d5730	0.2005279
228	0x3de78a12	0.11305632
229	0x3d29c0a4	0.041443482
230	0x3cf1cfe2	0.029518072
231	0x3a51f0a7	0.0008008577
232	0x3e18a2ee	0.14905903
233	0x3e0629bb	0.13101856
234	0xbd979b42	-0.0740266
235	0xbd6f9a47	-0.05849674
236	0x3e0f8e6b	0.14019172
237	0xbba16f70	-0.0049266145
238	0xbd66abca	-0.056316175
239	0x3e29980a	0.16561905
240	0x3e6b1e96	0.22960886
241	0xbdcbdb62	-0.09953953
242	0x3df297cf	0.118453614
243	0xbe18d278	-0.14924037
244	0x3e6367c5	0.22207554
245	0xbdc2730f	-0.09494602
246	0xbd8c2bdb	-0.06844302
247	0xbe556a44	-0.20841318
248	0xbdf50ebe	-0.119657025
249	0x3d9dba74	0.07701579
250	0xbe23c71a	-0.1599392
251	0xbd89541d	-0.067054965
252	0x3e1020b5	0.14074977
253	0xbe5a668a	-0.21328178
254	0x3b49af8a	0.0030774795
255	0x3e41cc03	0.1892548

fc2.bias f4 [64]
0	0x3da8a797	0.0823509
1	0xbdb35085	-0.08755592
2	0xbdcab6d7	-0.09898155
3	0xbd502dbc	-0.050824866
4	0x3df3bbe5	0.119010724
5	0x3dc938f1	0.09825314
6	0x3cca6110	0.024704486
7	0xbd278e6f	-0.04090732
8	0xbdc389da	-0.095477775
9	0xbde2efa8	-0.11080867
10	0xbd3da874	-0.046303228
11	0xbdff6a6b	-0.124714695
12	0xbd63661b	-0.055517297
13	0x3defb4b2	0.11704387
14	0xbdc70e9d	-0.09719584
15	0x3d75be2d	0.05999582
16	0xbd2b9cf8	-0.041897744
17	0xbdd166c3	-0.10224678
18	0xbdeb7844	-0.11497548
19	0xbdbf0bef	-0.09328448
20	0xbd273a53	-0.040827107
21	0xbdc900c6	-0.09814601
22	0xbe0210ad	-0.12701674
23	0xbd6ab37a	-0.05730007
24	0x3d40d9a4	0.04708256
25	0xbc5c2738	-0.013437085
26	0xb9d40e16	-0.00040446286
27	0x3dfe29d9	0.124103256
28	0x3c8445b5	0.01614652
29	0x3df0b142	0.11752559
30	0xbd3a7ce3	-0.045529258
31	0xbd727254	-0.059191063
32	0xbd038eb5	-0.032118518
33	0x3d825434	0.06363717
34	0x3dd8c1bb	0.10583826
35	0x3de4bf8d	0.11169348
36	0x3d7fff5a	0.06249938
37	0x3cdb229f	0.026749907
38	0xbd928eaa	-0.07156117
39	0xbd8cda98	-0.06877631
40	0xbddeb1fd	-0.10873792
41	0x3c70161a	0.014653707
42	0x3d82ffdd	0.06396458
43	0xbdb0787e	-0.08616732
44	0xbd9cdb9d	-0.076590754
45	0xbdd7412d	-0.10510478
46	0xbd8917b6	-0.066939756
47	0x3da9f74c	0.08299121
48	0x3cd63cef	0.026152102
49	0x3da72591	0.08161462
50	0xbce7ebbf	-0.028310655
51	0xbcb567ca	-0.022144217
52	0xbdd0842b	-0.10181459
53	0x3d5ec99b	0.054391485
54	0xbc893ded	-0.016753161
55	0xbd122b78	-0.035685986
56	0x3d92f210	0.07175076
57	0xbe04c6d7	-0.12966476
58	0x3db61c54	0.08892122
59	0x3da7844e	0.08179532
60	0xbd66d2d3	-0.0563534
61	0x3da4c663	0.08045652
62	0x3d5b49c3	0.05353714
63	0xbd88eb91	-0.06685556

fc3.weight f4 [64, 64]
0	0x3da0b3ea	0.07846816
1	0x3d628e88	0.05531171
2	0xbd9e6148	-0.07733399
3	0x3d283ac4	0.04107167
4	0xbd546e94	-0.051863268
5	0x3bbb1c1c	0.005710138
6	0xbca57120	-0.020195544
7	0x3d21e4be	0.039524786
8	0xbdc4b108	-0.096040785
9	0x3dd35297	0.10318487
10	0xbde61b0a	-0.11235626
11	0x3d24755a	0.040150978
12	0x3b6360dc	0.0034695184
13	0x3e5a4e63	0.21318965
14	0xbdb17434	-0.08664742
15	0x3dd2bf4e	0.10290395
16	0xbd0dd7b8	-0.034629554
17	0x3978c191	0.00023723232
18	0xbe038dbc	-0.12847036
19	0xbe47686b	-0.19473426
20	0x3a019e5b	0.0004944556
21	0x3df786ec	0.12086281
22	0xbc496ffb	-0.012294765
23	0x3e1e88ce	0.15481874
24	0x3ddbae8d	0.10726652
25	0xbd7f9a14	-0.0624028
26	0x3e1a7c26	0.15086421
27	0x3b7626d8	0.0037559774
28	0x3dcb766c	0.099346966
29	0xbde5d647	-0.11222511
30	0xbdb57c28	-0.088615716
31	0xbd1b988c	-0.037987277
32	0x3d041442	0.03224588
33	0xbd91245e	-0.070870146
34	0x3cfe060d	0.031008745
35	0xbd1e7d70	-0.038693845
36	0xbdaf7a5b	-0.08568259
37	0x3e6725ad	0.22572966
38	0x3cc9c03d	0.0246278
39	0xbda48b6d	-0.08034406
40	0xbe40e0a2	-0.1883569
41	0x3bcd1510	0.0062586144
42	0x3d43386a	0.047661223
43	0x3cdef07d	0.027214283
44	0x3e33bb71	0.17551972
45	0x3d841ed4	0.064511925
46	0x3ca29fe7	0.019851638
47	0x3e5ecffb	0.21759026
48	0xbbc37516	-0.0059648855
49	0x3d1b8108	0.03796485
50	0x3d971bbe	0.07378338
51	0x3b038739	0.0020069613
52	0x3e7a53c4	0.24446017
53	0xbdc7df53	-0.097593926
54	0x3d0fd407	0.035114314
55	0xbde31fdb	-0.1109006
56	0xbdc542ec	-0.09631905
57	0xbebdfa15	-0.3710486
58	0x3c069d7d	0.008216259
59	0x3e19f25c	0.15033859
60	0x3be074dc	0.006849868
61	0xbdd1bf1f	-0.102415316
62	0x3dc2b917	0.09507959
63	0xbc7a235f	-0.015267222
64	0x3e2251e9	0.15851559
65	0xbe3d9892	-0.18515232
66	0xbdb8b028	-0.09017974
67	0xbd97c2c2	-0.07410194
68	0x3dd35a47	0.103199534
69	0xbdb2d786	-0.08732514
70	0x3d53f3c4	0.051746145
71	0x3dedc9c4	0.11610749
72	0x3d522142	0.05130125
73	0xbd91bf0f	-0.0711652
74	0xbc3f7ac0	-0.011686981
75	0xbdd23cad	-0.10265479
76	0xbddc237c	-0.107489556
77	0x3daffc9e	0.08593105
78	0x3e241282	0.16022685
79	0xbd246641	-0.04013658
80	0x3e1d4048	0.15356553
81	0x3d2e3c9f	0.04253828
82	0x3ada7024	0.0016665501
83	0x3d799452	0.060932465
84	0xbd31bbac	-0.04339187
85	0x3dc2ca9c	0.09511301
86	0xbd64509d	-0.05574094
87	0xbcf3306b	-0.029686173
88	0xbbaf61cf	-0.005352236
89	0x3d70fcba	0.05883477
90	0xbe2b9dec	-0.16759461
91	0x3e1e3263	0.15448909
92	0x3d857990	0.06517327
93	0x3d2ca39c	0.042148218
94	0x3dbf8ec1	0.093534
95	0x3d8fe76d	0.07026563
96	0x3e261e6d	0.16222544
97	0x3dac050e	0.083994016
98	0xbccca844	-0.024982579
99	0x3db56fa2	0.08859183
100	0x3b9fe9e4	0.004880177
101	0x3da2a321	0.079412706
102	0x3e119340	0.14216328
103	0x3e5f07e7	0.21780358
104	0xbe09456a	-0.13405386
105	0xbcfd31b3	-0.030907487
106	0x3c5f60c1	0.013633908
107	0xbd561c78	-0.052273244
108	0xbdbe3dad	-0.092891075
109	0xbe0e4083	-0.13891797
110	0xbc974e93	-0.018470084
111	0xbdb9e92d	-0.09077678
112	0xbb4aeaab	-0.0030962627
113	0xbdf53698	-0.119733036
114	0xbe662b90	-0.22477555
115	0xbe02ebae	-0.12785217
116	0xbd307dd6	-0.043088757
117	0x3d666124	0.056244984
118	0x3a15062d	0.0005684819
119	0xbe13018e	-0.14356062
120	0xbd9ded08	-0.07711226
121	0x3be3a9f6	0.006947751
122	0x3d8e7f40	0.06957865
123	0xbc37ab83	-0.011210325
124	0x3decf49c	0.11570093
125	0xbbcc58b2	-0.0062361592
126	0xbd6d64cf	-0.057957467
127	0x3df72699	0.12067909
128	0xbd9d12bc	-0.07669589
129	0xbbe3ced4	-0.006952146
130	0xbe5edbe1	-0.21763565
131	0x3d85612e	0.06512676
132	0x3e5e88bd	0.21731849
133	0xbda3ef54	-0.080046326
134	0xbce4c6c0	-0.027926803
135	0xbdc3a7fb	-0.09553524
136	0x3db2c11b	0.08728238
137	0xbe0eeb20	-0.1395688
138	0x3e0ee816	0.13955721
139	0x3e51debf	0.20495127
140	0x3d46fd6c	0.048581526
141	0xbdeb750f	-0.114969365
142	0xbd27e449	-0.040989194
143	0x3d2c21e5	0.04202451
144	0x3e256694	0.16152412
145	0xbe1c955b	-0.1529135
146	0x3dd81eef	0.10552775
147	0xbdce4bf9	-0.100730844
148	0xbdcb2711	-0.09919561
149	0xbd86220f	-0.06549465
150	0x3cd94c66	0.026525687
151	0x3de113a3	0.109900735
152	0x3d1c15eb	0.03810684
153	0xbbeeaffc	-0.0072841626
154	0xbbdcf51d	-0.006743087
155	0xbe3af051	-0.18255736
156	0x3df90dd0	0.12160838
157	0x3d1090e0	0.035294414
158	0xbdd67831	-0.104721434
159	0xbc966e89	-0.018363254
160	0xbe5a6a51	-0.21329619
161	0xbc8aa4ba	-0.01692425
162	0x3c730c60	0.014834493
163	0xbbe56a67	-0.0070012095
164	0x3dcf6805	0.10127262
165	0x3e024f82	0.12725642
166	0x3d8c7105	0.06857494
167	0x3e273845	0.16330059
168	0x3dafb571	0.08579529
169	0x3d55572b	0.052085083
170	0xbc9623ab	-0.018327555
171	0x3de33b8c	0.11095342
172	0x3e12abca	0.14323345
173	0x3d74613f	0.059663054
174	0x3e3323cb	0.17494123
175	0x3e47bea7	0.19506322
176	0xbcd074fd	-0.02544641
177	0xbce6993e	-0.028149243
178	0xbe2986a6	-0.1655527
179	0x3de63286	0.11240105
180	0xbe215846	-0.1575633
181	0x3cdae77a	0.026721705
182	0x39e7777b	0.00044148773
183	0xbd9b0599	-0.07569427
184	0xbdd18274	-0.1022996
185	0xbd73f54a	-0.059560098
186	0x3da933ef	0.08261859
187	0xbdbfb897	-0.093613796
188	0xbe0a7d33	-0.13524322
189	0xbbb5478b	-0.00553221
190	0xbeac1199	-0.33607176
191	0xbd36e65d	-0.044653285
192	0xbdbe4030	-0.092895865
193	0xbd82ed8e	-0.06392966
194	0x3cf22ba0	0.029561818
195	0xbe2bd2e6	-0.1677967
196	0xbe5585a2	-0.20851758
197	0x3e02146d	0.12703104
198	0x3d8f33fe	0.069923386
199	0xbc26500d	-0.0101509215
200	0x3e7fd746	0.24984464
201	0x3e148203	0.1450272
202	0x3d428e54	0.047499016
203	0x3de5f63a	0.112286046
204	0xbd8a0a23	-0.06740215
205	0x3dcbf014	0.09957901
206	0xbca4d79b	-0.02012234
207	0xbdc505cf	-0.096202485
208	0x3dc4cd2a	0.096094444
209	0x3d4102c4	0.047121778
210	0xbe068b2f	-0.13139032
211	0x3df67adf	0.120351546
212	0xbe712852	-0.23550537
213	0x3a97be10	0.0011577029
214	0xbc926fe8	-0.017875627
215	0x3e216a9a	0.15763322
216	0xbd9b52ac	-0.07584128
217	0x3df6cf16	0.12051217
218	0x3cc53c1a	0.02407651
219	0x3bb835b4	0.0056216363
220	0xbe535c32	-0.20640638
221	0x3e545986	0.20737275
222	0xbdefc7d3	-0.11708035
223	0x3dd3f1d6	0.10348861
224	0xbdb0cc81	-0.08632756
225	0xbcafa064	-0.021438785
226	0x3cafdeef	0.021468608
227	0x3d2554c2	0.040364034
228	0x3e0d9a3d	0.13828368
229	0xbaf518d9	-0.0018699422
230	0x3dd65853	0.10466065
231	0x3ce597c3	0.028026467
232	0xbe0e83e9	-0.13917507
233	0x3c73cf65	0.01488099
234	0x3d5d25f9	0.05399129
235	0x3e2d649d	0.16932912
236	0xbcc3ceba	-0.023902286
237	0x3dd6abf3	0.104820155
238	0x3def940d	0.1169816
239	0x3d1650a9	0.036698017
240	0xbd8c74c6	-0.0685821
241	0x3d7c281a	0.06156168
242	0x3e008897	0.12552105
243	0x3d38b71b	0.045096498
244	0x3e0c8475	0.13722403
245	0xbe336fd9	-0.17523135
246	0x3d865055	0.06558291
247	0xbd24f634	-0.04027386
248	0xbdb27334	-0.087133795
249	0x3e12a20a	0.14319625
250	0xbd881a6e	-0.06645666
251	0xbd8d0aac	-0.06886801
252	0xbdf08152	-0.11743416
253	0x3d42d0df	0.047562476
254	0x3cf30fdc	0.029670648
255	0xbe05e43c	-0.13075346

fc3.bias f4 [64]
0	0x3cf2993a	0.02961408
1	0xbddbd352	-0.107336655
2	0x391d64f3	0.00015010293
3	0xbd679d2d	-0.05654638
4	0xbd6bbfcf	-0.05755597
5	0xbd910033	-0.07080116
6	0x3d48c830	0.04901904
7	0x3cefb624	0.029261656
8	0x3daf584f	0.085617654
9	0x3d1689e6	0.036752604
10	0xbc120fd2	-0.008914905
11	0xbd6e6401	-0.05820084
12	0x3da900ef	0.08252131
13	0xbba84589	-0.0051352424
14	0x3d682743	0.056678068
15	0x3dd3e0b5	0.10345594
16	0x3db3c57f	0.08777904
17	0x3c0184ff	0.007905244
18	0xbc409e2b	-0.01175646
19	0xbdf66688	-0.12031275
20	0xbdc850da	-0.09781046
21	0xbcf6c477	-0.030122979
22	0xbd329d43	-0.043607008
23	0x3d44e791	0.0480724
24	0x3de2e002	0.11077882
25	0x3d920c08	0.07131201
26	0x3df9e1d7	0.12201279
27	0x3df1ac0c	0.118003935
28	0x3d261d5f	0.040555354
29	0xbdcb645e	-0.09931253
30	0x3db7ef18	0.089811504
31	0x3dab3ca1	0.083611734
32	0xbdf6c7db	-0.12049838
33	0x3d50fae1	0.051020507
34	0xbde4ac84	-0.11165717
35	0x3dd9f2ad	0.1064199
36	0xbc68ea1c	-0.014215972
37	0x3da62532	0.08112563
38	0x3ddcd65e	0.10783075
39	0x3cf709fc	0.030156128
40	0x3def30e6	0.116792485
41	0x39e16be4	0.0004299573
42	0xbd83b458	-0.06430882
43	0xbd47e554	-0.04880269
44	0xbd0e913f	-0.034806486
45	0x3de47de8	0.11156827
46	0x3d2cf606	0.042226814
47	0x3c25216f	0.010078772
48	0x3d1be83b	0.03806327
49	0x3dd08a72	0.10182656
50	0xbd64ee7f	-0.05589151
51	0xbda14963	-0.078753255
52	0x3c154714	0.009111185
53	0xbdc1a317	-0.09454935
54	0xbc855a69	-0.016278462
55	0xbc2b5064	-0.010456178
56	0x3d47c60f	0.048772868
57	0x3d9cde64	0.07659605
58	0xbd56636f	-0.05234092
59	0xbdc4bcff	-0.09606361
60	0x3df58aa5	0.11989335
61	0x3da3bfbb	0.07995554
62	0xbd8fbca4	-0.07018402
63	0x3de76f1f	0.113004915

fc4.weight f4 [27, 64]
0	0x3e1e2fc8	0.15447915
1	0xbe2b8ae3	-0.167522
2	0x3d319954	0.043359116
3	0xbe28dcb2	-0.16490439
4	0x3dd3299d	0.103106715
5	0x3d2872ad	0.04112499
6	0xbde25d7b	-0.11052986
7	0x3d4ce296	0.050020777
8	0x3e0f0555	0.13966878
9	0xbd96a699	-0.07355995
10	0xbd4fe7ec	-0.050758287
11	0x3d7c8eaf	0.06165951
12	0x3d445ace	0.04793816
13	0xbec47cb8	-0.38376403
14	0xbdb9232f	-0.09039914
15	0x3e06f632	0.13179854
16	0xbdbe9268	-0.093052685
17	0x3e09d8e6	0.13461646
18	0xbd30899d	-0.04309999
19	0xbc970c92	-0.018438611
20	0x3d8b4936	0.06801073
21	0x3e044461	0.1291671
22	0x3dd30efe	0.10305594
23	0xbe230536	-0.15919957
24	0x3e2769d6	0.16348967
25	0xbe0e88dd	-0.13919397
26	0xbe882b3c	-0.26595485
27	0x3e19a728	0.15005171
28	0x3e555845	0.20834453
29	0xbe8455e0	-0.25846767
30	0x3c39464c	0.011308264
31	0xbd5c1a8d	-0.05373626
32	0xbcb5e063	-0.022201722
33	0x3d625967	0.055261042
34	0xbe8e90b3	-0.27844772
35	0xbd3fdac4	-0.04683949
36	0xbe387553	-0.18013506
37	0x3e1dd258	0.15412271
38	0x3e5599cf	0.20859455
39	0xbe651574	-0.22371465
40	0xbce846ef	-0.028354136
41	0xbe7bd7fe	-0.24594113
42	0x3d8d2c07	0.06893163
43	0x3e7c6c07	0.24650584
44	0xbc9b2711	-0.018939527
45	0xbe365666	-0.17806396
46	0x3e1c3232	0.15253523
47	0xbd80b075	-0.062836565
48	0xbd8cf2c0	-0.068822384
49	0x3e6fcc18	0.234177
50	0xbe00cd20	-0.12578249
51	0x3c1def90	0.009639636
52	0x3e19de73	0.15026264
53	0xbd711dcd	-0.05886631
54	0x3d13a414	0.03604515
55	0xbd8d4bda	-0.06899233
56	0xbdae7d5a	-0.08520003
57	0x3dba9f69	0.09112436
58	0xbca885d0	-0.02057162
59	0x3ca14dc6	0.019690406
60	0x3d571724	0.052512303
61	0xbe08749d	-0.13325734
62	0xbe345775	-0.17611487
63	0x3dd42beb	0.10359939
64	0xbe65bafb	-0.22434609
65	0xbbbae546	-0.005703601
66	0xbd9e8f24	-0.07742146
67	0xbd5920cd	-0.053009797
68	0x3c9f0e1d	0.01941591
69	0x3e400188	0.18750584
70	0xbcca7127	-0.024712158
71	0x3e2a4ea2	0.16631559
72	0x3e954e54	0.29161322
73	0x3df8e912	0.1215383
74	0x3dcfa209	0.10138328
75	0xbd7eb196	-0.062181078
76	0xbdac9c85	-0.08428291
77	0x3c88524b	0.016640803
78	0x3e022683	0.12710004
79	0x3d404ce1	0.046948317
80	0x3dedb16f	0.116061084
81	0x3e1c3601	0.15254976
82	0xbd411082	-0.047134884
83	0xbdd3cb16	-0.1034147
84	0xbe5de341	-0.21668722
85	0x3cd9360a	0.026515026
86	0xbd8c9360	-0.06864047
87	0xbe03001d	-0.12793012
88	0x3d6ffa5e	0.058588378
89	0x3d89c585	0.06727127
90	0xbddd1b4b	-0.10796221
91	0xbd1f126a	-0.03883592
92	0xbdebf1ac	-0.115207046
93	0x3dda8770	0.10670364
94	0x3e471377	0.19441019
95	0x3c9f1085	0.019417057
96	0xbdde1dce	-0.108455285
97	0xbe09a95a	-0.13443509
98	0xbd85b590	-0.06528771
99	0x3d96a1e9	0.07355101
100	0xbe1b8022	-0.15185598
101	0xbd5146f5	-0.05109306
102	0x3d7003ff	0.05859756
103	0xbdea9848	-0.114548266
104	0x3d3489c4	0.044076696
105	0x3e0778f3	0.13229732
106	0xbe05b93b	-0.13058941
107	0xbdd80e32	-0.105495825
108	0x3c26c107	0.010177857
109	0xbe14dc04	-0.14537054
110	0x3df472c9	0.11935956
111	0xbe91624d	-0.2839531
112	0xbe351ff2	-0.17687967
113	0x3dccbfc6	0.099975154
114	0xbdb09852	-0.08622803
115	0x3dd249e1	0.102679975
116	0xbd3a6000	-0.04550171
117	0x3d85d9fa	0.06535716
118	0x3dbabe43	0.09118321
119	0x3e655fe9	0.22399868
120	0x3d960da4	0.073268205
121	0x3de8ec13	0.113731526
122	0x3d09dc55	0.03365739
123	0x3c873208	0.016503349
124	0xbd9089a8	-0.07057506
125	0xbb5d8c8c	-0.0033805696
126	0xbe76a2a0	-0.24085474
127	0x3c95e3e5	0.018297145
128	0x3d2cd48a	0.04219488
129	0xbe4447fd	-0.19168086
130	0xbdd6c14b	-0.104860865
131	0x3e2b32e5	0.16718633
132	0xbca62248	-0.020280018
133	0xbea88c9d	-0.3291978
134	0xbd5210d6	-0.051285587
135	0xbeafd5c9	-0.34342793
136	0xbe0df040	-0.1386118
137	0xbd73c9c5	-0.059518594
138	0xbd24a40d	-0.040195514
139	0xbd66968b	-0.056295913
140	0x3d1459b7	0.03621837
141	0xbd6061f0	-0.0547809
142	0x3c6604b9	0.014039212
143	0xbbd0ddaa	-0.0063740807
144	0x3d24aad8	0.04020199
145	0xbe21a636	-0.1578606
146	0x3e14febc	0.14550298
147	0x3e1bd320	0.15217257
148	0x3d539054	0.051651314
149	0xbcf740c5	-0.030182252
150	0x3d83b0b7	0.0643019
151	0xbdff46c6	-0.12464671
152	0xbdefb738	-0.11704868
153	0x3e095d6e	0.13414547
154	0x3ce4d428	0.027933195
155	0xbdc71f3b	-0.097227536
156	0xbdeb743d	-0.1149678
157	0x3eb0a68d	0.34502068
158	0x3e9d24dc	0.30692184
159	0x3ceef67f	0.029170273
160	0x3d268193	0.040650915
161	0xbdfc419f	-0.12317204
162	0x3e18b6d1	0.14913489
163	0xbe1e2d58	-0.15446985
164	0xbe03f449	-0.12886156
165	0xbdba9c2f	-0.09111821
166	0xbcdd6736	-0.027026754
167	0xbdf950f4	-0.12173644
168	0x3d5d7c73	0.054073762
169	0xbd9b4313	-0.07581153
170	0xbdc058b0	-0.09391916
171	0x3da7dd24	0.08196476
172	0xbd66f9dc	-0.05639063
173	0x3b7bdd75	0.003843156
174	0x3c60b9cc	0.013716172
175	0xbe531ec5	-0.20617206
176	0xbd8bf994	-0.068347126
177	0xbafac138	-0.001913107
178	0x3d4abf95	0.049499113
179	0xbe23f8dd	-0.16012903
180	0x3e547d45	0.20750912
181	0x3cbfb0a7	0.023399664
182	0xbdd5e182	-0.10443403
183	0xbe7ce34e	-0.24696085
184	0x3e0184ee	0.12648365
185	0xbc1aa38b	-0.009438406
186	0x3e87f4e5	0.26554027
187	0xbdcfc49e	-0.101449236
188	0xbdc4b25a	-0.0960433
189	0x3dd510cf	0.104035966
190	0xbdcfb510	-0.10141957
191	0xbe1a1665	-0.15047605
192	0x3e64a2d4	0.22327739
193	0x3d98754f	0.0744425
194	0x3d335bcb	0.043788712
195	0xbea655dc	-0.3248738
196	0x3e46dd15	0.19420274
197	0x3d96bf0a	0.073606566
198	0xbdcd15c3	-0.10013916
199	0xbd8ac584	-0.06775954
200	0xbc934a98	-0.017979905
201	0x3de1a44f	0.110176675
202	0xbe504065	-0.20337065
203	0xbc8cddd5	-0.017195622
204	0x3d187836	0.037224017
205	0xbe18d2e8	-0.14924204
206	0xbdc3647d	-0.09540651
207	0x3e7898c5	0.24277027
208	0xbe001196	-0.12506709
209	0x3ca20170	0.019776076
210	0x3b529ac5	0.0032135707
211	0x3e0ece1c	0.13945812
212	0x3d837d41	0.06420375
213	0x3cec3dfd	0.028838152
214	0xbe5ec41b	-0.21754496
215	0x3e1751c2	0.14777282
216	0xbd4e7eee	-0.05041402
217	0xbd0de49c	-0.034641847
218	0xbdcb837c	-0.09937188
219	0x3d82a138	0.06378406
220	0xbdd9a8ff	-0.106279366
221	0x3e9fa03c	0.31176937
222	0xbd09b721	-0.03362191
223	0xbd85de64	-0.06536558
224	0xbdb911f2	-0.09036626
225	0x3e834b0f	0.25643203
226	0x3d99b4d4	0.07505193
227	0xbe4dfa8a	-0.20115104
228	0x3d8df1ab	0.0693086
229	0xbe03e2f7	-0.12879549
230	0xbd6bc1ab	-0.057557743
231	0x3e23955d	0.15974946
232	0x3deedbe6	0.11663036
233	0xbe2562e3	-0.16151004
234	0x3cc8258a	0.024431963
235	0xbdf62a35	-0.12019769
236	0x3e0dfd01	0.13866045
237	0x3d994621	0.07484079
238	0xbd80d559	-0.06290693
239	0x3e6701f9	0.22559346
240	0xbdd5603f	-0.10418748
241	0xbd0a07cd	-0.033698846
242	0xbbae9add	-0.0053285197
243	0xbe573ae9	-0.21018566
244	0xbd9565fe	-0.07294844
245	0x3d67425a	0.056459762
246	0x3d1da24f	0.038484868
247	0x3df22182	0.11822797
248	0x3e1bdd6d	0.15221186
249	0x3dbffd06	0.09374432
250	0xbe462c25	-0.19352777
251	0xbe1b53b5	-0.1516865
252	0xbe312508	-0.17299283
253	0xbe40dbcf	-0.1883385
254	0x3db6ed41	0.08931971
255	0xbd0125d1	-0.031530205

fc4.bias f4 [27]
0	0x3d3151fa	0.04329107
1	0xbb6b9834	-0.0035948874
2	0xbdc63069	-0.09677202
3	0x3d5cec4b	0.053936284
4	0xbc90d7d3	-0.017681038
5	0xbdbfae07	-0.09359365
6	0xbd8a2f00	-0.06747246
7	0x3daec361	0.08533359
8	0x3d001c84	0.031277195
9	0x3d8a5786	0.06754975
10	0xbd64b923	-0.055840623
11	0x3c54c1eb	0.012985687
12	0xbdc811dc	-0.097690314
13	0x3b6616e8	0.0035108868
14	0xbc4b6190	-0.012413397
15	0x3d850e9a	0.06496926
16	0xbdae6802	-0.08515932
17	0xbdb9596b	-0.09050258
18	0x3cb22f05	0.021750936
19	0x3d996887	0.0749064
20	0xbbf24228	-0.0073931403
21	0x3d2f72a7	0.04283395
22	0x3d9c2231	0.07623709
23	0xbcb43b6b	-0.022000989
24	0x3dd31584	0.10306838
25	0x3c31f71f	0.010862141
26	0x3cd85e2a	0.026412088
