src/cached_data/trained_models/model_100_16_oldAugmentedData.pt (torch_old, 78590 bytes, 8 tensors)

fc1.weight f4 [64, 144]
00000000: 1590 e13d 2ce8 863c 60e4 fb3d 9b5b 173d
00000010: c45c 1f3e 3b7c 063e 8ca3 063e dee2 913d
00000020: 3408 cbbd 9bb9 a53b 1924 973c ffc4 79bd
00000030: e35a b53c 8574 8fbd 33df d8bc add7 eebd
00000040: f415 353d 99a7 5a3d 2df9 2c3d 11e3 643c
00000050: 9256 c83b ced4 4dbc 9159 2dbd 3480 1dbc
00000060: 5862 303e df54 173e a945 fb3d 703c 0e3e
00000070: a4f0 ec3b a82f e63d a390 85bb 7612 a33d
00000080: c8ea efbd 4e2d d9bd 5161 fbbc 1b4f f1bd
00000090: 2bd3 cabd 406f 96bd 02d9 04be a8d0 9d3b
000000a0: ecab 68bc 07ce 523d e065 033d a613 9a3d
000000b0: 4b0a 613d 67ec 543c 9525 8a3c a324 31bd
000000c0: f767 22bd 31ac 87bd 5e2d ac3d 9f2f ce3d
000000d0: 6f18 833d 49fc b33d 29f1 8a3c 764a 803d
000000e0: 15a5 223d cb97 823c 0e38 66bc e236 973c
000000f0: 30df 13bd 3152 83bd 73fc 34bd 7917 513d
00000100: 9562 a5bd a6f8 97bb 6dc4 7a3d 81e4 0dbd
00000110: 010b f0bb b973 84bd 38eb b9bd e8bd 97bd
00000120: d88a b33d 327d 1a3d 3781 9a3b 76b8 893d
00000130: ba7b 973d a7cb d0bc 4a74 a4bd 721f 06bd
00000140: e4bf 1bbd edec dbbc 7658 ddbc 9157 69bd
00000150: 95d0 f3bd f1a3 8bbd f268 ab39 5d17 223d
00000160: 9410 82bc cfa2 5c3d 8f2c 9f3d 06da 23bd
00000170: 77aa 163d 0ce8 90bb 0a77 003d 52af ad3d
00000180: e750 a1bd 0ddc 9bbd 75d9 b3bc 74ac 5a3d
00000190: cf60 9fbd df5f 5c3d ce7f 3b3d 0382 153c
000001a0: 9d26 be3b c013 34bd 4f51 29bd c038 f4bd
000001b0: a65c 18bd 37a6 93bd f959 d7bd f2bc 0cbc
000001c0: a657 253e 87e0 073e 58fc 0ebd 20fb 253d
000001d0: fc21 0a3b f3ce 5c3d 6d75 983d bb06 593d
000001e0: ee98 6abd 3223 ac3d c593 433d 07c8 d53d
000001f0: b8e4 033d 3a34 83bd a0df 5a3d 9009 c0bc
00000200: d85b 593d cfc4 98bd c13e 7bbd 2403 4cbd
00000210: 5df7 a1bd cb95 843d 7a9d 823d 6f97 6d3d
00000220: 0733 a33c 7169 1bbc e32b a73d 643d ac3d
00000230: d044 e1bb fb20 5a3d 548e b93d d83b 7abd
00000240: ac6d a73d 7c3c 2dbd 44a7 b4bb 1cee 9ebc
00000250: 4686 ba3d 906b 3d3d d49f db3d 727d a53d
00000260: 8a16 a03d 8501 323d f3da fd3c ffc2 ba3d
00000270: f1a6 6fbc 5b68 d33c 598c 7e3d 3cae ac3b
00000280: 9f40 dbbd 62d1 e1bd 9628 e7bd 287b e8bc
00000290: b7b5 353d 5553 293d 3e3d 0c3b 4e69 953d
000002a0: dabf d53c 917d f2bd 5d6c 93bc d78a 00be
000002b0: e9b2 0fbd 5fd5 c3bc a1b4 bfbd a069 333d
000002c0: 1118 89ba d626 293e 6182 78bc b67b 2d3b
000002d0: 19a2 c33d 6ef1 b23d ee96 ebbb 7f14 993d
000002e0: 4d16 4b3c 062d 9dbc e4b7 e13d ac25 fb3d
000002f0: c9ab 653d 3d2e 123e 8d05 a93a caac f93d
00000300: 1be1 ac3c e0b9 70bc 7cbc 283d 7772 88bd
00000310: 1e2c 0cbd 6788 bebd 3c38 afbd 22d3 1d3c
00000320: ed0e 95bc f0d0 1cbe b495 7ebd 2eb7 63bc
00000330: e206 f9bd a64f f3bd 0a0e 07be f86d 9abd
00000340: e9e9 0b3d 35ae 7abc 0233 c63c 11fb 423d
00000350: 5813 91bd 2391 4c3a 0f81 28bb 4292 d3ba
00000360: e3e3 813c 6b78 963d f018 433d 1760 8cbd
00000370: 8e32 80bd ac63 4e3c 3a80 403d d211 2e3c
00000380: 3602 c63c bebc c0bc 3917 633d 0477 96bd
00000390: 4b55 103d 4c82 933d f8ae 553d b985 40bc
000003a0: 6ca7 b93d 84d2 9c3d 9c31 793c 3ec8 cbbb
000003b0: b088 3fbd 0759 a23d f2ba 903c 7d7b 77bc
000003c0: 4444 d7bd 6c4f f0bc 1868 cbbb d0d3 a03c
000003d0: 1f01 e9bd 71f6 adbd 45dc 143c 1b0f f33c
000003e0: 8856 c8bd 9cd0 ccbd 8705 9cbc 0418 67bd
000003f0: d3a9 fd3c 0120 f3bd 34b7 45bd e540 adbd
0.110138096 0.01646813 0.122994184 0.036952596 0.15562731 0.13133328 0.13148326 0.071233496
-0.09913674 0.0050575263 0.01844983 -0.060978886 0.022138065 -0.07004646 -0.026473617 -0.11662231
0.04421039 0.05338249 0.04222982 0.0139701525 0.0061138356 -0.012562944 -0.042321745 -0.009613086
0.17225015 0.1477847 0.12269146 0.13890243 0.007230835 0.112395585 -0.00407608 0.079625055
-0.11714703 -0.10604344 -0.030686053 -0.11782666 -0.09903558 -0.07345438 -0.12973407 0.0048161335
-0.014201146 0.051466014 0.032079577 0.07523279 0.054941457 0.012995816 0.016863624 -0.04324783
-0.03964993 -0.0662464 0.084070906 0.10067677 0.06401145 0.08788354 0.016960697 0.06264202
0.039708216 0.015941521 -0.01405145 0.018458787 -0.03610152 -0.06412161 -0.044186067 0.051047776
-0.08075444 -0.0046377955 0.061222482 -0.034641746 -0.0073255305 -0.06467385 -0.090780675 -0.074092686
0.08766717 0.03771705 0.0047151106 0.06724636 0.07396646 -0.025487734 -0.08029993 -0.032744832
-0.038024798 -0.026846373 -0.02701972 -0.056968275 -0.11905018 -0.06818379 0.00032693852 0.039573062
-0.015877046 0.053866204 0.07772171 -0.040002845 0.03678366 -0.0044221934 0.031363524 0.08480705
-0.07876759 -0.07610331 -0.021954278 0.05338712 -0.07782137 0.053802367 0.04577618 0.0091252355
0.005802943 -0.043964148 -0.041337308 -0.11924887 -0.03719773 -0.07209437 -0.10515208 -0.00858997
0.16146716 0.13269244 -0.034908623 0.040522695 0.0021077385 0.0539083 0.07444272 0.052984934
-0.05727475 0.084051505 0.047748346 0.10438543 0.032200545 -0.06406446 0.05343592 -0.02344206
0.053066105 -0.07459413 -0.061339144 -0.049807683 -0.07908509 0.06473883 0.063776925 0.058005746
0.019921793 -0.009485588 0.081626676 0.08410147 -0.006874658 0.05325411 0.0906035 -0.061092228
0.08175215 -0.04229401 -0.0055131037 -0.019400649 0.09107642 0.046245158 0.10723844 0.080805674
0.07816799 0.04345848 0.030988192 0.09119224 -0.014627204 0.025806597 0.062145565 0.005269794
-0.10705685 -0.11026265 -0.11287038 -0.028379038 0.04436275 0.041339237 0.0021398808 0.07295476
0.026092459 -0.11840356 -0.017996008 -0.12552963 -0.03508273 -0.023905454 -0.09360624 0.043801904
-0.0010459443 0.16518721 -0.0151678035 0.0026471443 0.09552402 0.08737455 -0.007189623 0.074746124
0.012395454 -0.019186508 0.110214025 0.12263045 0.05607203 0.14275451 0.0012895331 0.1219116
0.021103432 -0.014692754 0.041195378 -0.066624574 -0.03422176 -0.093033604 -0.08555648 0.0096328575
-0.018195594 -0.15314078 -0.062154487 -0.013898654 -0.12159516 -0.11880426 -0.13188949 -0.07540506
0.03415862 -0.015300323 0.024194244 0.047602717 -0.07083768 0.00078036095 -0.002571169 -0.0016141611
0.015855735 0.07347187 0.047631204 -0.06854265 -0.062596425 0.012597006 0.046997286 0.010624366
0.024170976 -0.0235275 0.05544207 -0.07346919 0.03523759 0.072025865 0.052168816 -0.011750632
0.09065136 0.0765734 0.015209582 -0.006218939 -0.046761215 0.07927137 0.017667267 -0.0151051255
-0.105110675 -0.029334746 -0.0062074773 0.01963225 -0.11377167 -0.084942706 0.0090857195 0.029670289
-0.097821295 -0.100007266 -0.019045604 -0.056419387 0.030964768 -0.11871339 -0.04827042 -0.08459643

fc1.bias f4 [64]
00000000: 3d44 13bd f455 273d a2dc 173c 0745 0e3d
00000010: 9935 683d 6d68 0fbd 53e8 183d 5058 52bd
00000020: 19d1 0abc 04e4 453d a01c 903d c002 a83d
00000030: 1748 88bd 2cb5 84bb 3eee 1ebd 2f24 803d
00000040: 361e 39bd 554d 783d c2c0 8dbc 8a29 37bd
00000050: 895c 953d ab16 fe3c 6fbd 2cbd 968c 123d
00000060: a658 65bd 69d4 07ba 1997 c53c d214 07bc
00000070: 8ab2 62bc 4d1b a53d 5301 67bc 8fb4 4ebd
00000080: dadb 0e3d eac4 003d 4fbe aa3d a3df a63a
00000090: e1f8 013d a07c 6ebd e77e 463d d5f4 983c
000000a0: 2108 053c 2dda 9f3d 3d44 9c3c 542c 223d
000000b0: b001 703c 55a6 a1bc 3a07 bd3c 287e 9c3d
000000c0: 0770 edbb 7460 733d 7ecc 87bb 19a3 d53c
000000d0: 67ed 5cbd 521e 4a3d 9d0c 87bd 5e67 5abd
000000e0: 1110 a8bc 741a 933c abba a8bc c12e a43d
000000f0: 95bc 9cbd d31b e9bc 224f 083d b5e2 4fbd
-0.03595375 0.040853456 0.009268912 0.0347338 0.05669174 -0.035011698 0.037330937 -0.051353753
-0.008472704 0.048313156 0.0703671 0.082036495 -0.06654375 -0.0040499177 -0.038801424 0.062569015
-0.045194827 0.060620625 -0.017303828 -0.04471735 0.0729304 0.031016668 -0.042172845 0.035778604
-0.055992745 -0.0005181493 0.0241199 -0.00824471 -0.013836512 0.08061848 -0.014099437 -0.050465163
0.034877636 0.031437792 0.0833708 0.0012731444 0.03173149 -0.05822432 0.048460867 0.018671433
0.008119614 0.078052856 0.019075507 0.039593056 0.01464884 -0.019732634 0.023074735 0.0764125
-0.0072460207 0.059418157 -0.0041442504 0.026078748 -0.053937342 0.049345322 -0.06594203 -0.053321235
-0.020515474 0.01795695 -0.020596823 0.0801673 -0.07653157 -0.02845565 0.033278592 -0.050753314

fc2.weight f4 [64, 64]
00000000: f8ed 173e b131 b33d 8b03 633d bd6c d8bd
00000010: f7c5 aabd 6820 abbd 104b 7abd 1db6 e5bd
00000020: b298 2a3e 7529 0f3e bdf5 85bc 37a1 663e
00000030: 39c7 b8bd 7474 d53d 5f11 9ebd e610 18be
00000040: 85f3 ab3d 7429 c5bc e5d1 22bb 30bb 053e
00000050: 1cb3 e33c 54a8 adbd 6c35 863e 6ca1 1b3d
00000060: 71a0 22be 73fa 8d3c 8a28 d13d 8114 d9bd
00000070: b3e9 39be 3a8b 92bb 3d2b a0bc c894 7dbd
00000080: ab42 883d 4aab 223e 5c00 74bd 34fe af3d
00000090: 50d0 0fbe 3ce8 e6bd fbff 133c c89b 83bd
000000a0: 9370 95bd e815 85be 58c9 913d 3173 dd3d
000000b0: d168 2abd be17 1a3e 8002 863b ddfe 6dbe
000000c0: cfbc a3bd 6e5d a23b e30b 613c c445 a23d
000000d0: d309 25be aec9 f9bc 1589 6abb 7268 e63b
000000e0: 60f7 0d3b 02f3 1c3d 81c4 babc 83b7 2dbe
000000f0: 4807 83be 7053 7cbd 9f8e 1abd da23 ecbd
00000100: fd02 be3d c31b 4abe b08e 05bd 7515 933c
00000110: 5c75 0abd a9e3 ddbc c7e4 61bd 46e4 0ebd
00000120: 05db b63d b3e6 043e a997 d2bd 63fa 193d
00000130: fae7 3a3e 72e8 22be 7f81 8bbb 0fc7 bf3b
00000140: 5056 68bd 18f1 033e edb3 7abd 4b46 c23a
00000150: f91d 743d d183 903c 3613 53bd 9575 bfbd
00000160: fd87 e2bd 3b86 87bd 19b5 893d 4fed 293d
00000170: d9ee 593d 2dd6 97bd 28fe 173e 5e7d 8abd
00000180: 0b4a 29be 757f 93bd 9274 73bd 119d 953c
00000190: 667f 123e 0a4d d73d b691 a53e 8474 0bbe
000001a0: 4685 8f3d 2799 383e d642 6d3d 2546 a039
000001b0: 876a b53d 3e5e 5bbd bccc 033d f834 abbd
000001c0: 9038 d7bd 5313 babd 6a85 8dbc f029 3b3e
000001d0: bc62 383e fc6f 29be 07fc 13bd 8e75 5e3e
000001e0: 4157 1abe 666c 16be 31eb 803e 7ec1 58bd
000001f0: da9c da3c 14e4 e6bd 421a 023e 31d2 853d
00000200: c5bd 613c 63ac 8c3d b9ef 583c d833 2f3e
00000210: 01da 953d 484e fd3a 9a64 863c 5c40 ba3d
00000220: 0081 053e 5ffa 7bbd 72ca aabd 1814 aabd
00000230: 47c2 0d3e bf3c 0bbd 2496 ab3d 8921 76bd
00000240: 1865 d0bc 7802 523d adad 66bd 74db b1bd
00000250: f48e b73d 7823 b63c b232 9ebd a082 c9bd
00000260: 3c50 92bd 1c6b ffbc 2e71 9d3d 6c09 79ba
00000270: ecad 483e d88a 0dbe 4b3a 0f3d e4ca 0bbd
00000280: 2b3f e83c 7862 09bd c447 58bd 2b77 873d
00000290: 7fc1 dd3d 03b6 12bd c20e f2bd 5268 0d3e
000002a0: 2f1a 6e3d 6a37 9cbd 1185 1a3e c28c 013e
000002b0: 0521 373d 54fc 01be b962 653c 1210 21be
000002c0: a3f6 913c 681b 7b3e 74dd 293e e855 b43d
000002d0: 2e39 c4bd 7ff9 33be 52c3 33bd a909 0bbe
000002e0: 042c 883c 6b84 433d 063a 25be 95b9 db3d
000002f0: 12a4 093e 35d4 2d3b 146b 393e 7a8f 06be
00000300: e478 adbd fc24 363d 9f81 febd 20f1 d23d
00000310: 57d2 343d ab70 633d 8375 453c bfb9 6fbd
00000320: 147c 533d 4409 093d 419f f63d fa36 50bc
00000330: d711 e9bd f77b 6cbc db06 6b3d 0b39 f03d
00000340: 3404 4b3e b366 5fbd b911 97bd 4186 96bd
00000350: 0f5c 9dbd 9b2b afbd 8451 9cbc e435 7bbb
00000360: 1713 293e 97ba fabc 8e18 1a3d 532f 06be
00000370: c746 253e 69ec d33d e253 223e f413 c9bd
00000380: aa01 943d 1fa8 e2bd 8acf 923d e005 773d
00000390: 8841 983b 72c6 93be 1729 db3d 1076 30be
000003a0: 8c13 043e 2e99 1e3e cd85 953d 23e5 2dbe
000003b0: e44b 0d3e 1aca 473d e119 36be f4d0 343e
000003c0: 7653 163d e0e9 de3b 26d7 11be ffd2 0abe
000003d0: c371 cd3c b934 6abc 80aa 093e 6acb 6a3d
000003e0: bfe5 113d ac39 b1bd 984b 7d3e debe c3bd
000003f0: 5348 94bb df41 12be cebb aa3d ec79 19be
0.14836872 0.08749712 0.0554233 -0.10567615 -0.0833854 -0.083557904 -0.06110674 -0.11216376
0.16659811 0.13980658 -0.016352529 0.22522436 -0.09022374 0.10422602 -0.07718157 -0.14850196
0.08396057 -0.024067618 -0.0024844345 0.13059688 0.027795367 -0.08479372 0.26212633 0.03799574
-0.15881516 0.017331338 0.1021281 -0.10599614 -0.18155555 -0.0044721635 -0.019551868 -0.061909467
0.06653341 0.15885654 -0.059570655 0.08593407 -0.14044309 -0.11274764 0.0090331985 -0.06426197
-0.072968625 -0.25993276 0.071184814 0.10812987 -0.041603867 0.1504812 0.0040896535 -0.23241754
-0.07994997 0.0049549853 0.013735744 0.07923463 -0.16117029 -0.030491676 -0.0035787274 0.007031494
0.002166234 0.038317688 -0.022798778 -0.16964535 -0.25591493 -0.06160301 -0.03773367 -0.11530276
0.09277914 -0.19737153 -0.03260678 0.017954567 -0.03380333 -0.027086096 -0.05514982 -0.034885667
0.089284934 0.1297863 -0.10282833 0.037592303 0.18252555 -0.15908983 -0.0042573805 0.005852587
-0.05672294 0.12884939 -0.061206747 0.0014821974 0.059598897 0.01764098 -0.051531993 -0.09348599
-0.11061094 -0.06617399 0.06723995 0.04148608 0.0532063 -0.07413898 0.14843047 -0.06762193
-0.16532151 -0.07202045 -0.059437342 0.018263372 0.14306411 0.10512741 0.3233773 -0.13618666
0.07007842 0.18027173 0.057925068 0.0003056984 0.08858209 -0.053556673 0.03217767 -0.08359712
-0.10508835 -0.09085717 -0.01727553 0.18277717 0.18006414 -0.16546625 -0.036129024 0.21724531
-0.15072347 -0.14689788 0.25179437 -0.052918904 0.02668612 -0.11273971 0.12705329 0.065342315
0.013778155 0.06868818 0.013240748 0.1710962 0.073169716 0.0019325698 0.016405392 0.09094307
0.13037491 -0.06151807 -0.08339395 -0.08304614 0.13843642 -0.03399348 0.083782464 -0.060090575
-0.02543883 0.051271886 -0.056317974 -0.086844355 0.08962813 0.02223371 -0.07724513 -0.09839368
-0.0714421 -0.031179003 0.07687603 -0.00095 0.19597596 -0.13822496 0.034967702 -0.03412904
0.028350433 -0.033541173 -0.052802816 0.06614526 0.10827922 -0.03581811 -0.11819221 0.13809326
0.05813044 -0.07627757 0.15089823 0.12651351 0.044709224 -0.12693912 0.014000588 -0.15728787
0.0178178 0.24522173 0.16588384 0.08805448 -0.09581219 -0.17575644 -0.043887444 -0.13577904
0.01662255 0.047733705 -0.16135415 0.10728756 0.13441494 0.002652419 0.18107253 -0.1314067
-0.08470324 0.044468865 -0.12427067 0.10299897 0.04414591 0.05552737 0.012051943 -0.05852675
0.051632002 0.033456102 0.12042094 -0.01270842 -0.11380356 -0.014433852 0.057379585 0.1172963
0.19825822 -0.0545413 -0.07376427 -0.07349826 -0.076835744 -0.08553239 -0.019081838 -0.0038331682
0.16511188 -0.030606551 0.037621073 -0.1310399 0.1614028 0.10347826 0.15852311 -0.09818259
0.0722688 -0.11067223 0.07168491 0.060308337 0.004646484 -0.2886234 0.10701197 -0.17232537
0.12898082 0.15488121 0.07300911 -0.1698194 0.13798481 0.048776723 -0.1778331 0.17657834
0.03670069 0.0068027824 -0.14242229 -0.13557051 0.02507866 -0.014294797 0.13443947 0.057322897
0.035619494 -0.08653578 0.24735868 -0.095578894 -0.0045252233 -0.1428294 0.08336602 -0.14987916

fc2.bias f4 [64]
00000000: d0b2 993d 8902 d93c 963a a83d 89bb 8fbd
00000010: 51e6 f4bc 140f 14bc d91d 3c3d 5a88 c5bd
00000020: 3def 1dbd c8f3 6a3d c0e7 a8bd b16a c23d
00000030: 5df7 5f3d e997 bdbd 6dc0 f73d e6f9 cebd
00000040: 1f22 9b3d 6157 ab3d 3f99 e6bd b428 ae3d
00000050: cb2c efbc 4799 77bd 6bda 743d f18a e03c
00000060: 99d4 d2bd cca5 df3d 80cc 813d 78f9 a4bd
00000070: 31e9 f3bd c742 e7bd 1bae b6bd 32fd f5bc
00000080: 1b5d 993d 1a46 eabd 9ff1 b5bd 0e00 e63d
00000090: a83d f4bd c6a3 6f39 ab22 b53d 99d6 d5bd
000000a0: 9a32 373d ff1b 9eba b94a b73d e42d c13d
000000b0: 67b8 b1bd 2d61 5d3d 8b2c db3d 50b9 073d
000000c0: 43c1 ddbd 239d e03d 9777 283d 5e35 cfba
000000d0: 1012 e43d e79d 913d a3dd 26bc dafa 373d
000000e0: 0889 aa3d bc12 cb3d a90c f2bd 7120 9ebd
000000f0: 3e7f de3b fc87 c8bc f473 66bd c7bf 4a3d
0.07504809 0.026490467 0.082142994 -0.07018191 -0.02989498 -0.009036798 0.045926902 -0.096451476
-0.038558234 0.057361394 -0.08247328 0.09493006 0.054679263 -0.0925749 0.12097249 -0.10106258
0.075748675 0.083662756 -0.11259698 0.08503857 -0.029196164 -0.06044891 0.059778612 0.027410002
-0.10294456 0.10920295 0.063378334 -0.08055395 -0.11909712 -0.11292034 -0.08919927 -0.03002796
0.074884616 -0.11439152 -0.08883976 0.11230479 -0.119258225 0.00022853827 0.08844503 -0.10441322
0.04472599 -0.0012062787 0.08949799 0.09432581 -0.0867775 0.054047752 0.10701855 0.033135712
-0.10827877 0.109674715 0.041129675 -0.0015808751 0.11136258 0.071101956 -0.010184678 0.044916965
0.08326918 0.09915683 -0.11818821 -0.077210315 0.006790071 -0.024478905 -0.056262925 0.0494993

fc3.weight f4 [64, 64]
00000000: e546 213d 98ab 143d e15e 53bd 2f03 263b
00000010: b0f0 de3c 9e3f 04bd f7cc 073c 0af4 e73d
00000020: c652 bd3d 3fad 08be 8553 8ebd 1132 493d
00000030: 8bf3 e53d d7db 933d 909d 2b3e 4f66 153e
00000040: 5745 a93b eafe 933d 70bc 21bc 2d48 443e
00000050: db32 6bbd 5a4a 233d 9c53 e7bd 10ad b83d
00000060: c3a6 a63d 6859 c3bd 8b83 183d 2026 573d
00000070: 4713 52bd a077 1e3c d9ce b0bc 34b3 a9bd
00000080: 663d d5bd 2fde 06be 50a2 e4bd 4c4f 833d
00000090: 37fb adbd c27f 61be c0d5 003d 28a7 34be
000000a0: 4ae0 fbbc a60c 473c a08b b2bd edfe f0bd
000000b0: d3c0 16be 47cf fa3c f518 163e 368a 2c3e
000000c0: 15fe 4f3d 80f8 013e 465f 983d 749c 393d
000000d0: a2eb de3c aea7 b8bb 0d46 193d 7db0 abbd
000000e0: 22ea eabd a57f a23c 2e00 c2bd 9e3f 823d
000000f0: 1cc7 013e 6177 953d 7b32 783d ff84 cbbd
00000100: 7c3c 32bc c141 c93d 0f53 363e 7e34 4dbc
00000110: 8ce6 41be 614f 33bd f21a 2dbe b7a9 483d
00000120: 02a6 0abd e3a6 133e 470c ad3d 15b5 8f3d
00000130: 1f7a 5bbd b172 aebc f676 353d 35d6 863d
00000140: cae7 563d 31c8 21be 5afb acbd 547f 103e
00000150: b047 953c ee48 e1bd c1d0 393e fbd0 c03d
00000160: a9f9 9d3c ad9b ad3d 49c1 303d 949d d93c
00000170: aa8c 413d 8500 ad3c 9aae 013d 5d95 a7bd
00000180: e851 5b3d 9576 ebbc cfa7 ea3d cd82 853d
00000190: 8a02 38bd e92c d43d 84ff b4bd 0f5a 553d
000001a0: 70f9 af3d 2c4e 08be 226b ba3d 3646 87bd
000001b0: 93f0 923c ccd0 003e feba 15be 5e01 68bd
000001c0: be89 a73d 53ac 42bc cd86 80bd aad5 203e
000001d0: eb82 283e 8560 d73c cd74 ca3d a654 e1bd
000001e0: d0f1 39bd de3c 973d 59c7 123d 2a6a 763d
000001f0: e85a 1cbc 1e40 bbbd 1e89 54bc ea9b 343e
00000200: a6c9 9abc 5b71 983d 3ec6 5ebe f0e9 1abc
00000210: fc5e 3d3d a548 e0bc 1f61 1dbe 2a27 1bbd
00000220: d7c9 9dbd 7055 723d 5255 cabc d3f0 9f3d
00000230: 326c e63c fd5a cf3d 071a 913d c98f a23d
00000240: e975 843d c111 b33b 90db 35bd 9768 4d3d
00000250: bf21 0c3c 2a1e 83bd e07c 26bc d14c 3a3e
00000260: 5415 5a3d 5ba8 403e 3db7 7bbd a168 0dbe
00000270: da53 bf3c c5a8 c3bd 753d 473d f694 d43c
00000280: cf21 013e 282b 1c3e 89d0 8bbd 4b26 b8bd
00000290: 6c9f 52bd a5ac 513e cc6f 7cbd 574c 8c3d
000002a0: 7de9 9b3c be83 e6bd c9e0 54bc d8cd 193d
000002b0: 4cb0 64bd 71f8 70bd 561d 2b3d d675 91bc
000002c0: 8548 843c 8560 0a3e b78b 013e ef51 06bd
000002d0: 53ed 963c 0a92 8abd d8c0 f4bd 5d56 d4bd
000002e0: 8794 b2bd 1066 c1bd b4e6 80be 181f 2f3e
000002f0: 41aa 98bd b2d8 f33d 1668 153e 2aee d3bc
00000300: dacd 58be 92db 0fbe 6c5f afbc 3536 273e
00000310: 2736 053e d375 e7bd dfe9 6b3e 3026 a4bd
00000320: 1e23 673d a2a9 f33d 99f8 913c 6643 47bd
00000330: be52 843c a52f 87bd 5ea3 4cbe 619c f5bd
00000340: 282a 53be 745d 253e e968 90bc 8fed ff3d
00000350: a8a7 a83d e473 59bd 60e0 0cbe dcc8 0dbe
00000360: 0771 15bd e8c7 dc3b 3afa 8fbd aa4b a13c
00000370: 1ad9 e63c 629d febd b14a e7bc 5b49 53bd
00000380: eb65 973c 9ef4 ea3d aa61 2f3c 391e 4cbd
00000390: b224 083e afb8 203e 525f c0bc da18 e4bd
000003a0: beb1 05bd 9f85 33bb 8796 183e 9a16 6cbe
000003b0: 4e51 8fbc 599c 433d 6620 66bd d4ef 14bd
000003c0: 296f 9eba dc24 603d 2fcf e83d 9168 2cbe
000003d0: d06d 95bd 4268 a13c 8191 bf3d f92e 833c
000003e0: 3e1a 333d 6e70 b33c ddcd 4c3d b38a 233e
000003f0: f6ea 6f3d 4068 d3bd c798 b63d 51bc 30bd
0.03937425 0.036296457 -0.051604155 0.0025331487 0.027214378 -0.032287233 0.0082886135 0.11325844
0.092443034 -0.13347338 -0.06949524 0.049120013 0.11228093 0.072196655 0.16759324 0.14589809
0.0051657367 0.072263554 -0.009871587 0.19168158 -0.057421546 0.03986583 -0.11295244 0.09017384
0.08137276 -0.09538537 0.037234824 0.052526593 -0.051287916 0.0096720755 -0.021583008 -0.082861334
-0.104121014 -0.13170694 -0.11163771 0.06411609 -0.08495181 -0.22021392 0.031453848 -0.1764189
-0.030746598 0.012149012 -0.087180376 -0.11767373 -0.14721994 0.030616416 0.14657958 0.16849598
0.05077942 0.12692451 0.07440047 0.04531522 0.027211968 -0.0056352234 0.03742032 -0.08383272
-0.114704385 0.019836256 -0.094726905 0.0635979 0.1267361 0.0729816 0.060595017 -0.09937476
-0.010878678 0.09826995 0.17805122 -0.012524722 -0.18935603 -0.043776873 -0.1690481 0.048989978
-0.033849724 0.14419131 0.08449607 0.070169605 -0.05358326 -0.021294923 0.044302903 0.065838255
0.052467145 -0.15799023 -0.08446379 0.14111072 0.01822266 -0.11000238 0.1814604 0.0941486
0.019284086 0.084769584 0.04315308 0.026564397 0.04725329 0.021118412 0.031660654 -0.08182786
0.05354491 -0.028743068 0.11457788 0.06519089 -0.044924296 0.103601284 -0.08837798 0.05208784
0.08592498 -0.1331107 0.09102465 -0.066051885 0.01793698 0.1257965 -0.14622113 -0.05664193
0.08180569 -0.011881906 -0.06275711 0.15706506 0.16456191 0.026291141 0.09885559 -0.110024735
-0.045396626 0.07384656 0.035834644 0.06015984 -0.009543158 -0.09143089 -0.012972144 0.17637601
-0.018894982 0.07443496 -0.21755311 -0.009455189 0.046233162 -0.02737839 -0.1536908 -0.037879147
-0.077045135 0.05916351 -0.024698887 0.078096054 0.028127763 0.101247765 0.070850424 0.07937581
0.06467802 0.005464763 -0.044398844 0.050148573 0.008552968 -0.06402238 -0.010161608 0.18193366
0.053242996 0.18814223 -0.061454047 -0.13809444 0.023355413 -0.095536746 0.048642594 0.025949936
0.12610553 0.15250838 -0.06826884 -0.08991679 -0.051421568 0.20476015 -0.061630055 0.06850498
0.019032234 -0.112555966 -0.012993046 0.037549824 -0.055832192 -0.058830682 0.041776024 -0.017756384
0.016147861 0.13513382 0.12650953 -0.03279298 0.018423712 -0.06766136 -0.119508445 -0.10368035
-0.087197356 -0.09443295 -0.25176013 0.17101705 -0.07454348 0.11906566 0.14590487 -0.025870401
-0.21172276 -0.14048603 -0.021407805 0.16329272 0.13008939 -0.1130177 0.23038433 -0.08015096
0.056429975 0.11897589 0.017818736 -0.04864826 0.016152736 -0.06600884 -0.19984195 -0.119927175
-0.2062155 0.16148931 -0.01762815 0.124964826 0.08235103 -0.053089038 -0.13757467 -0.13846153
-0.036484744 0.006737698 -0.07030149 0.0196894 0.028179694 -0.12432362 -0.028233858 -0.05158363
0.018481215 0.11472438 0.010704437 -0.04983351 0.13295248 0.15695451 -0.023482952 -0.111375526
-0.03264021 -0.0027392877 0.14901172 -0.23055497 -0.017494824 0.047756527 -0.05618324 -0.03636153
-0.0012087572 0.05472265 0.11367642 -0.16836764 -0.07296336 0.019703034 0.093539245 0.01601361
0.0437262 0.021904197 0.050001014 0.15970878 0.058573686 -0.103226185 0.08915859 -0.043148343

fc3.bias f4 [64]
00000000: 504a efbd b33a 54bd 1a81 bebd 006e c83d
00000010: 1ffb 8fbd 4e26 24bd ef54 5a3d bd92 19bd
00000020: 9d26 223c 4ff4 bfbd ae88 5cbd 4e61 c43d
00000030: a145 e53d 2aea ef3d 0fa6 ccbd 1adb 96bc
00000040: c217 8fbc d207 35bd 0e1f 07bc 16e6 a93d
00000050: 1102 2a3d 5469 023d d820 1bbd f913 01be
00000060: aca2 d73d fe32 d9bc b814 db3d 4c88 cabd
00000070: 5150 943b 70df ccbd 22e8 c23d 5989 953d
00000080: 05d6 ad3d c006 933d b376 e23a d7bb 61bd
00000090: 80d1 90bd 1192 85bd 91d8 e43d 8c8a 1bbd
000000a0: 00b8 cdbd ff3d 773d d055 9fbb ae1c abbd
000000b0: 09db e83b 0d7f cb3d dd02 6dbd 8bc3 f5bd
000000c0: 1ea1 eabb 998d 89bd 534f fa3d 75ff c4bc
000000d0: d317 d7bd aeb4 8c3d 0200 70bd f0dd 0abd
000000e0: b544 723d 7525 a93d 2827 cfbd e117 e4bd
000000f0: ca52 6abd c1b5 063e 4cf8 b2bb c1d6 c4bd
-0.11684096 -0.051813792 -0.09301968 0.09786606 -0.070303194 -0.040075593 0.053303655 -0.037493456
0.009896901 -0.0937277 -0.053841285 0.09588872 0.11194921 0.11714585 -0.09992611 -0.018415023
-0.017467383 -0.04419691 -0.00824715 0.082958385 0.041505877 0.03183873 -0.03787312 -0.12605275
0.10529074 -0.026513573 0.10697311 -0.09889278 0.004526176 -0.10003555 0.09516932 0.073015876
0.084880866 0.07179022 0.0017277807 -0.05511078 -0.07071209 -0.065220006 0.11174119 -0.037973925
-0.10044861 0.06036186 -0.0048625246 -0.083550796 0.007106189 0.099363424 -0.05786406 -0.120001875
-0.00716032 -0.06716461 0.12222161 -0.024047593 -0.10502591 0.068703994 -0.058593757 -0.033903062
0.059147555 0.082590975 -0.1011489 -0.11137367 -0.05720786 0.13155271 -0.005461728 -0.096112736

fc4.weight f4 [27, 64]
00000000: 4e20 eabd dccf 373d d261 cbbd ad6d 183d
00000010: 945f 78bd 650d 8fbc c958 a5bd cafd d5bd
00000020: bca1 e83c e4b1 81be 0939 99bc 8870 20be
00000030: 7432 e8bd 6e8b e53d 2ba2 473e ee60 6cbe
00000040: eadf f23d 5182 5bbe 4e39 803d f7b0 143e
00000050: da5b a9bd e6e0 12be 7f61 d53d e134 1dbe
00000060: 8d31 89be 1e26 4f3e 0b90 13bc 4add de3d
00000070: db58 20be 96a9 65bd 3984 a13b adee b7bc
00000080: 1b46 b63b 3f8d 32be 9903 9dbc 08a2 083d
00000090: 4989 b1bd bf0b dbbc 9bc5 7a3d ce26 bcbd
000000a0: b0c6 883a b21d 093e 76b8 79be 4d80 423e
000000b0: 6079 e1bd 432f e93d 4a33 c6bd 0212 d1bd
000000c0: 9896 293e b7a1 95bd ba58 f63d 4326 6bbd
000000d0: e01e 16be 97e7 0e3e 8c70 fd3d 1fe7 953d
000000e0: ed67 133e d789 5dbd 6224 32bd b4e6 1d3e
000000f0: f2a1 87bd 0950 113e 6e14 363e 0470 9d3d
00000100: 42a5 49bd c1e1 cb3d 4bca 0ebd e2a4 81be
00000110: 65d1 a93d 4c0d 1c3e 8e60 e53c eb2d a53d
00000120: 15a2 46bd 894a efbc 90cf 333e 522f db3d
00000130: e1dd 36bb 43d9 a5bc 92f4 32bc 736d 6fbd
00000140: 675f 89be 3e74 843e 30bf 613d 4b10 15bd
00000150: 99c8 673d aa85 a2be 63ce ca3c e7ed e73d
00000160: 8e2b d73d 99fc 543e 597a 7f3d a1a6 22bb
00000170: b9f2 a93b 1384 1abb 462e 833d e640 443e
00000180: 550f a5bd 3450 80bc 1344 b2bd 1a94 5e3c
00000190: 0ad2 eb3d 4229 223e 6ed1 893b 35ef 11be
000001a0: 4a6b acbd c2ed af3d c6b1 213e 8494 4d3d
000001b0: 37f9 333e d876 54bd add1 393e 9322 d0bd
000001c0: 2050 afbd 55e0 c3bc e436 0fbe 979a 0abd
000001d0: 0182 b93c bae9 0abe ba12 4abd cb7d d43a
000001e0: cde8 53be a628 583d b1ec cabc 0fac b7bc
000001f0: 92a5 ee3d c1db 70bd 9f46 283e 6b84 e33d
00000200: 2367 183e ea74 7dbe 1292 57bb 7b9a fe3c
00000210: 9cc6 b63d 5f24 c3bd 36f4 f03d 380d b33d
00000220: 5b7e debd d651 043e d4a7 953c 6e20 293c
00000230: c187 a73d 2ec0 f43c 03f4 78bd ed62 6e3a
00000240: aefe ef39 d16e f33d 5a1f 153e abaa 903d
00000250: 5d98 893d 6298 6cbe 5add 56bc 124d f53c
00000260: d770 bd3d d726 eebd 1b92 013e 2b87 ccbc
00000270: 1941 a1bd f76c 583e b0d4 5e3d 09eb 2ebe
00000280: ea65 033d 8c9e 7a3c c33e 873d 5d37 0cbe
00000290: c74d 47be 878a 18be 28b0 3a3d c560 573d
000002a0: a9cc 9d3e ae14 21be 37f4 85bd e270 0cbd
000002b0: 94df 133d 40ef 1a3e 43f5 3f3e 9a44 213c
000002c0: d539 f0bd 34b8 85bc 2fc9 f1bd 3689 033e
000002d0: c166 1abe 4b58 7fbd d80b 10bd 05a8 803d
000002e0: 53b5 983e 91e7 9e3d 0b60 5abe 1b69 f23d
000002f0: 4e91 3b3c 4f1a a4bd c4a0 883d ec84 b8bc
00000300: 4dbf 98bd fcbc 8a3c 8506 7a3d 5a73 c2bd
00000310: d7f1 10be 780e 093e 4737 1ebe 7c11 e43c
00000320: 20ba ed3d bce5 fe3d 946f e9bb a14b 74be
00000330: d614 873d 0a6b a3bb b3e8 1cbe 25aa 7b3e
00000340: defb 84be 5d91 c43c ddd1 6f3e 2bfd 7cbb
00000350: ccdb b8bd 6dc8 57bd fa4b f83d 31b1 073e
00000360: 584f b8bd 22aa ddbd ba3e 18be 54cd 703e
00000370: 6bb5 19bd c671 aa3d 343d 39be bd61 023e
00000380: c7a9 46be 2707 a33d aa38 493c 5364 8dbd
00000390: 1ead 803d 95c0 6cbe 9654 953d 40b2 d13d
000003a0: eb05 453d e900 963e d00d a7bd c578 c93d
000003b0: 104d 1c3e 2365 fe3d 9c5b 083e 0e60 28be
000003c0: 5f1a 0a3d de7a 833e e6b7 003e 1816 cbbc
000003d0: d2e1 68be 78d9 8b3b 6ae8 123e 3770 36be
000003e0: 65f9 dbbd e27e 9a3d 7d89 563e d807 cd3d
000003f0: 0860 c3bd bfa3 f7bd 06b7 62bd 44ee 5dbd
-0.11431943 0.044875965 -0.09930767 0.03721397 -0.060638025 -0.017462442 -0.08073575 -0.10448797
0.028397433 -0.25331032 -0.018703954 -0.15667927 -0.11337748 0.11208235 0.19495456 -0.2308385
0.118591145 -0.2143643 0.0626093 0.14520632 -0.082694724 -0.14343604 0.104189865 -0.15352203
-0.26795617 0.20229384 -0.0090065105 0.10882051 -0.15658896 -0.056069933 0.0049290922 -0.022452677
0.0055625564 -0.17436694 -0.019166755 0.03335765 -0.08668763 -0.026739 0.061223608 -0.09187089
0.001043519 0.13390234 -0.24386773 0.18994255 -0.110094786 0.113859676 -0.09677751 -0.10208513
0.16561353 -0.07306235 0.12028642 -0.057409536 -0.14660215 0.13955532 0.12374982 0.073194735
0.14395113 -0.054086532 -0.04349173 0.15420038 -0.066226855 0.14190687 0.17781231 0.07687381
-0.049229868 0.099551685 -0.03486089 -0.25321108 0.08291892 0.15239447 0.028000142 0.08065399
-0.048494417 -0.029210346 0.17559648 0.10702385 -0.0027903246 -0.0202452 -0.010922568 -0.05845399
-0.268306 0.25869936 0.05511397 -0.03639249 0.05658779 -0.31742603 0.024756616 0.11324673
0.10506354 0.20799483 0.06237254 -0.0024818557 0.0051864055 -0.0023577258 0.0640531 0.19165382
-0.08059565 -0.015663244 -0.087043904 0.013585115 0.11514671 0.15836051 0.004205874 -0.14251406
-0.08418901 0.085902706 0.15790471 0.050190464 0.17575537 -0.05187115 0.18146391 -0.101628445
-0.085602045 -0.02391068 -0.13985783 -0.033838835 0.022644999 -0.13565722 -0.049334265 0.0016211806
-0.20694275 0.05277314 -0.024771066 -0.022420911 0.11652674 -0.058803324 0.1643319 0.11109241
0.14883094 -0.2475163 -0.0032893461 0.031079521 0.089246005 -0.095284216 0.117653295 0.08742756
-0.10863944 0.12921843 0.018268503 0.010322673 0.0818019 0.029876795 -0.060779583 0.00090937206
0.00045775383 0.11886371 0.14562741 0.07063802 0.06718514 -0.23105004 -0.013114298 0.029943977
0.09250038 -0.11628502 0.12653391 -0.024966797 -0.078737445 0.21135317 0.054402053 -0.17081846
0.032079615 0.01529659 0.06603768 -0.13692994 -0.19463263 -0.14896594 0.045578152 0.05258252
0.30820206 -0.15730545 -0.06540721 -0.03428734 0.036101893 0.15130329 0.18745904 0.009843016
-0.117297806 -0.016323186 -0.11805951 0.1284531 -0.1507826 -0.062340062 -0.035167545 0.06282047
0.2982584 0.077590115 -0.213257 0.118364535 0.011448218 -0.080128305 0.066712886 -0.02252432
-0.07458363 0.016935818 0.061041374 -0.09494658 -0.14154755 0.13384426 -0.15450774 0.027840368
0.11607766 0.12446162 -0.007123897 -0.23856975 0.06595771 -0.0049871253 -0.15323143 0.24576624
-0.2597341 0.023995096 0.234199 -0.0038603048 -0.09026298 -0.052681375 0.121238664 0.13251187
-0.089995086 -0.10823466 -0.14867678 0.23515826 -0.03752653 0.08322482 -0.18089753 0.12732597
-0.19400702 0.079603486 0.012281576 -0.06903901 0.062830195 -0.23120339 0.07291524 0.102390766
0.048101347 0.2929757 -0.081569314 0.09837488 0.15263772 0.12421634 0.13316196 -0.16442892
0.033716556 0.25679678 0.12570152 -0.024790809 -0.22742394 0.0042678677 0.14346471 -0.17816244
-0.107409276 0.07543732 0.20950885 0.10011262 -0.09539801 -0.12091779 -0.055350326 -0.054182306

fc4.bias f4 [27]
00000000: 9ed8 ad3d c0f3 0cbc 1670 d5bd 063f 903b
00000010: 56c3 063e 2809 5fbb 5a6c c03c ea43 82bd
00000020: 0dd7 0a3c 2824 653d 1c57 2a3d 2ffa 283c
00000030: 658b 983d 3277 0bbc a30e af3d e5b4 9c3c
00000040: 4443 b2bc 159d 3ebd b224 8c3c 016e c03b
00000050: 48ac 153e 3480 c7bd 714a 9ebc 7b0f ca3d
00000060: af6a 1bbb 39ec 7a3d 3e1b 85bd
0.08488582 -0.008603036 -0.10421769 0.004402044 0.13160452 -0.0034032557 0.023489166 -0.0636061
0.008474124 0.055942684 0.04158698 0.010313555 0.074484624 -0.008512305 0.085477136 0.019129226
-0.02176059 -0.046536524 0.017107341 0.0058724885 0.14616501 -0.0974125 -0.019322606 0.09866234
-0.0023714711 0.061260436 -0.06499337
